Models/model-A-4.pt (torch, 53607 bytes, 17 tensors)

weight f4 [32, 86]
0.118835844 0.1762318 0.02495464 -0.08211062 -0.03821654 -0.26883498 0.09696439 -0.07531356
0.43328768 0.16836326 0.027885877 -0.12936345 -0.15494637 0.18002287 -0.26170358 -0.15063462
-0.3625505 -0.17318459 0.33670813 0.10851231 -0.21891388 0.06671402 -0.2490552 0.06380447
0.12475969 0.3269379 -0.13978672 0.24350616 0.04469568 -0.0037052627 -0.032778334 -0.19806133
0.20196503 0.12242522 0.29150906 0.29979905 -0.034060232 0.17993143 -0.060709827 -0.070019685
0.06434658 0.29892862 0.17154169 -0.09243627 0.012116528 -0.07034376 -0.18107517 -0.413802
-0.07674486 -0.011176369 0.16978195 -0.11541984 0.09534896 0.0043959282 -0.24403484 -0.06609836
0.006211404 -0.04325019 -0.33483633 -0.0478521 0.054765236 0.23079234 0.119832315 0.053907122
-0.09035058 0.095444925 -0.20251575 -0.20749365 0.04825813 0.0020975291 -0.043374512 -0.15133101
-0.19249399 -0.16334593 0.061384447 -0.28737518 0.08379075 -0.13479099 -0.24490471 -0.040951114
0.16452038 0.20297363 0.10406639 -0.4197468 -0.17236328 0.039087746 0.105110765 0.046753738
-0.028653072 0.16419527 -0.07205487 -0.28145215 -0.108444236 0.008868096 0.056112856 0.06456077
0.3079614 -0.42141962 0.012688703 0.10888108 0.22231893 -0.087122135 -0.17360263 -0.079537645
0.1168412 -0.21312185 0.024453571 -0.10055403 0.16148864 0.24915178 -0.111025795 0.03137812
-0.058780428 0.189287 -0.12413771 -0.18828556 0.085033655 -0.13258709 -0.1279596 -0.21518855
0.1516648 -0.20692115 0.11986478 0.11131735 -0.14368111 0.10997798 0.2492176 -0.05859864
-0.23323344 0.15692496 0.1462293 -0.055800643 0.114801824 -0.0979877 0.034758683 -0.18457481
0.17179437 0.28360286 0.13407722 0.015855197 -0.038155556 -0.24984351 -0.1651302 0.155302
-0.010705202 0.27312624 0.15673423 0.22479485 -0.06575257 0.031637687 0.083942235 -0.05846652
-0.20765206 0.22524372 -0.098668315 -0.19867015 -0.029112179 0.021972772 -0.14521718 -0.004421358
0.041065473 0.026096249 0.1733209 -0.017715083 -0.021566333 -0.016102701 -0.061292455 0.0040822844
0.07680772 0.15769161 -0.054295935 0.04528807 0.02555126 0.39176625 -0.297224 0.2665741
0.21493514 0.11306705 0.12427217 0.22422776 0.18235002 0.016917557 -0.20719463 -0.2362672
0.12518331 0.008115276 0.23491158 -0.13171878 0.06691162 -0.12216475 -0.24245012 0.057310935
0.029402854 0.08938237 0.09673182 -0.22636415 -0.03315736 0.30748743 0.2735891 0.14622732
0.1584113 -0.12574324 -0.1919899 -0.04105178 0.033693697 0.08596386 -0.21693277 0.15455674
-0.34205794 0.115739174 -0.07449505 0.05476046 0.026866596 -0.15751746 0.08109095 0.07973095
0.1416538 -0.12975648 -0.038064484 0.07958585 0.04030171 0.20455478 -0.03344526 -0.30136958
-0.027950652 0.14744946 0.30095 0.015593296 -0.020777034 0.1449673 0.015554048 -0.13425703
-0.0942266 -0.31949088 0.004095014 0.16727665 0.22119614 0.00045836702 0.12031593 0.06613158
0.122375675 0.10126824 -0.059190407 0.09455034 -0.012790266 0.037471943 -0.16044192 -0.042780306
0.21483944 0.16146687 0.08634359 -0.0036735206 -0.02654363 0.103492394 0.10796457 0.07701722
00000000: 3560 f33d 1c76 343e ac6d cc3c 9d29 a8bd
00000010: f288 1cbd bda4 89be 4495 c63d ff3d 9abd
00000020: e2d7 dd3e 6b67 2c3e ec70 e43c da77 04be
00000030: 43aa 1ebe ea57 383e 03fe 85be f63f 1abe
00000040: 38a0 b9be 4d57 31be 0265 ac3e b43b de3d
00000050: f62a 60be 5ca1 883d 5408 7fbe ebab 823d
00000060: 0282 ff3d 6864 a73e 4024 0fbe ae59 793e
00000070: d112 373d fed3 72bb 9342 06bd 97d0 4abe
00000080: eccf 4e3e 13ba fa3d ad40 953e 437f 993e
00000090: be82 0bbd f23f 383e deaa 78bd 7b66 8fbd
000000a0: 24c8 833d 2c0d 993e a0a8 2f3e 3a4f bdbd
000000b0: 6784 463c 6410 90bd c56b 39be dbdd d3be
000000c0: 692c 9dbd 171d 37bc 52db 2d3e 3d61 ecbd
000000d0: 5146 c33d b80b 903b 45e4 79be 945e 87bd
000000e0: 0989 cb3b 1c27 31bd ab6f abbe 9000 44bd
000000f0: 8351 603d d454 6c3e a56a f53d b7cd 5c3d
00000100: ba09 b9bd a178 c33d 4a60 4fbe 3779 54be
00000110: 51aa 453d b376 093b 79a9 31bd 84f6 1abe
00000120: 251d 45be 2844 27be 426e 7b3d d722 93be
00000130: 7c9a ab3d a606 0abe 4dc8 7abe 5bbc 27bd
00000140: 0878 283e 52d8 4f3e c220 d53d 0de9 d6be
00000150: 0080 30be 791a 203d 5044 d73d d980 3f3d
00000160: d9b9 eabc ce22 283e 8191 93bd 7f1a 90be
00000170: 0318 debd 7e4b 113c 98d6 653d 7038 843d
00000180: 1ead 9d3e 50c4 d7be 47e4 4f3c 0bfd de3d
00000190: 93a7 633e 176d b2bd e3c4 31be a2e4 a2bd
000001a0: 704a ef3d 9d3c 5abe db52 c83c 45ef cdbd
000001b0: 475d 253e a521 7f3e 7e61 e3bd 5886 003d
000001c0: bfc3 70bd 74d4 413e e93b febd eecd 40be
000001d0: 2026 ae3d e9c4 07be d707 03be 635a 5cbe
000001e0: 044e 1b3e 23e3 53be aa7b f53d 5afa e33d
000001f0: 2421 13be 233c e13d e632 7f3e 2105 70bd
00000200: bfd4 6ebe f0b0 203e 22bd 153e 378f 64bd
00000210: 381d eb3d c6ad c8bd 1f5f 0e3d 2e01 3dbe
00000220: ddea 2f3e 6534 913e 8a4b 093e c2e2 813c
00000230: 0049 1cbd fad6 7fbe e417 29be 7d07 1f3e
00000240: df64 2fbc 34d7 8b3e f07e 203e 9f30 663e
00000250: 49a9 86bd 8596 013d e8e9 ab3d 977a 6fbd
00000260: bea2 54be 4aa6 663e 9d12 cabd 3070 4bbe
00000270: aa7c eebc 3e00 b43c d0b3 14be 0ae1 90bb
00000280: 4534 283d cdc7 d53c 097b 313e 391f 91bc
00000290: e1ab b0bc d0e9 83bc cc0d 7bbd afc4 853b
000002a0: 5e4d 9d3d e979 213e 6a65 5ebd fc7f 393d
000002b0: e050 d13c 9695 c83e be2d 98be 677c 883e
000002c0: f517 5c3e b38f e73d 6882 fe3d f69b 653e
000002d0: f7b9 3a3e b096 8a3c d42a 54be 07f0 71be
000002e0: 0e30 003e eff5 043c a98c 703e 4ae1 06be
000002f0: f608 893d 8331 fabd d844 78be dfbe 6a3d
00000300: 41de f03c 1b0e b73d 551b c63d 01cc 67be
00000310: 03d0 07bd fe6e 9d3e df13 8c3e 9dbc 153e
00000320: 9236 223e d6c2 00be 0099 44be e925 28bd
00000330: 6702 0a3d d20d b03d a023 5ebe 1f44 1e3e
00000340: 3822 afbe a908 ed3d dc90 98bd 814c 603d
00000350: 5617 dc3c 424c 21be 0313 a63d fb49 a33d
00000360: b20d 113e e2de 04be 81e9 1bbd e8fd a23d
00000370: 6813 253d cf76 513e e6fd 08bd 1d4d 9abe
00000380: c4f8 e4bc fefc 163e 1e16 9a3e 067b 7f3c
00000390: 9934 aabc 4f72 143e 68d6 7e3c ad7a 09be
000003a0: e0f9 c0bd 4f94 a3be 782f 863b 924a 2b3e
000003b0: 3e81 623e fb50 f039 3368 f63d fe6f 873d
000003c0: 19a0 fa3d b965 cf3d a471 72bd 9ca3 c13d
000003d0: 448e 51bc 2e7c 193d e34a 24be 673a 2fbd
000003e0: dffe 5b3e 9257 253e e8d4 b03d 73bf 70bb
000003f0: 0772 d9bc d2f3 d33d 871c dd3d 34bb 9d3d

bias f4 [32]
-0.041287635 0.103840955 0.009515852 0.02611181 -0.01021631 -0.023522694 0.037759844 0.04455575
0.056628432 -0.002089032 -0.018074522 -0.0062416173 0.10404882 0.09435193 -0.01279086 0.05921564
-0.08756113 0.0545868 0.1420139 -0.094653964 -0.062001567 -0.1052756 0.063588 0.022416927
-0.03361855 -0.03235406 -0.018210987 -0.0063397577 -0.002158881 -0.10918337 0.06698513 -0.05378241
00000000: 391d 29bd 91aa d43d 60e8 1b3c 6fe8 d53c
00000010: 4f62 27bc aab2 c0bc 11aa 1a3d 1780 363d
00000020: 37f3 673d 24e8 08bb 0511 94bc 7b86 ccbb
00000030: 8c17 d53d 963b c13d c190 51bc 198c 723d
00000040: 4053 b3bd 6996 5f3d 186c 113e f0d9 c1bd
00000050: 5bf5 7dbd bc9a d7bd 6d3a 823d b4a3 b73c
00000060: 9bb3 09bd b185 04bd 352f 95bc bebd cfbb
00000070: 037c 0dbb 889b dfbd 802f 893d f24a 5cbd

weight f4 [32, 32]
0.024089087 0.38524514 -0.30470487 0.07544086 0.20976259 0.08166703 -0.012623687 0.15199743
0.09317202 0.08512766 0.33155644 -0.069301374 -0.03882138 0.053609375 -0.11124334 -0.1014851
0.32129303 0.22061972 -0.011019925 -0.0294931 0.35542515 -0.24867538 -0.24748264 0.27771714
0.46006936 0.0455088 -0.029256906 -0.15901951 -0.03868242 -0.049203996 -0.0070885783 0.2505643
0.22659288 0.2670925 -0.235515 -0.080923975 0.2869912 -0.22146584 0.15998967 0.4042023
-0.14714092 0.51190865 -0.0869374 -0.41652027 0.006883165 -0.22410004 0.098674975 0.29583082
-0.18498889 0.09945022 -0.11454605 -0.096569195 0.07521853 0.11813747 0.26029474 0.13762178
-0.1495691 -0.07544305 0.049655277 -0.41745567 -0.26861405 -0.36372346 -0.038521167 -0.2826203
-0.04006018 0.10755827 -0.30960208 -0.328755 0.3017795 0.13128184 -0.08637687 0.08508654
-0.07705351 -0.22931199 -0.25527737 -0.11361101 0.22858489 -0.12017465 -0.32931224 0.22313033
-0.2856545 0.12946892 -0.114532895 -0.063843474 -0.24288756 -0.098244816 0.10851199 0.33247015
-0.3303588 -0.102059305 -0.029643102 0.11264615 -0.2483958 -0.1942231 -0.017649287 0.11487421
0.23605596 -0.18078664 -0.37758455 0.038552046 -0.36158732 -0.30743623 -0.24606255 -0.1197681
0.018075425 -0.20801887 0.00074081053 0.04947185 0.13044949 -0.1134875 0.013615525 0.24602513
0.056970514 0.28289628 0.006290122 0.16824068 0.048968043 0.24057981 0.075511895 -0.11127954
-0.034742065 0.15746397 0.39451715 0.16680752 0.08439009 -0.07669227 0.24487843 -0.26158744
0.12687884 0.42767963 -0.32397714 -0.1555078 -0.032580953 0.0903767 -0.08965409 0.3933315
-0.16875692 0.17117295 -0.21800007 -0.24820766 0.024634143 0.4581936 -0.020998813 0.027459498
-0.29988414 0.028478617 0.03088521 -0.11897168 -0.14077744 -0.20931876 -0.4936774 -0.02320588
-0.32455778 -0.09145149 0.067969374 -0.34353033 0.32784072 0.042784188 -0.17255604 0.14096893
-0.075955436 -0.2095981 -0.017419016 -0.056718785 -0.11794233 0.13099353 -0.5623754 -0.18591236
0.4156043 -0.061950456 0.16552307 -0.046356313 0.08412743 -0.12259977 -0.0034377195 0.121229544
-0.03911256 -0.062942944 0.3223602 0.39370587 -0.029118642 0.005622073 -0.44509754 -0.067269504
0.40677175 0.39171547 0.19844766 -0.49250308 -0.17765418 0.035114437 -0.29253602 0.0049906946
-0.58133334 -0.32303223 0.16288972 -0.14627668 0.066014625 0.28489453 0.023986792 -0.18194257
0.06298409 -0.3382076 0.18972166 0.02241967 -0.24240139 0.15329719 0.37388587 0.3467112
0.5201311 -0.32425392 -0.03573717 0.016006356 -0.16041043 -0.26682255 -0.2079861 -0.039442956
-0.034656607 0.28491697 -0.114909194 -0.16599478 0.054855358 -0.28277633 -0.5315485 0.09664297
-0.09810589 -0.47250375 0.007810845 0.2838757 0.20440456 0.27436778 0.49030375 -0.1168694
0.045036636 0.17233905 -0.06668219 -0.16033135 -0.14440678 0.2209846 0.24954851 -0.20219801
-0.12727277 -0.07755671 -0.035095934 -0.13264337 -0.08537467 -0.17317384 0.16890378 0.20586452
0.32284483 -0.1801825 -0.16899861 0.28468508 0.11474492 0.16132428 0.10456389 0.10537579
00000000: 7a56 c53c da3e c53e 4702 9cbe bd80 9a3d
00000010: 01cc 563e 0b41 a73d 95d3 4ebc 37a5 1b3e
00000020: f9d0 be3d 6957 ae3d c4c1 a93e e1ed 8dbd
00000030: 2b03 1fbd 8195 5b3d 8cd3 e3bd 6cd7 cfbd
00000040: 8580 a43e 23ea 613e ea8c 34bc 839b f1bc
00000050: 49fa b53e c2a4 7ebe 176c 7dbe f130 8e3e
00000060: 368e eb3e 6f67 3a3d 2eac efbc 03d6 22be
00000070: 7571 1ebd 218a 49bd 4e47 e8bb f749 803e
00000080: f707 683e 59c0 883e d82a 71be 78bb a5bd
00000090: 83f0 923e f1c7 62be 55d4 233e 9bf3 ce3e
000000a0: 1cac 16be 720c 033f 3c0c b2bd 2542 d5be
000000b0: 2c8c e13b 7b7a 65be 1b16 ca3d 2377 973e
000000c0: ba6d 3dbe 8fac cb3d 1f97 eabd 12c6 c5bd
000000d0: 2c0c 9a3d 0ff2 f13d 5a45 853e b9ec 0c3e
000000e0: a428 19be e381 9abd 5563 4b3d c0bc d5be
000000f0: c887 89be f639 babe 5fc8 1dbd 9cb3 90be
00000100: 2516 24bd 8347 dc3d 2a84 9ebe 9352 a8be
00000110: d882 9a3e bf6e 063e 5be6 b0bd da41 ae3d
00000120: 3bce 9dbd c3d0 6abe b7b3 82be e4ac e8bd
00000130: 2812 6a3e 201e f6bd 9d9b a8be 477c 643e
00000140: 4e41 92be 8093 043e 3990 eabd 5ec0 82bd
00000150: 84b7 78be 9434 c9bd 893b de3d 8739 aa3e
00000160: ca24 a9be 7804 d1bd 17d6 f2bc 06b3 e63d
00000170: 785b 7ebe 6ce2 46be 3d95 90bc 2b43 eb3d
00000180: a7b8 713e 2220 39be c352 c1be c0e8 1d3d
00000190: f921 b9be 4868 9dbe d2f7 7bbe fa48 f5bd
000001a0: ea12 943c e602 55be f432 423a ffa2 4a3d
000001b0: 8d94 053e 226c e8bd a713 5f3c 03ee 7b3e
000001c0: ea59 693d c8d7 903e 5e1d ce3b 4947 2c3e
000001d0: b792 483d 8e5a 763e fba5 9a3d 87e6 e3bd
000001e0: b24d 0ebd 3c3e 213e 27fe c93e 97cf 2a3e
000001f0: b6d4 ac3d d610 9dbd 69c1 7a3e caee 85be
00000200: 87ec 013e d3f8 da3e 55e0 a5be 703d 1fbe
00000210: 9b73 05bd 6b17 b93d 909c b7bd bf62 c93e
00000220: 9dce 2cbe f647 2f3e 693b 5fbe 262a 7ebe
00000230: 8bcd c93c 5a98 ea3e b405 acbc bef2 e03c
00000240: 6a8a 99be fd4b e93c fb02 fd3c 6da7 f3bd
00000250: f627 10be a857 56be 49c3 fcbe 421a bebc
00000260: 702c a6be eb4a bbbd 8733 8b3d 35e3 afbe
00000270: bdda a73e 793e 2f3d 88b2 30be 295a 103e
00000280: 868e 9bbd e2a0 56be 53b2 8ebc f551 68bd
00000290: c08b f1bd 2b23 063e d6f7 0fbf cf5f 3ebe
000002a0: 16ca d43e c3bf 7dbd e17e 293e 1ee0 3dbd
000002b0: 014b ac3d 9715 fbbd 5d4b 61bb 3247 f83d
000002c0: 7e34 20bd 3be8 80bd 650c a53e d193 c93e
000002d0: 388a eebc 5e39 b83b d3e3 e3be 98c4 89bd
000002e0: 6344 d03e ee8e c83e dd35 4b3e 5d29 fcbe
000002f0: faea 35be 28d4 0f3d 48c7 95be fb88 a33b
00000300: 43d2 14bf 7b64 a5be 90cc 263e 8ec9 15be
00000310: ad32 873d b2dd 913e f37f c43c 274f 3abe
00000320: cdfd 803d 8c29 adbe 6546 423e 75a9 b73c
00000330: 1238 78be f0f9 1c3e f86d bf3e 2184 b13e
00000340: 5027 053f 9c04 a6be 2461 12bd c31f 833c
00000350: a242 24be f79c 88be 4ffa 54be f08e 21bd
00000360: 16f4 0dbd a3e0 913e 8355 ebbd 89fa 29be
00000370: 03b0 603d 0fc8 90be 9013 08bf c0ec c53d
00000380: beeb c8bd 03ec f1be 1ef2 ff3b 2858 913e
00000390: 6e4f 513e ef79 8c3e 1809 fb3e 3959 efbd
000003a0: 5678 383d a679 303e ac90 88bd e72d 24be
000003b0: 5fdf 13be c949 623e a589 7f3e ff0c 4fbe
000003c0: cb53 02be 0dd6 9ebd c1c0 0fbd aad3 07be
000003d0: ead8 aebd 7c54 31be 1df5 2c3e 26ce 523e
000003e0: eb4b a53e c381 38be f90d 2dbe 3ec2 913e
000003f0: 62ff ea3d 3132 253e 9825 d63d 43cf d73d

bias f4 [32]
-0.13282765 -0.054022003 0.03678081 -0.09168381 -0.10119348 0.014296636 0.04344652 -0.1539563
-0.041882075 -0.11265278 0.060149364 -0.14722084 -0.13592759 -0.122193396 -0.07995972 0.14292505
0.0392157 -0.0032280965 -0.09948803 0.08665858 0.017933872 0.12529981 0.20396395 -0.06803373
0.015496869 0.037011225 0.044128954 -0.06711398 -0.00078675675 0.055865377 0.10930097 -0.15127087
00000000: f903 08be 2d46 5dbd 7aa7 163d b9c4 bbbd
00000010: 873e cfbd 703c 6a3c faf4 313d b8a6 1dbe
00000020: 8a8c 2bbd 80b6 e6bd 2e5f 763d 0fc1 16be
00000030: 9a30 0bbe 8840 fabd ecc1 a3bd f25a 123e
00000040: a4a0 203d 798e 53bb 61c0 cbbd 0e7a b13d
00000050: 0eea 923c 984e 003e eddb 503e 4555 8bbd
00000060: 94e6 7d3c 1599 173d 90c0 343d 0e73 89bd
00000070: 5a3e 4eba 18d3 643d 30d9 df3d c0e6 1abe

weight f4 [32, 32]
0.17490101 -0.25561768 -0.12629762 -0.07713474 -0.33776128 0.261026 -0.2298078 -0.026311392
-0.326069 -0.004897079 -0.2190053 0.30713114 0.27382532 -0.20221747 -0.0572728 0.10466309
-0.39968786 -0.13230379 0.33744055 0.15558116 0.25314718 -0.26332882 0.12636675 0.057193816
0.064324394 0.01222518 -0.12680593 -0.011484842 -0.019802291 -0.03875976 -0.13030168 0.38435227
-0.031182913 -0.22376767 -0.18182418 0.28016156 0.32432163 0.37028438 0.06021874 -0.08093752
0.18540604 -0.24955943 0.1937341 -0.046383135 -0.14757986 0.03663529 0.053477664 0.025204858
0.1848906 0.33140984 0.018403396 -0.2537026 -0.31660086 -0.36205062 0.06628124 0.32878897
0.2244002 -0.111662276 -0.1586206 -0.34820127 0.27865273 -0.27150875 0.25051314 -0.11451613
0.47496754 -0.27012148 0.0924478 0.17407809 0.43752745 -0.055772636 -0.095763214 0.21492887
-0.1670456 -0.040423628 -0.6154572 -0.21441469 0.14881358 0.24369286 0.10594496 -0.29543373
0.059168212 -0.10883363 0.36727494 -0.21696478 -0.06371332 -0.45141813 0.24285133 0.17306544
-0.043409042 0.119283035 0.14998458 -0.14695676 0.02334609 0.16624734 -0.15299945 -0.3673067
-0.13875277 -0.19104876 -0.29230875 -0.057179138 0.15020446 -0.30385584 0.123952016 0.3464548
0.023874799 0.23751092 0.22942625 0.21703298 -0.06654216 0.5236074 0.014381366 -0.08082917
0.16374925 -0.2567335 -0.3111022 -0.05277504 -0.17844644 -0.03093478 0.0493507 0.0178294
-0.35144794 0.08003414 -0.36983156 -0.06629369 -0.13983907 0.3203144 -0.072572 0.005818133
0.056558564 -0.22597957 -0.19211327 -0.098870575 0.29055154 0.1908521 -0.014134082 0.2340916
0.14786659 -0.29962006 0.24026053 -0.008815602 0.1981321 -0.005727228 0.53601485 -0.11867119
0.2619759 -0.03592243 -0.04568272 -0.13879852 -0.06646955 -0.009361386 -0.04036442 -0.14587404
-0.17372304 -0.2159262 0.019589242 0.33541998 0.02971853 0.17580552 0.47632787 -0.47992617
-0.2872699 -0.033742577 0.1978853 -0.05327672 -0.060070187 0.16515325 -0.32489547 -0.38962317
0.14373538 0.28154615 0.4608178 -0.12303427 0.20442563 0.12458849 0.17125244 0.043239325
-0.08529506 0.101660326 -0.0380843 0.15534359 0.078699075 0.28670773 -0.55690604 -0.24466169
-0.22507769 0.079115115 0.0829934 0.34329256 0.3362828 -0.08381157 0.39672846 -0.20116182
-0.30318126 -0.11947238 -0.048472412 0.23190664 -0.0064505273 -0.28377166 -0.41907147 0.02005295
-0.19048409 0.10827084 -0.041140895 -0.19413011 -0.5319987 -0.10627004 0.018851258 0.01247499
0.24491392 -0.046727948 -0.54048663 -0.0015123466 0.3233599 0.08797425 -0.11922088 -0.074905835
0.04583877 0.10469005 0.036498465 -0.41352326 -0.07488277 -0.045695893 0.1621971 -0.01980145
0.019343728 0.10273312 0.34002697 -0.10955854 -0.1161994 0.42977357 0.06015421 -0.31031334
-0.16377077 -0.053440407 0.25739864 -0.109720536 0.19597648 0.043364096 -0.08208108 0.17086431
0.32835513 0.044406608 0.03593161 0.18124975 -0.23272385 -0.1327029 -0.13080516 -0.07828443
0.14422491 0.09090945 0.1812151 0.14763464 0.21229805 -0.06774706 -0.20749359 -0.12716648
00000000: 4019 333e 52e0 82be 2a54 01be d2f8 9dbd
00000010: 0cef acbe 33a5 853e bc52 6bbe fd8a d7bc
00000020: 84f2 a6be ad77 a0bb ed42 60be 4b40 9d3e
00000030: d532 8c3e 1912 4fbe e296 6abd 9a59 d63d
00000040: e3a3 ccbe a57a 07be 02c5 ac3e ab50 1f3e
00000050: 829c 813e 09d3 86be 4966 013e 1044 6a3d
00000060: 82bc 833d 1f4c 483c 6ad9 01be eb2a 3cbc
00000070: 6a38 a2bc 8ec2 1ebd ce6d 05be d2c9 c43e
00000080: 4f73 ffbc 5a23 65be 1e30 3abe 5671 8f3e
00000090: 7c0d a63e ea95 bd3e eda7 763d 92c2 a5bd
000000a0: 15db 3d3e 828c 7fbe 3b62 463e 3efc 3dbd
000000b0: 2d1f 17be e30e 163d 650b 5b3d 6b7a ce3c
000000c0: f653 3d3e 8dae a93e b8c2 963c 4fe5 81be
000000d0: 8219 a2be b35e b9be 75be 873d 0757 a83e
000000e0: 2bc9 653e 31af e4bd 706d 22be 7047 b2be
000000f0: 92ab 8e3e 3203 8bbe 4243 803e 6f87 eabd
00000100: f22e f33e 5d4d 8abe 4655 bd3d 8741 323e
00000110: 9903 e03e d971 64bd 811f c4bd 5016 5c3e
00000120: 000e 2bbe 3f93 25bd 9a8e 1dbf 868f 5bbe
00000130: 9662 183e 9f8a 793e acf9 d83d 1743 97be
00000140: 5e5a 723d 2be4 debd 760b bc3e 042c 5ebe
00000150: 217c 82bd 4720 e7be 05ae 783e 1138 313e
00000160: aecd 31bd aa4a f43d 8f95 193e d57b 16be
00000170: 4d40 bf3c be3c 2a3e e3ab 1cbe a00f bcbe
00000180: 3515 0ebe 49a2 43be 7ea9 95be ac34 6abd
00000190: 33cf 193e fe92 9bbe 8eda fd3d 8662 b13e
000001a0: 1595 c33c 1036 733e b7ee 6a3e e53d 5e3e
000001b0: 4247 88bd 220b 063f d29f 6b3c c489 a5bd
000001c0: e2ad 273e 9372 83be ca48 9fbe a42a 58bd
000001d0: aaba 36be f06a fdbc f623 4a3d f60e 923c
000001e0: fcf0 b3be f0e8 a33d 905a bdbe fcc4 87bd
000001f0: f931 0fbe 4000 a43e a1a0 94bd 09a6 be3b
00000200: f4a9 673d 3067 67be 57b9 44be a87c cabd
00000210: 2cc3 943e bc6e 433e a392 67bc b5b5 6f3e
00000220: 576a 173e cd67 99be db06 763e 516f 10bc
00000230: 24e3 4a3e 78ab bbbb 4538 093f e209 f3bd
00000240: b521 863e 6623 13bd ce1d 3bbd 3321 0ebe
00000250: 3021 88bd 8060 19bc 2955 25bd 0160 15be
00000260: 74e4 31be c21b 5dbe 9e79 a03c 2bbc ab3e
00000270: 4674 f33c 5d06 343e 3fe1 f33e e2b8 f5be
00000280: 0a15 93be a835 0abd 72a2 4a3e b138 5abd
00000290: 280c 76bd ef1d 293e b358 a6be b07c c7be
000002a0: 5e2f 133e d126 903e 50f0 eb3e 64f9 fbbd
000002b0: f454 513e 4028 ff3d cd5c 2f3e b81b 313d
000002c0: 2daf aebd 4a33 d03d 48fe 1bbd 6412 1f3e
000002d0: fb2c a13d 5bcb 923e 6591 0ebf 9888 7abe
000002e0: c47a 66be 1b07 a23d 72f8 a93d 0bc4 af3e
000002f0: 422d ac3e 67a5 abbd fe1f cb3e 5dfd 4dbe
00000300: 933a 9bbe efad f4bd 028b 46bd ef78 6d3e
00000310: f25e d3bb 854a 91be 8990 d6be 1646 a43c
00000320: 430e 43be 1abd dd3d 5b83 28bd 0bca 46be
00000330: 1131 08bf 1ba4 d9bd f46d 9a3c e763 4c3c
00000340: b7ca 7a3e ce65 3fbd 555d 0abf ee39 c6ba
00000350: 6e8f a53e d82b b43d 142a f4bd 3b68 99bd
00000360: 6fc1 3b3d bd67 d63d 6a7f 153d 52b9 d3be
00000370: 235c 99bd 9e2b 3bbd ff16 263e a736 a2bc
00000380: bd76 9e3c be65 d23d 0418 ae3e 3a60 e0bd
00000390: f3f9 edbd 480b dc3e 4364 763d 64e1 9ebe
000003a0: 86b3 27be 54e4 5abd c1c9 833e 29b5 e0bd
000003b0: 0fae 483e 8d9e 313d 201a a8bd 0ef7 2e3e
000003c0: 2a1e a83e b4e3 353d 062d 133d 8999 393e
000003d0: 294f 6ebe 45e3 07be caf1 05be 9653 a0bd
000003e0: b2af 133e bc2e ba3d 7490 393e 892d 173e
000003f0: a964 593e f8be 8abd 3379 54be ee37 02be

bias f4 [32]
0.10043905 -0.15205352 -0.121540695 -0.08886868 -0.099654846 -0.06362178 -0.09889513 0.15033355
0.042559683 -0.077937454 0.07800663 0.051642768 -0.10830786 0.0789678 -0.15972415 0.061625194
0.07829268 0.04311679 -0.057368755 0.12988372 -0.05739104 0.107318915 0.019113377 0.18022983
-0.07458603 -0.048600756 -0.13698134 -0.042228475 0.05152269 0.011821421 0.116837144 0.0916392
00000000: fdb2 cd3d ebb3 1bbe 54ea f8bd c800 b6bd
00000010: d717 ccbd 234c 82bd 8889 cabd 0af1 193e
00000020: 1053 2e3d ac9d 9fbd f1c1 9f3d 5e87 533d
00000030: 83d0 ddbd dfb9 a13d ba8e 23be b36a 7c3d
00000040: ea57 a03d 3b9b 303d 80fb 6abd 3d00 053e
00000050: de12 6bbd 05ca db3d a893 9c3c 2b8e 383e
00000060: 8fc0 98bd 9611 47bd d644 0cbe c4f7 2cbd
00000070: 7509 533d a2ae 413c 5048 ef3d 55ad bb3d

weight f4 [32, 32]
-0.20354669 0.38278773 -0.33834302 -0.09027885 0.20573257 0.11637549 0.08721343 0.26680502
-0.10794786 0.1132968 -0.038729277 -0.49669752 -0.03327254 0.068867855 -0.36028793 0.29871765
0.014066653 -0.23065507 -0.164293 -0.26691082 0.3911245 0.037662525 -0.13277046 -0.2860487
-0.11185634 -0.4845984 0.077457435 0.08159563 0.44235206 -0.15822893 0.40273777 0.19086507
-0.14665157 0.2214108 -0.05569688 -0.070978925 -0.077823795 -0.23096333 -0.15333307 -0.1056888
0.11927227 -0.17363352 0.029924944 -0.13312218 0.47384614 -0.27385822 -0.027717523 -0.07791215
-0.21656437 -0.07012815 0.49778414 0.3462791 -0.22453612 0.08347026 0.0011447176 -0.10132178
0.19096929 -0.211432 0.1843772 -0.102503 -0.41572574 0.17650408 -0.0068644737 -0.14791456
-0.24380015 -0.017680608 0.16329397 0.06641295 0.16221234 -0.0047277184 0.25490534 -0.34535775
-0.19054109 0.28089002 0.20675704 0.035096224 0.15931097 -0.10942719 -0.33285946 0.10268565
-0.085436575 -0.09222853 -0.0910128 0.06628736 0.26338986 -0.112913325 -0.35395727 0.14523228
0.07070586 0.10702609 0.16683914 -0.28895578 -0.14920951 0.3103512 -0.042980276 -0.24285871
0.39723927 0.13003902 0.25275165 -0.18265733 -0.032505926 0.3004866 0.17566334 0.021651683
-0.51058763 -0.08244756 0.184225 0.04890519 -0.04930465 0.18199654 0.3536691 0.4735652
0.008915135 -0.48184812 0.24865165 -0.21975225 0.17745571 -0.1394682 -0.04645029 -0.098873384
0.18492195 0.089020744 -0.13661198 -0.25269985 -0.0912882 -0.2777986 0.14801486 -0.25348637
0.23443466 0.14905755 0.22224268 0.122587904 -0.56517375 -0.16884881 0.22841683 0.08432912
-0.27708966 -0.091097705 0.5285389 0.049921375 0.3429099 -0.009148491 -0.17229398 -0.2716389
-0.13671897 0.4666493 -0.32828924 0.14220572 -0.01568959 -0.369524 -0.13391726 0.21185853
0.048646156 -0.11991 0.23352459 0.12077306 -0.18784243 0.18254045 0.4387043 0.27484894
-0.31173578 -0.41456568 -0.1841512 0.0034562328 0.20141733 0.09012175 0.19341707 -0.1975114
-0.08027356 -0.20069201 0.25778383 -0.022224823 -0.083518706 -0.122271344 -0.014611082 -0.2069272
0.0122427475 -0.32198352 0.20350207 0.18481801 -0.130959 -0.32866248 -0.29080343 0.008888273
-0.0861094 -0.20718546 -0.08152557 -0.19717683 -0.18875049 0.08712279 -0.3491444 0.09660523
0.040646803 0.09530965 -0.0895658 0.26691532 -0.3119189 0.13983545 -0.49680075 -0.13969845
-0.13104649 0.22807433 -0.067960225 0.50031304 -0.041023232 -0.16634777 -0.24294817 0.010033427
-0.047278408 -0.10347018 -0.13799585 -0.22592796 0.1884941 -0.19538504 -0.4786786 0.074289046
-0.34929958 -0.16341315 0.10386111 -0.5372407 -0.36033866 -0.37304637 0.01131615 0.015819654
-0.09520626 -0.057102066 0.016380623 -0.39575398 -0.6376878 0.42839795 -0.28659624 -0.14572209
-0.1017049 0.13278328 -0.095285065 0.23014307 -0.33250725 0.20554797 0.07999785 -0.250232
0.05589904 0.10603368 -0.32458037 0.021703444 0.051710255 -0.21528645 0.4155973 0.042085707
0.23370364 -0.3201703 -0.40002114 0.040407363 0.30763212 0.02439336 0.3071198 0.21604002
00000000: 8b6e 50be c1fc c33e 4c3b adbe 1ee4 b8bd
00000010: 8fab 523e 4656 ee3d f49c b23d ab9a 883e
00000020: c513 ddbd 2708 e83d 97a2 1ebd 234f febe
00000030: c948 08bd 970a 8d3d a977 b8be 85f1 983e
00000040: d277 663c d830 6cbe 6d3c 28be 89a8 88be
00000050: 7841 c83e 0544 1a3d fbf4 07be fa74 92be
00000060: f014 e5bd 481d f8be 01a2 9e3d 9c1b a73d
00000070: f87b e23e c406 22be a533 ce3e 2272 433e
00000080: d42b 16be 83b9 623e 6922 64bd 665d 91bd
00000090: 1562 9fbd a781 6cbe 5803 1dbe 5f73 d8bd
000000a0: 0545 f43d fccc 31be 2825 f53c 2e51 08be
000000b0: f69b f23e 2537 8cbe dc0f e3bc 6890 9fbd
000000c0: 0dc3 5dbe 599f 8fbd 90dd fe3e 7f4b b13e
000000d0: ccec 65be 75f2 aa3d 590a 963a cb81 cfbd
000000e0: 748d 433e a181 58be 60cd 3c3e 18ed d1bd
000000f0: 01da d4be 7cbd 343e 61ef e0bb ea76 17be
00000100: bfa6 79be ecd6 90bc 8936 273e 8303 883d
00000110: fe1a 263e faea 9abb f482 823e bbd2 b0be
00000120: 341d 43be d1d0 8f3e 1eb8 533e 0fc1 0f3d
00000130: 6a22 233e 5d1b e0bd 8e6c aabe db4c d23d
00000140: 5ff9 aebd 50e2 bcbd eb64 babd abc1 873d
00000150: 09db 863e 1a3f e7bd e339 b5be c5b7 143e
00000160: 3cce 903d 7f30 db3d e1d7 2a3e 03f2 93be
00000170: 61ca 18be 5ae6 9e3e 160c 30bd f4af 78be
00000180: f262 cb3e f328 053e aa68 813e 860a 3bbe
00000190: ef24 05bd 61d9 993e 17e1 333e df5e b13c
000001a0: dfb5 02bf 44da a8bd 7aa5 3c3e cf50 483d
000001b0: acf3 49bd 4d5d 3a3e 1e14 b53e 2377 f23e
000001c0: c910 123c ccb4 f6be 8a9e 7e3e bc06 61be
000001d0: f3b6 353e c0d0 0ebe a942 3ebd 217e cabd
000001e0: 2e5c 3d3e 8250 b63d 03e4 0bbe e061 81be
000001f0: 4ff5 babd 9e3b 8ebe 3591 173e f7c8 81be
00000200: a40f 703e 8ba2 183e 9693 633e 5e0f fb3d
00000210: 3aaf 10bf b4e6 2cbe 1ae6 693e bfb4 ac3d
00000220: b2de 8dbe 6f91 babd 534e 073f 5b7a 4c3d
00000230: e391 af3e 8de3 15bc d56d 30be 4114 8bbe
00000240: 0f00 0cbe a8ec ee3e 8715 a8be 609e 113e
00000250: 7487 80bc 4032 bdbe 9b21 09be 71f1 583e
00000260: 3141 473d 6093 f5bd 1221 6f3e de57 f73d
00000270: c459 40be e2eb 3a3e da9d e03e 00b9 8c3e
00000280: d59b 9fbe f441 d4be 2292 3cbe f781 623b
00000290: 5840 4e3e c191 b83d 200f 463e 6e40 4abe
000002a0: 7766 a4bd 3582 4dbe 3efc 833e d510 b6bc
000002b0: db0b abbd 6669 fabd 5263 6fbc b9e4 53be
000002c0: ce95 483c 06db a4be d962 503e ef40 3d3e
000002d0: 1e1a 06be 7346 a8be 30e4 94be 1ea0 113c
000002e0: 205a b0bd 6d28 54be e1f6 a6bd b9e8 49be
000002f0: cf47 41be 6f6d b23d 0ec3 b2be f6d8 c53d
00000300: 437d 263d b531 c33d 466e b7bd 20a9 883e
00000310: d6b3 9fbe 0631 0f3e ab5c febe 1c0d 0fbe
00000320: 0d31 06be 518c 693e bb2e 8bbd 8414 003f
00000330: fa07 28bd 1257 2abe 68c7 78be 3e63 243c
00000340: 01a7 41bd 2ce8 d3bd c94e 0dbe a959 67be
00000350: 9904 413e 0413 48be 5d15 f5be db24 983d
00000360: 65d7 b2be c755 27be 22b5 d43d 9b88 09bf
00000370: 4f7e b8be efff bebe 6067 393c 3898 813c
00000380: 80fb c2bd dbe3 69bd a830 863c 44a0 cabe
00000390: 823f 23bf fa56 db3e bebc 92be 2c38 15be
000003a0: a94a d0bd 57f8 073e d124 c3bd a0aa 6b3e
000003b0: 643e aabe 2b7b 523e ead5 a33d 691e 80be
000003c0: 64f6 643d 3028 d93d 662f a6be 6ccb b13c
000003d0: 22ce 533d 0d74 5cbe 2bc9 d43e 1062 2c3d
000003e0: 0250 6f3e 5ded a3be 92cf ccbe 3182 253d
000003f0: f581 9d3e 95d4 c73c ce3e 9d3e 9839 5d3e

bias f4 [32]
-0.14586945 0.045213334 -0.14568678 -0.024797516 -0.17824252 0.08382211 -0.006289925 0.13012014
0.008330509 0.14457336 0.0142696425 0.067373164 -0.013077402 0.054568876 0.03357682 0.10558821
-0.19817907 0.014119782 0.094519675 -0.022063635 -0.14274879 0.13664085 0.16520073 -0.061132353
0.044156305 0.101608016 -0.09327999 -0.036804095 -0.07601203 -0.14085805 -0.073043875 -0.093157925
00000000: cd5e 15be 9e31 393d ea2e 15be 2924 cbbc
00000010: 3585 36be edaa ab3d b71b cebb 373e 053e
00000020: b07c 083c 0a0b 143e 38cb 693c f1fa 893d
00000030: 9942 56bc 9d83 5f3d d987 093d a23e d83d
00000040: 74ef 4abe a856 673c 8893 c13d ccbe b4bc
00000050: bd2c 12be 94eb 0b3e 612a 293e eb65 7abd
00000060: 3edd 343d dd17 d03d 9409 bfbd e4bf 16bd
00000070: 32ac 9bbd 183d 10be 0798 95bd 95c9 bebd

weight f4 [32, 32]
-0.20449924 0.031693477 0.097814195 -0.022751944 0.0411014 0.0249216 -0.18164393 -0.14941987
0.03974624 -0.026810661 -0.4382531 0.39713094 -0.4947103 0.15693812 0.036111504 0.18953146
-0.36538556 0.34195775 -0.14348811 -0.47333446 0.052023478 0.11729923 -0.6501608 -0.5186418
-0.38740116 0.46075726 -0.17377086 0.35840845 -0.080719866 -0.21941288 0.09539204 0.31391636
-0.19680746 0.14954369 -0.43977833 -0.21747968 -0.198365 -0.044468254 -0.062296055 -0.23433235
-0.18379746 -0.51405656 0.216355 0.018648556 0.17210566 0.16223814 0.16623381 -0.3822358
-0.15680309 -0.11401584 -0.10546813 0.1272684 -0.06193742 -0.33434182 -0.08174252 0.04630551
0.21575393 0.22265625 -0.049779903 0.055204254 0.05853272 -0.33459693 -0.2586466 -0.20910347
-0.14756124 -0.4897313 0.23684232 -0.091373116 0.054678485 -0.3721469 0.1534346 0.14087798
0.55429906 -0.006886511 0.073881865 -0.012901147 -0.015649285 -0.11371548 -0.015098545 -0.22171213
0.21144913 -0.08490899 -0.17408232 0.24760064 0.011288742 0.35813314 -0.07305607 -0.060672257
0.18344492 -0.007112126 0.3748853 0.14185706 -0.34362045 0.13053183 -0.21101093 0.26660854
-0.18403532 0.2325963 -0.20534496 -0.1047322 0.38974983 0.061352883 0.10927988 -0.37588853
-0.08446516 -0.03769744 0.020844815 -0.12843545 0.17129058 -0.6241534 -0.21031386 -0.3523985
0.11737436 0.29519108 -0.19538817 0.05354852 0.03884224 0.4477628 0.2050744 0.16181993
0.13288519 -0.18422054 -0.047628008 -0.17645451 -0.30736187 -0.085645206 -0.022317724 -0.2870025
0.38277087 -0.33935815 0.1715097 0.1400692 0.25725362 -0.4329996 -0.08617763 0.06603209
0.14003952 -0.19200829 -0.26244885 0.03998633 0.16412652 0.14896575 -0.043201406 -0.16671799
0.05278567 -0.069949925 -0.43330106 -0.023539476 0.20551829 0.2244327 -0.12081052 -0.39306805
0.009762271 0.14136583 0.1268648 0.38881537 -0.1934723 -0.3244491 -0.5442662 0.1427728
-0.17945108 -0.31081098 -0.14252181 0.18545549 0.033252385 0.24260925 -0.41928032 0.08721444
0.09633881 0.25704375 0.021426463 0.08002318 0.13605809 -0.15533875 0.41002154 0.022203552
-0.36388606 -0.18562582 -0.054814182 0.15477929 -0.42920744 0.14303225 0.16128668 -0.093026266
-0.049751345 0.49223435 -0.11280504 0.05695936 0.022245755 -0.26884753 -0.3656192 -0.08009811
-0.1609083 0.34104577 0.05251898 -0.1519196 -0.06319227 -0.19640079 -0.22900367 0.16181593
0.25871763 0.13200502 -0.095778614 -0.16704103 -0.33194304 0.06998538 0.19127814 -0.010140562
0.5996665 0.13896021 0.20255749 0.08971028 -0.035025768 -0.30409047 -0.7711028 0.087027885
0.020815704 -0.07083418 0.008831354 0.086934455 -0.002991097 0.094328746 0.3034917 0.17860767
0.035573523 -0.35890338 -0.017964186 -0.14312804 0.12520851 0.08552365 -0.32472178 -0.18268323
-0.4158719 -0.008527521 0.1747419 0.06695267 0.17146899 -0.100492924 -0.020492941 0.028619077
-0.21779111 -0.25709146 -0.34442908 -0.64463377 -0.081886284 -0.01403645 -0.111904904 -0.43466672
0.14712729 -0.034583934 -0.34074032 -0.011443538 -0.38609737 0.15461901 -0.12716058 -0.28836966
00000000: 4068 51be 05d1 013d cf52 c83d 4962 babc
00000010: f159 283d 6228 cc3c de00 3abe 8601 19be
00000020: f4cc 223d 08a2 dbbc b662 e0be bf54 cb3e
00000030: ab4a fdbe 63b4 203e a8e9 133d 8914 423e
00000040: d113 bbbe 1615 af3e 8cee 12be e558 f2be
00000050: 9216 553d 943a f03d f070 26bf b6c5 04bf
00000060: 7259 c6be 60e8 eb3e fdf0 31be 5081 b73e
00000070: 7550 a5bd c5ad 60be e75c c33d a5b9 a03e
00000080: e587 49be fb21 193e a02a e1be feb2 5ebe
00000090: 3220 4bbe 5824 36bd 262a 7fbd d2f4 6fbe
000000a0: 6735 3cbe 3699 03bf 2a8c 5d3e dbc4 983c
000000b0: 773c 303e c121 263e 3239 2a3e 69b4 c3be
000000c0: fd90 20be 2381 e9bd adff d7bd a652 023e
000000d0: 18b2 7dbd da2e abbe 9f68 a7bd d9aa 3d3d
000000e0: 99ee 5c3e 0000 643e 03e6 4bbd db1d 623d
000000f0: 01c0 6f3d 4a50 abbe 546d 84be 381f 56be
00000100: 4b1a 17be 10be fabe cb86 723e d421 bbbd
00000110: 8cf6 5f3d 0a8a bebe f61d 1d3e 5142 103e
00000120: 8be6 0d3f 3ea8 e1bb 604f 973d 555f 53bc
00000130: ee32 80bc a9e3 e8bd e35f 77bc 8108 63be
00000140: 1f86 583e c4e4 adbd a342 32be 068b 7d3e
00000150: 6af4 383c 3a5d b73e 6c9e 95bd 7983 78bd
00000160: fcd8 3b3e d60c e9bb f7f0 bf3e fa42 113e
00000170: 05ef afbe 23aa 053e 4013 58be ea80 883e
00000180: c173 3cbe b92d 6e3e f345 52be d67d d6bd
00000190: 4a8d c73e 294d 7b3d 21ce df3d 7674 c0be
000001a0: 12fc acbd a168 1abd bfc2 aa3c 9584 03be
000001b0: cc66 2f3e 84c8 1fbf 845c 57be 946d b4be
000001c0: f861 f03d 4923 973e d613 48be b155 5b3d
000001d0: 0a19 1f3d 2a41 e53e 06ff 513e 20b4 253e
000001e0: 0e13 083e 4fa4 3cbe 9615 43bd 7eb0 34be
000001f0: 895e 9dbe c166 afbd a9d3 b6bc fef1 92be
00000200: 8bfa c33e 5ac0 adbe 3da0 2f3e 4d6e 0f3e
00000210: bfb6 833e 20b2 ddbe e67d b0bd d53b 873d
00000220: 8566 0f3e d29d 44be b25f 86be b5c8 233d
00000230: c810 283e 7a8a 183e f5f3 30bd 1fb8 2abe
00000240: c935 583d e841 8fbd a3d9 ddbe dcd5 c0bc
00000250: 6373 523e b0d1 653e 826b f7bd 3740 c9be
00000260: eff1 1f3c 34c2 103e d9e8 013e cf12 c73e
00000270: 9a1d 46be 311e a6be 0855 0bbf 0833 123e
00000280: 06c2 37be 9e22 9fbe 3df1 11be 0be8 3d3e
00000290: a733 083d 8f6e 783e e9ab d6be 7c9d b23d
000002a0: 484d c53d 3d9b 833e 8d86 af3c 31e3 a33d
000002b0: d052 0b3e 1f11 1fbe 58ee d13e 39e4 b53c
000002c0: 464f babe b214 3ebe d684 60bd 767e 1e3e
000002d0: 14c1 dbbe 0c77 123e 5628 253e 8e84 bebd
000002e0: 11c8 4bbd 2406 fc3e 5406 e7bd 384e 693d
000002f0: bb3c b63c 62a6 89be 7132 bbbe 7a0a a4bd
00000300: 25c5 24be 8d9d ae3e 241e 573d d090 1bbe
00000310: f36a 81bd 4a1d 49be f07f 6abe 13b3 253e
00000320: a376 843e 532c 073e 9427 c4bd ce0c 2bbe
00000330: 70f4 a9be 7f54 8f3d 6bde 433e 9a24 26bc
00000340: be83 193f 964b 0e3e 3b6b 4f3e 06ba b73d
00000350: 2e77 0fbd bfb1 9bbe fe66 45bf ad3b b23d
00000360: b285 aa3c 8311 91bd 62b1 103c b10a b23d
00000370: 4806 44bb 6e2f c13d 4463 9b3e eee4 363e
00000380: 8bb5 113d 2fc2 b7be a129 93bc 2890 12be
00000390: a936 003e 0627 af3d ef41 a6be 5011 3bbe
000003a0: 29ed d4be 04b7 0bbc 8aef 323e 7b1e 893d
000003b0: 9195 2f3e 3ccf cdbd d0e0 a7bc 8e72 ea3c
000003c0: a204 5fbe 7ea1 83be 0259 b0be b806 25bf
000003d0: ffb3 a7bd 23f9 65bc 662e e5bd a38c debe
000003e0: 89a8 163e e2a7 0dbd 8475 aebe ad7d 3bbc
000003f0: 8eae c5be 7254 1e3e 6236 02be 30a5 93be

bias f4 [32]
0.11142901 -0.12654807 -0.22526352 0.08898279 -0.14640471 0.07961856 -0.14904492 0.008389457
-0.080006056 -0.09265699 -0.06469823 -0.12520452 -0.03645483 -0.041198082 -0.028821105 0.017541515
0.052638456 0.038346004 -0.07324014 0.08680328 -0.113222085 0.0016615567 -0.04076391 0.15601417
-0.023464926 0.008985705 0.19864087 -0.117948346 -0.14926425 -0.10542748 -0.045367718 -0.08246219
00000000: e534 e43d d195 01be 7bab 66be 9c3c b63d
00000010: 1eeb 15be 0e0f a33d 3b9f 18be ef73 093c
00000020: 37da a3bd f3c2 bdbd 8180 84bd 9d35 00be
00000030: a951 15bd 52bf 28bd 3d1a ecbc 39b3 8f3c
00000040: 6c9b 573d b310 1d3d edfe 95bd ebc5 b13d
00000050: fbe0 e7bd 97c8 d93a 0ff8 26bd 2ec2 1f3e
00000060: 8439 c0bc c738 133c 8368 4b3e e78e f1bd
00000070: bad8 18be 5dea d7bd 80d3 39bd f0e1 a8bd

weight f4 [32, 32]
0.046953037 -0.059104703 -0.027542118 -0.009842727 -0.076672025 -0.14011452 0.25476697 0.14157021
0.11873163 0.37245902 -0.26122403 -0.1313383 -0.04682352 0.33269718 0.060419064 0.25040054
0.10681407 0.047106527 -0.12828164 -0.008243823 0.15071368 0.3637559 0.17126337 -0.14252017
-0.07096653 0.09647611 0.4537605 -0.15407118 0.3460703 -0.016762504 0.046732273 0.2147557
0.14657359 -0.01877786 0.0143577745 -0.2699665 0.23332089 0.027382858 0.0151840625 0.16918449
-0.0013026848 0.30476353 0.43416372 -0.038325574 -0.0056571406 -0.06606777 0.117113 -0.2599289
0.09748155 0.40801626 0.05885675 -0.027195234 0.28742617 0.2950044 0.041846275 0.11091323
0.08445109 -0.26514554 -0.124095745 0.13254791 -0.054776452 -0.42832205 -0.1878219 -0.22955936
0.17783383 -0.3079271 0.027080853 0.05129538 0.21349503 0.038468998 -0.036910787 -0.22854766
0.20602043 -0.4088317 0.2943616 0.08454669 0.20548123 0.23224993 0.11305819 -0.20165414
-0.10666595 -0.09632421 0.158665 0.2643443 -0.15323123 -0.36724317 0.097852424 0.040264677
-0.054371204 0.3121381 -0.02515797 0.07173533 0.038863406 0.14051823 -0.176048 -0.24855117
-0.20027012 -0.07410415 -0.05522892 -0.079402976 0.14145583 -0.34342793 -0.18131155 -0.013803498
-0.07712916 -0.09470482 -0.18771593 -0.05679283 -0.21267119 -0.45162857 0.1419279 0.01655828
-0.02689717 -0.48959482 -0.18284506 -0.25799668 -0.0032468482 -0.008866331 0.14113379 0.36029154
0.41307703 0.22605458 0.17525914 0.07813961 0.0069061755 -0.028723164 -0.3067717 0.24939606
-0.17054893 -0.12642325 -0.098379485 -0.27061492 -0.3805852 0.1674324 0.019340165 0.0567736
0.098434635 0.414116 0.15529118 0.18672137 -0.13627525 -0.14186919 0.1436879 -0.37514043
0.5917167 -0.4201095 0.043335684 0.285876 -0.12649298 -0.09819546 -0.07414235 0.095724836
-0.04339318 -0.046054427 0.2736945 -0.17011103 0.023771852 -0.35769406 0.15822636 -0.2927969
-0.061124586 -0.068659596 -0.142459 0.29021013 0.40526626 -0.116940424 0.087358706 0.119976155
-0.07343098 0.039710343 -0.058564138 -0.28884664 -0.2121795 -0.18655524 -0.19747335 0.16347995
0.4118998 -0.18175201 -0.388839 -0.009730072 0.34248945 0.17204858 0.112520576 0.08749869
0.041056145 -0.25349364 0.4482743 0.42424852 -0.18716374 0.1437352 0.19665496 0.15001976
0.26024997 0.029600581 -0.10383734 0.23062375 -0.107422136 -0.3023071 -0.27702174 0.046858683
-0.20330076 0.1454116 -0.23938693 -0.15974839 0.07302243 -0.12029506 0.02866012 0.33005077
-0.11764542 -0.13978021 -0.08564227 -0.04464695 0.020352434 0.03759901 -0.14992653 -0.1773737
-0.031259526 0.1064489 0.2816376 0.24264325 0.20193288 -0.13035157 -0.1255249 -0.13742772
-0.08677986 -0.013564555 0.28186333 0.12518843 0.02270576 -0.06391619 -0.16643682 -0.11351887
-0.12184504 -0.3299937 0.3747275 -0.031369463 -0.05531315 0.39878514 -0.39079493 -0.16299136
-0.5580994 0.21269661 -0.013052222 -0.25949216 0.31599486 0.100284435 -0.32978845 -0.1733813
-0.22768413 0.11588227 -0.5344727 0.11422589 0.37549174 0.28739336 -0.045533337 0.2946402
00000000: d451 403d c617 72bd 02a0 e1bc 6443 21bc
00000010: 3906 9dbd 2e7a 0fbe d170 823e c8f7 103e
00000020: 9229 f33d f3b2 be3e 28bf 85be 8c7d 06be
00000030: 05ca 3fbd 4957 aa3e fb79 773d 8034 803e
00000040: 56c1 da3d c6f2 403d 435c 03be 1a11 07bc
00000050: b054 1a3e 373e ba3e aa5f 2f3e cff0 11be
00000060: e656 91bd 4495 c53d 4c53 e83e d6c4 1dbe
00000070: 2030 b13e 8551 89bc 576a 3f3d ebe8 5b3e
00000080: 6317 163e 07d4 99bc df3c 6b3c 0d39 8abe
00000090: aceb 6e3e 0452 e03c 93c6 783c b33e 2d3e
000000a0: d9be aaba f709 9c3e b54a de3e 47fb 1cbd
000000b0: 895f b9bb 8a4e 87bd f1d8 ef3d 6715 85be
000000c0: 68a4 c73d 82e7 d03e c713 713d 8ac8 debc
000000d0: 8629 933e d10a 973e 0067 2b3d 7a26 e33d
000000e0: b1f4 ac3d 28c1 87be e925 febd a4ba 073e
000000f0: 465d 60bd 074d dbbe 6254 40be 9c11 6bbe
00000100: 121a 363e 9fa8 9dbe aad8 dd3c 1b1b 523d
00000110: 719e 5a3e ab91 1d3d c42f 17bd 6608 6abe
00000120: 05f7 523e 6352 d1be 90b6 963e d126 ad3d
00000130: ac69 523e edd2 6d3e 0d8b e73d 6c7e 4ebe
00000140: ad73 dabd a145 c5bd 1479 223e 2358 873e
00000150: a6e8 1cbe 4c07 bcbe da66 c83d 93ec 243d
00000160: 57b4 5ebd 91d0 9f3e 1618 cebc f9e9 923d
00000170: 3c2f 1f3d 03e4 0f3e ed45 34be 3384 7ebe
00000180: 9c13 4dbe ebc3 97bd b837 62bd 079e a2bd
00000190: ccd9 103e c9d5 afbe bca9 39be 1128 62bc
000001a0: e5f5 9dbd 9af4 c1bd 9b38 40be 999f 68bd
000001b0: 7ac6 59be dc3b e7be 8c55 113e 3ba5 873c
000001c0: 7457 dcbc 2cac fabe bc3b 3bbe 2418 84be
000001d0: 13c9 54bb 1644 11bc 6085 103e 2278 b83e
000001e0: d57e d33e da7a 673e 2277 333e a907 a03d
000001f0: 334d e23b d74c ebbc 2e11 9dbe ae61 7f3e
00000200: 61a4 2ebe 1975 01be 2f7b c9bd 0a8e 8abe
00000210: 10dc c2be 6673 2b3e 446f 9e3c 6f8b 683d
00000220: 1998 c93d 0307 d43e a704 1f3e e333 3f3e
00000230: bd8b 0bbe 2846 11be ec22 133e 6812 c0be
00000240: bf7a 173f 9818 d7be c280 313d 575e 923e
00000250: 6087 01be b41a c9bd f2d7 97bd 620b c43d
00000260: 0cbd 31bd 91a3 3cbd af21 8c3e 9631 2ebe
00000270: 30bd c23c ad23 b7be 1706 223e 7ae9 95be
00000280: c65d 7abd 679d 8cbd c6e0 11be 6c96 943e
00000290: 0f7f cf3e 767e efbd 1fe9 b23d 0fb6 f53d
000002a0: fb62 96bd 50a7 223d f3e0 6fbd b5e3 93be
000002b0: 9545 59be 5608 3fbe 7436 4abe 4a67 273e
000002c0: 88e4 d23e 331d 3abe e815 c7be e16a 1fbc
000002d0: c75a af3e 812d 303e 3071 e63d 8332 b33d
000002e0: 7d2a 283d ebc9 81be 3684 e53e 1a37 d93e
000002f0: daa7 3fbe 522f 133e eb5f 493e c89e 193e
00000300: 7c3f 853e eb7c f23c aca8 d4bd a228 6c3e
00000310: 2300 dcbd ffc7 9abe cbd5 8dbe e4ee 3f3d
00000320: 132e 50be c7e6 143e d921 75be 1595 23be
00000330: c98c 953d 425d f6bd a1c8 ea3c 6afc a83e
00000340: 15f0 f0bd 8b22 0fbe 3765 afbd b8df 36bd
00000350: 26ba a63c 6b01 1a3d 5786 19be 74a1 35be
00000360: fd09 00bd e201 da3d ce32 903e 7977 783e
00000370: 7ec7 4e3e e27a 05be 9989 00be dab9 0cbe
00000380: a4b9 b1bd de3d 5ebc 6450 903e 6531 003e
00000390: 6e01 ba3c 7ee6 82bd 6a6e 2abe 957c e8bd
000003a0: e489 f9bd eff4 a8be 48dc bf3e 447d 00bd
000003b0: 0b90 62bd 912d cc3e 4616 c8be 35e7 26be
000003c0: 9adf 0ebf 24cd 593e fdd8 55bc 28dc 84be
000003d0: 14ca a13e ed61 cd3d 08da a8be de8a 31be
000003e0: 0726 69be af53 ed3d 34d3 08bf 43ef e93d
000003f0: 7440 c03e 3925 933e 2a81 3abd 15db 963e

bias f4 [32]
0.10616882 0.05935871 0.1739868 -0.11326564 -0.020822916 0.14393692 -0.004037556 0.09104225
0.065738484 -0.098806724 -0.1335304 -0.037347846 0.0009081479 -0.05386846 0.09164824 0.07119433
0.10386081 0.034572154 0.076705754 0.01298002 0.05555994 -0.0067392453 -0.13157344 0.122465976
0.04127746 0.15014437 0.13198201 0.051482245 -0.022265045 -0.12196625 -0.12861088 -0.021186402
00000000: 0a6f d93d 1e22 733d 9829 323e d1f7 e7bd
00000010: d294 aabc 3364 133e 794d 84bb 5c74 ba3d
00000020: e6a1 863d 2e5b cabd 31bc 08be 0efa 18bd
00000030: c610 6e3a 2da5 5cbd 13b2 bb3d 55ce 913d
00000040: fab4 d43d 889b 0d3d e817 9d3d 26aa 543c
00000050: d292 633d e3d4 dcbb 30bb 06be 71cf fa3d
00000060: 8e12 293d 72bf 193e 4b26 073e 0cdf 523d
00000070: 2f65 b6bc 71c9 f9bd 92b2 03be 1b8f adbc

weight f4 [32, 32]
0.018582402 -0.040980812 0.26801682 0.086054265 -0.07568472 0.015770352 0.013736209 -0.1183084
-0.063719675 0.039974954 -0.046269927 -0.14882833 -0.0948469 0.14001252 -0.04199353 -0.06815447
0.15047073 0.12702082 -0.04067185 -0.32348305 0.2260845 -0.37030926 0.074878365 -0.32546982
-0.5802072 -0.106121436 -0.35243228 -0.6291663 -0.06080655 -0.38257575 0.29945865 0.27373183
-0.09960784 -0.029832754 -0.35541615 -0.21309617 -0.01994187 -0.08304845 -0.06930497 0.22122176
0.0806221 0.011576654 0.29671758 -0.07242357 0.35263857 -0.06430559 -0.6662279 0.1123495
0.19853012 0.1402901 0.26796445 -0.15872592 -0.015418195 0.3450636 0.23896076 -0.086185955
0.04857821 -0.16967778 0.22412969 0.111543015 0.11977692 0.1392671 0.15121439 0.21204257
-0.08653239 -0.05692104 0.15708125 -0.31575832 -0.09667295 0.08350608 0.14549066 0.19577251
-0.2537377 -0.031740926 -0.19865322 -0.57192624 -0.22408476 -0.17466262 0.0054398817 0.13771643
-0.043224644 -0.08527872 -0.43944764 0.08143077 -0.3047436 -0.031298626 -0.11387185 -0.3479093
0.028478673 -0.11716807 0.16050717 0.20214087 -0.087092265 0.12148885 0.021423794 0.11753114
-0.23297751 -0.02202013 0.20092583 0.14329197 0.21347831 -0.099652775 -0.1918283 0.40073243
0.14390504 0.028742878 -0.28965512 -0.26589555 0.12854008 -0.27403042 -0.095453404 0.18696849
0.21229902 -0.07152143 -0.40200284 0.11056073 0.08065147 0.16991399 0.27403095 -0.21889421
0.10800804 0.06274712 0.12735431 -0.14015694 -0.18014161 -0.6559977 -0.138169 -0.3520554
-0.20290972 0.21303518 0.21586964 -0.0019326657 -0.07421417 -0.06914249 -0.1445638 0.12296702
0.049609784 -0.19934927 0.50720245 0.1673801 0.43508142 0.03048957 -0.045198455 0.08981432
0.15275444 -0.013958011 -0.07631181 -0.13244656 -0.058709502 0.041785944 0.16862036 0.08966651
0.034852993 -0.28818664 0.14900653 -0.16487841 0.19947878 0.1458974 0.09751953 0.2574018
-0.1702847 -0.29267815 0.10752807 0.37608832 -0.0039702235 -0.0034857187 -0.6065507 0.27955702
0.0012088044 0.25928774 -0.07717895 0.112644956 0.39835533 -0.1607322 0.31852823 0.4861842
-0.2684483 0.015214476 -0.23274371 -0.19617733 -0.022460116 0.41865182 0.16843832 0.5279612
-0.07173756 0.026870575 -0.008651572 0.20070907 0.121982336 0.09326724 0.20284037 0.6005307
-0.30351484 0.20548238 0.19942579 0.09322804 0.26034898 -0.19835813 -0.078171 -0.011109629
-0.5229464 -0.04603821 -0.16117626 -0.13089623 -0.0022119153 -0.1442491 0.3684795 0.030828262
-0.39638397 0.14969589 0.09113919 -0.2829438 -0.116969004 0.0951981 -0.2168629 0.14588775
-0.30093253 -0.19401434 0.16915858 0.18628742 0.04154244 -0.006856908 -0.080774136 0.2989298
-0.1412259 0.021223715 0.20456362 -0.19169584 -0.0489246 -0.22272395 0.32965234 -0.00011252365
-0.023497425 0.61259615 0.26677158 -0.029954351 0.07621038 0.16765349 -0.11797444 -0.15328395
-0.021694869 -0.076900646 0.28714103 0.24907655 -0.22627622 0.029224368 -0.11011604 0.04378625
-0.3101531 0.049716037 -0.08313284 0.46630585 -0.38556466 0.23154989 -0.19104224 0.40711188
00000000: 1f3a 983c 7fdb 27bd 8039 893e 383d b03d
00000010: 9700 9bbd d330 813c d60d 613c ad4b f2bd
00000020: 767f 82bd c7bc 233d 8985 3dbd 7466 18be
00000030: 173f c2bd 715f 0f3e 6801 2cbd 9294 8bbd
00000040: 0015 1a3e bf11 023e 8797 26bd 929f a5be
00000050: b282 673e 2d99 bdbe d459 993d fba3 a6be
00000060: 7688 14bf 3256 d9bd 0172 b4be 0b11 21bf
00000070: 4a10 79bd f8e0 c3be a552 993e 9426 8c3e
00000080: 32ff cbbd d263 f4bc 1bf9 b5be e235 5abe
00000090: 225d a3bc 4e15 aabd c4ef 8dbd f587 623e
000000a0: 331d a53d 02ac 3d3c 5eeb 973e cf52 94bd
000000b0: 0b8d b43e a6b2 83bd e98d 2abf 7f17 e63d
000000c0: 7b4b 4b3e 35a8 0f3e a332 893e 0c89 22be
000000d0: 999c 7cbc 2dac b03e 21b2 743e 4382 b0bd
000000e0: f2f9 463d 03c0 2dbe 4182 653e aa70 e43d
000000f0: 9a4d f53d 099c 0e3e f2d7 1a3e b021 593e
00000100: e537 b1bd 0926 69bd e8d9 203e 13ab a1be
00000110: 78fc c5bd 3c05 ab3d 81fb 143e 9778 483e
00000120: e8e9 81be c602 02bd c06b 4bbe c269 12bf
00000130: 7a76 65be c2da 32be 0941 b23b 8905 0d3e
00000140: 530c 31bd 9ca6 aebd 48ff e0be 2dc5 a63d
00000150: 5a07 9cbe fd32 00bd a535 e9bd 2b21 b2be
00000160: 1b4c e93c d0f5 efbd fe5b 243e 04fe 4e3e
00000170: 6e5d b2bd 25cf f83d f480 af3c 2bb4 f03d
00000180: a891 6ebe 8f63 b4bc 80bf 4d3e 21bb 123e
00000190: 0f9a 5a3e c116 ccbd a36e 44be cd2c cd3e
000001a0: d85b 133e 2f76 eb3c ad4d 94be 7623 88be
000001b0: 03a0 033e b74d 8cbe 137d c3bd ab74 3f3e
000001c0: ea64 593e d479 92bd 51d3 cdbe aa6d e23d
000001d0: 992c a53d effd 2d3e c94d 8c3e ce25 60be
000001e0: 5233 dd3d 9081 803d 2b69 023e 4d85 0fbe
000001f0: 0b77 38be 77ef 27bf 2d7c 0dbe 9b40 b4be
00000200: 91c7 4fbe e525 5a3e ee0c 5d3e 8051 fdba
00000210: 99fd 97bd 949a 8dbd 8808 14be 22d6 fb3d
00000220: a133 4b3d 3722 4cbe 05d8 013f b065 2b3e
00000230: fec2 de3e 43c5 f93c 0422 39bd 92f0 b73d
00000240: a96b 1c3e 24b0 64bc 5e49 9cbd 12a0 07be
00000250: 6079 70bd bd27 2b3d d1aa 2c3e 13a3 b73d
00000260: 03c2 0e3d 338d 93be 2b95 183e e3d5 28be
00000270: 2a44 4c3e 2166 153e 52b8 c73d 2bca 833e
00000280: 1d5f 2ebe e9d9 95be ad37 dc3d a68e c03e
00000290: a618 82bb a870 64bb e846 1bbf 1922 8f3e
000002a0: bf70 9e3a 5dc1 843e ff0f 9ebd 66b2 e63d
000002b0: 3bf5 cb3e fb96 24be 2216 a33e 23ed f83e
000002c0: 0e72 89be 2346 793c 5e54 6ebe b6e2 48be
000002d0: 47fe b7bc 8859 d63e 187b 2c3e 7728 073f
000002e0: 24eb 92bd ae1f dc3c 53bf 0dbc ae86 4d3e
000002f0: e0d1 f93d e502 bf3d 63b5 4f3e 61bc 193f
00000300: 4c66 9bbe f969 523e 4636 4c3e 58ee be3d
00000310: 764c 853e 651e 4bbe 1e18 a0bd 2905 36bc
00000320: d1df 05bf 9092 3cbd 640b 25be a909 06be
00000330: c8f5 10bb 09b6 13be 58a9 bc3e 8d8b fc3c
00000340: d7f2 cabe e149 193e 2fa7 ba3d 02de 90be
00000350: 728d efbd 39f7 c23d 4f11 5ebe 9963 153e
00000360: d413 9abe b2ab 46be e837 2d3e 21c2 3e3e
00000370: 6828 2a3d eaaf e0bb e96c a5bd 540d 993e
00000380: 869d 10be 5bdd ad3c 2079 513e ea4b 44be
00000390: 2965 48bd bf11 64be 31c8 a83e adfa ebb8
000003a0: ac7d c0bc 1ad3 1c3f 4996 883e d462 f5bc
000003b0: 3014 9c3d 5bad 2b3e 959c f1bd 78f6 1cbe
000003c0: 70b9 b1bc 167e 9dbd 2604 933e ec0d 7f3e
000003d0: f4b4 67be f167 ef3c 8584 e1bd 3659 333d
000003e0: 63cc 9ebe 0ba3 4b3d 8d41 aabd a4bf ee3e
000003f0: bb68 c5be 6a1b 6d3e 94a0 43be f870 d03e

bias f4 [32]
-0.11924981 -0.072201505 0.02897977 -0.05086345 0.028548969 0.080105424 -0.012542187 -0.079841934
-0.05135383 -0.046854373 -0.04924687 0.017662488 -0.11343505 0.06859757 -0.07460335 0.021573717
-0.08243478 -0.11784492 -0.14684416 0.027513603 -0.03089415 -0.01445174 -0.13456471 -0.16803302
-0.049388696 -0.008406723 0.041218225 0.0940376 0.027790582 0.12668289 0.07174508 0.09432049
00000000: 3f39 f4bd 62de 93bd fc66 ed3c 3156 50bd
00000010: 87df e93c 500e a43d bf7d 4dbc 2b84 a3bd
00000020: 6558 52bd 5fea 3fbd 16b7 49bd ecb0 903c
00000030: a350 e8bd e27c 8c3d a4c9 98bd 5dbb b03c
00000040: 91d3 a8bd ad58 f1bd 515e 16be 3564 e13c
00000050: ba15 fdbc fec6 6cbc 55cb 09be d910 2cbe
00000060: cd4b 4abd 5abc 09bc 71d4 283d c996 c03d
00000070: 13a9 e33c 29b9 013e 16ef 923d 1a2b c13d
