Models/model-A-3.pt (torch, 53607 bytes, 17 tensors)

weight f4 [32, 86]
0	0x3cc47246	0.023980271
1	0x3dde5412	0.10855879
2	0x3ef5e2dd	0.48024645
3	0xbd804cb9	-0.06264634
4	0xbe475421	-0.19465686
5	0xbe4a0517	-0.19728504
6	0xbc96fcb4	-0.018431045
7	0xbcedde03	-0.029036527
8	0x3dab171e	0.08354019
9	0xbd3f48a3	-0.04670013
10	0xbd92e969	-0.07173426
11	0x3d69e62b	0.05710427
12	0xbe376b94	-0.17912132
13	0x3d85ab0e	0.06526767
14	0x3dd24aca	0.10268171
15	0x3e68cc12	0.22734097
16	0x3dcb6200	0.099308014
17	0xbd292aa4	-0.04130043
18	0x3de1f943	0.11033871
19	0xbe5900de	-0.21191737
20	0x3e0128e1	0.1261325
21	0xbdd86b1c	-0.105673045
22	0xbe3269b3	-0.17423134
23	0x3d3715a5	0.044698376
24	0x3e2c707d	0.16839786
25	0x3d009a1f	0.03139698
26	0xbd927198	-0.071505725
27	0x3dac1bba	0.08403726
28	0xbce010ae	-0.027351703
29	0xbc8b7bf8	-0.017026886
30	0xbc88646a	-0.016649444
31	0x3de6c2c0	0.11267614
32	0x3cc20f64	0.02368898
33	0x3d696123	0.056977402
34	0x3de8b742	0.11363079
35	0x3df50896	0.11964528
36	0xbcd616b8	-0.02613388
37	0xbd34aea7	-0.044111874
38	0xbb090a0e	-0.0020910534
39	0x3d0aced9	0.03388867
40	0xbcd80881	-0.026371242
41	0x3b4b85c9	0.0031055084
42	0xbdf4d9ee	-0.11955629
43	0x3df38387	0.11890321
44	0x3c47238d	0.012154472
45	0x3d7cdf13	0.061736178
46	0x3e26f4cc	0.1630432
47	0x3e868900	0.26276398
48	0x3d36f0c7	0.044663217
49	0x3de89cf8	0.113580644
50	0xbdc940af	-0.098267905
51	0xbcea53e0	-0.028604448
52	0xbe218f69	-0.15777363
53	0xbe748e8f	-0.23882507
54	0x3db3460b	0.08753594
55	0x3e933ac6	0.28755778
56	0x3b8d9e2c	0.004321834
57	0xbe2ab8f6	-0.1667212
58	0xbdea910d	-0.114534475
59	0x3e12c97b	0.14334671
60	0x3dc8775c	0.09788391
61	0x3dc81d8a	0.09771259
62	0x3e143988	0.14475071
63	0xbd77a767	-0.06046238
64	0xbb928ee4	-0.0044726003
65	0xbe73e357	-0.23817192
66	0xbbe45eec	-0.0069693234
67	0xbe33b198	-0.17548215
68	0xbe8c4b56	-0.27401227
69	0xbd6b74b8	-0.05748436
70	0xbe5fb445	-0.21846111
71	0xbe80057e	-0.2500419
72	0xbe84d17b	-0.2594107
73	0x3d73fb31	0.059565727
74	0xbe221fd9	-0.15832461
75	0x3d9bdd0d	0.076105215
76	0x3e0cb5ad	0.13741179
77	0x3d96982f	0.073532455
78	0x3cad8ebe	0.021186229
79	0xbd0e11bb	-0.034684878
80	0x3e2ed27f	0.17072485
81	0xbe12804e	-0.14306757
82	0xbcf9e8bc	-0.030506484
83	0x3e350a24	0.1767965
84	0xbe494333	-0.1965454
85	0xbbaa03bf	-0.005188435
86	0x3db89732	0.09013213
87	0xbe98cd4e	-0.29844135
88	0x3e80bdde	0.25144857
89	0x3dff84fb	0.12476536
90	0x3d98317e	0.07431315
91	0xbdf9346f	-0.12168204
92	0x3e22730e	0.15864202
93	0xbe3ccc67	-0.18437348
94	0x3d0ad5e1	0.033895377
95	0x3e23f314	0.16010696
96	0xbe3b7952	-0.18307999
97	0x3e25508e	0.1614401
98	0x3e7e3c8f	0.24827789
99	0xbd8739b0	-0.066028
100	0xbe600bbf	-0.21879481
101	0xbea2f3ac	-0.31826532
102	0xbe806515	-0.2507712
103	0xbe4ef54b	-0.2021076
104	0xbe09adba	-0.13445178
105	0x3e86cd87	0.2632868
106	0xbe29f2fd	-0.16596599
107	0xbe3f4072	-0.18676928
108	0xbe06e575	-0.13173468
109	0x3d12d2c9	0.03584555
110	0xbd8cfb96	-0.06883924
111	0x3dc1d43f	0.09464311
112	0x3ca02198	0.019547269
113	0xbe1ce437	-0.15321432
114	0x3de1bc30	0.11022222
115	0xbd8331ee	-0.06406008
116	0xbb27ed62	-0.002562367
117	0x3e340955	0.17581685
118	0xbd932486	-0.07184701
119	0x3cca53e3	0.024698203
120	0x3d2249b9	0.03962109
121	0x3e26a760	0.16274786
122	0xbe3d364f	-0.18477748
123	0xbd7213ec	-0.05910103
124	0x3de91f07	0.11382871
125	0x3e5399d7	0.20664154
126	0x3d258287	0.040407684
127	0x3de5e7f9	0.11225886
128	0x3ebd27d3	0.36944446
129	0xbe0fd32f	-0.14045404
130	0xbda52595	-0.08063809
131	0x3dcfca98	0.101460636
132	0xbd850325	-0.064947404
133	0xbd6e1156	-0.058122
134	0x3e1f12d0	0.1553452
135	0x3cf4533f	0.029824851
136	0xbdfe231b	-0.124090396
137	0x3e6a936e	0.22907802
138	0xbc16770c	-0.009183656
139	0x3da29ad5	0.07939688
140	0xbc4bbd3a	-0.012435252
141	0xbda2e062	-0.07952954
142	0x3e45cd41	0.1931658
143	0x3c95c20b	0.018281003
144	0xbe62bd4e	-0.22142527
145	0xbe38a1dd	-0.18030496
146	0x3bde979b	0.006792975
147	0x3e0ee3d7	0.13954102
148	0xbde07a64	-0.10960844
149	0x3d747a02	0.05968667
150	0xbe45750f	-0.19282936
151	0x3d7767e0	0.060401797
152	0x3eb3d1e0	0.3512106
153	0x3e4ecd39	0.20195474
154	0xbe8b26a9	-0.27177933
155	0x3e3045d3	0.17214136
156	0xbb2f1506	-0.0026715412
157	0xbe11813e	-0.14209458
158	0xbcab0336	-0.020875555
159	0x3e0811c6	0.1328803
160	0xbd1384e3	-0.036015403
161	0x3e7e9322	0.24860814
162	0xbd0c3fc4	-0.0342405
163	0x3d72955d	0.059224475
164	0x3d5587a3	0.052131306
165	0xbd004a20	-0.03132069
166	0xbe2446a1	-0.16042568
167	0xbd74c422	-0.05975736
168	0xbdb93a15	-0.090442814
169	0xbe132d10	-0.14372659
170	0x3e7e3a68	0.24826968
171	0x3c2e548d	0.010640276
172	0x3dfe5b05	0.12419704
173	0x3e5c5a3c	0.21518797
174	0x3d87de00	0.0663414
175	0x3d780953	0.060555767
176	0x3e8f317a	0.27967435
177	0xbe8117be	-0.25213426
178	0x3c9874c3	0.018610364
179	0x3cfe24ab	0.031023344
180	0x3de3adc4	0.111171275
181	0x3dd71cff	0.105035774
182	0xbe8f6c4a	-0.28012305
183	0xbcd7417b	-0.02627634
184	0xbe09d1f7	-0.13459001
185	0xbe1abd52	-0.15111282
186	0x3e0b6223	0.13611655
187	0x3d83e6b9	0.06440491
188	0x3df5400d	0.11975107
189	0x3d60b3c4	0.054858938
190	0x3e94770f	0.28997084
191	0x3d88fb75	0.066885866
192	0xbdb47262	-0.08810879
193	0x3d44d92f	0.048058685
194	0x3da241f1	0.079227336
195	0x3da2070d	0.07911501
196	0x3c05f682	0.008176448
197	0x3d8854c2	0.06656791
198	0x3e2a3215	0.16620667
199	0xbc2a0936	-0.010378173
200	0x3d681047	0.05665615
201	0xbc6d133a	-0.014469916
202	0x3dd8c98f	0.10585319
203	0xbd6892d0	-0.056780636
204	0xbd65f7cc	-0.05614452
205	0xbe44e341	-0.19227315
206	0x3e46bfec	0.1940915
207	0x3c238157	0.0099795675
208	0xbd7d251d	-0.061802972
209	0xbd782c74	-0.06058927
210	0xbe19fb89	-0.1503736
211	0x3dce40a1	0.10070921
212	0x3d0b0ea6	0.033949517
213	0x3da647ff	0.08119201
214	0x3e088e8a	0.13335624
215	0xbd137457	-0.035999622
216	0xbe29c940	-0.16580677
217	0x3e441659	0.1914915
218	0x3cd131d2	0.025536451
219	0xbcac128d	-0.02100494
220	0xbd9189f8	-0.071063936
221	0xbe599710	-0.21249032
222	0x3ca5620c	0.020188354
223	0x3da036c7	0.07822948
224	0x3e20294d	0.15640755
225	0x3dbe024c	0.09277782
226	0x3d6178a8	0.055046707
227	0xbcf67de1	-0.03008932
228	0xba634c70	-0.0008670753
229	0xb9663b8f	-0.00021956697
230	0x3cb5a81a	0.022174884
231	0xbe90152c	-0.28141153
232	0xbdb9bbfe	-0.0906906
233	0x3e1f9b61	0.15586616
234	0x3c983f7c	0.01858496
235	0x3ebd6cd8	0.36997104
236	0x3d8bced6	0.0682656
237	0xbe7fb553	-0.24971513
238	0xbe9df157	-0.3084819
239	0xbe2a4ad7	-0.16630112
240	0xbc5d4f64	-0.013507698
241	0x3ef04e63	0.46934804
242	0x3d998586	0.07496171
243	0x3d39ec7c	0.045391545
244	0xbdd6a668	-0.10480958
245	0x3e481a15	0.195412
246	0xbdac79b7	-0.08421653
247	0x3d4ee25d	0.050508846
248	0xbd96bc54	-0.073601395
249	0x3d9f6d26	0.0778449
250	0x3b7eb6e9	0.0038866347
251	0xbe7a275b	-0.24429075
252	0x3e029a5f	0.127542
253	0xbd1a266a	-0.03763429
254	0xbe30b97e	-0.1725826
255	0xbe3b90b1	-0.18316914

bias f4 [32]
0	0x3d42cf90	0.04756123
1	0x3d40ecb2	0.04710073
2	0x3ddf4740	0.10902262
3	0xbc861c2f	-0.01637086
4	0x3d8fbfdd	0.07019017
5	0xbc32309e	-0.010875849
6	0x3bc85daf	0.0061146836
7	0x3c5ae8ee	0.013361199
8	0xbc7ec130	-0.015548989
9	0x3d2f8284	0.04284908
10	0x3bc6a36a	0.006061961
11	0xbddae846	-0.10688834
12	0xbda74002	-0.081665054
13	0x3d1573d2	0.036487408
14	0xbde6e43d	-0.11274002
15	0x3c1dd710	0.009633794
16	0xbc80f5ac	-0.015742145
17	0xbce8fe36	-0.02844153
18	0xbd5e6f0f	-0.054305132
19	0xbd93cc06	-0.07216649
20	0xbd82d706	-0.06388669
21	0x3b50fcbc	0.0031888923
22	0xbd9f46e5	-0.07777194
23	0xbd10b54b	-0.035329144
24	0x3cc0e532	0.023546789
25	0x3d14a181	0.036286835
26	0xbdcd260c	-0.100170225
27	0x3dce44fa	0.1007175
28	0x3c4a258a	0.012338052
29	0x3d8a1709	0.06742675
30	0x3d80748c	0.062722296
31	0xbd8ca4e3	-0.06867387

weight f4 [32, 32]
0	0xbf0ae394	-0.54253507
1	0xbed57002	-0.41687018
2	0x3cf57b6e	0.029966082
3	0x3dedee19	0.11617679
4	0x3dc33752	0.09532036
5	0x3dba449c	0.090951174
6	0xbe8ceb94	-0.27523482
7	0x3d56d2a6	0.052446984
8	0x3e1d18aa	0.1534144
9	0x3e5fbc0d	0.2184908
10	0x3e8041b6	0.25050133
11	0x3c510da5	0.012759601
12	0x3e894057	0.268069
13	0xbdd4d1d6	-0.103915855
14	0x3e91a3a5	0.28445163
15	0x3f19168b	0.5980002
16	0x3eaff55c	0.34366882
17	0x3e2429ed	0.16031618
18	0x3e16ff66	0.14745864
19	0x3f00b6da	0.5027901
20	0x3d20878d	0.03919177
21	0xbe5a8c76	-0.21342644
22	0x3e3d2d31	0.1847427
23	0xbeea12c2	-0.45717436
24	0xbf0882e0	-0.533247
25	0x3eb9f98a	0.36323196
26	0x3e766610	0.24062371
27	0xbd9cf024	-0.07662991
28	0xbd9b26a0	-0.075757265
29	0xbb2dddfa	-0.0026530013
30	0x3e9beefb	0.30455765
31	0x3e4329fe	0.19058987
32	0xbedc1811	-0.4298711
33	0xbde2670f	-0.11054813
34	0x3e535ca4	0.20640808
35	0xbe25c429	-0.1618811
36	0xbeb132c6	-0.3460905
37	0x3dada2fb	0.08478352
38	0xbddf6c42	-0.109093204
39	0xbe978ee6	-0.2960121
40	0xbe806c69	-0.2508271
41	0x3e9f14af	0.31070468
42	0xbd82534a	-0.063635424
43	0x3d8e62b8	0.06952423
44	0x3e01e224	0.12683922
45	0x3f096a2f	0.5367765
46	0xbd9871a2	-0.07443549
47	0xbdf93e73	-0.12170114
48	0x3da180af	0.078858726
49	0xbe300e05	-0.17192848
50	0xbe304616	-0.17214236
51	0x3ec767df	0.38946435
52	0x3f22b804	0.63562036
53	0xbe3735b3	-0.17891578
54	0xbe46e5c5	-0.19423588
55	0xbe9b590c	-0.30341375
56	0xbe666f5e	-0.2250342
57	0x3d2cfb46	0.04223182
58	0x3e98b5ec	0.29826295
59	0x3e2704a9	0.16310371
60	0xbdfaa082	-0.12237646
61	0xbe3b08b0	-0.18265033
62	0xbe76de44	-0.24108225
63	0xbeb8e2c1	-0.361105
64	0xbd7af1de	-0.06126582
65	0xbd8c69dd	-0.06856129
66	0xbeb81b10	-0.35958147
67	0xbf0b7778	-0.5447917
68	0x3e0ba3e0	0.13636732
69	0x3e3d4039	0.1848153
70	0xbdf2fb07	-0.11864286
71	0xbf59ae52	-0.85031617
72	0x3e091ded	0.13390322
73	0xbc88dd7b	-0.016707173
74	0x3e552f4b	0.20818822
75	0xbd1a7d28	-0.037717015
76	0x3e3f4b25	0.18681009
77	0x3f52d530	0.8235655
78	0x3eed7776	0.46380204
79	0xbd475100	-0.048661232
80	0xbe56ff99	-0.2099594
81	0xbe8745b8	-0.2642038
82	0x3e23e501	0.16005327
83	0xbe049974	-0.12949163
84	0x3dbc8192	0.09204401
85	0xbeabcaf0	-0.33553267
86	0x3f05e0b6	0.52296007
87	0x3ea3fcbf	0.32028767
88	0xbe0a19d7	-0.1348642
89	0xbddbd44b	-0.10733851
90	0x3e4ddd50	0.20103955
91	0x3e913368	0.28359532
92	0x3e993549	0.29923466
93	0x3e0474b3	0.12935142
94	0xbe91535b	-0.28383908
95	0x3dd747c2	0.105117336
96	0xbde6e2d2	-0.11273731
97	0x3e449ff7	0.19201647
98	0x3c9eadbd	0.019369954
99	0xbd8891a0	-0.06668401
100	0xbde0fd00	-0.10985756
101	0x3ea4abe7	0.321624
102	0xbee8a673	-0.4543949
103	0x3e51f564	0.20503765
104	0x3d9b58a6	0.07585268
105	0xbe987f51	-0.29784635
106	0xbdb596e5	-0.088666715
107	0xbe2c34dc	-0.16817039
108	0x3d9242e0	0.07141662
109	0x3eca4862	0.3950835
110	0xbe72381d	-0.23654218
111	0x3c89dcdb	0.016828945
112	0xbea9b307	-0.331444
113	0x3b05b38e	0.0020401212
114	0xbda9d224	-0.08292034
115	0xbd8e8ad5	-0.06960074
116	0x3e30a936	0.17252049
117	0xbd3f9ee7	-0.0467824
118	0xbdebd2ab	-0.11514791
119	0xbe506d08	-0.20354092
120	0x3c5c10ab	0.013431708
121	0xbe721020	-0.23638964
122	0x3cd26799	0.025684165
123	0xbda3ed6d	-0.0800427
124	0xbe032d38	-0.12810218
125	0x3e8a724e	0.27040333
126	0x3d8f4c0a	0.06996925
127	0xbe45e936	-0.19327244
128	0xbec6469a	-0.3872574
129	0xbe335154	-0.17511493
130	0x3ed21b30	0.41036367
131	0xbe9dc5da	-0.3081501
132	0xbe10e71b	-0.1415066
133	0x3dff14a1	0.124551065
134	0x3dbd58f9	0.09245486
135	0x3ec12b53	0.37728366
136	0x3d8084c0	0.0627532
137	0x3ef29302	0.47377783
138	0xbeced1a3	-0.40394315
139	0xbec66ad3	-0.38753375
140	0xbe49d5e4	-0.19710499
141	0xbe3c940d	-0.18415852
142	0x3d392261	0.045198802
143	0xbe56047c	-0.20900148
144	0x3e12e0aa	0.14343515
145	0x3c90f3e5	0.017694423
146	0x3d911d92	0.07085718
147	0x3e4f6184	0.20252043
148	0xbe8403f2	-0.2578426
149	0xbda97d1c	-0.08275816
150	0x3da0a5d9	0.07844133
151	0x3ee03965	0.4379379
152	0xbe924b79	-0.28573206
153	0xbef71b7f	-0.48263165
154	0x3d626a24	0.055277005
155	0x3e0d8cf2	0.13823298
156	0xbdaf8022	-0.08569361
157	0xbe1bcf70	-0.1521585
158	0xbd575785	-0.0525737
159	0x3e923ffc	0.2856444
160	0xbe469c22	-0.19395497
161	0xbee19a2b	-0.44062933
162	0xbeaf0172	-0.3418079
163	0xbea014ef	-0.3126597
164	0x3d2f8722	0.042853482
165	0x3f2a334a	0.6648451
166	0x3e0fdec1	0.14049818
167	0x3edeb9e1	0.4350119
168	0xbbb48cc1	-0.0055099432
169	0x3dbac363	0.09119298
170	0x3e0469ae	0.12930939
171	0xbf257d36	-0.6464418
172	0x3e616747	0.22012053
173	0xbec7f81d	-0.39056483
174	0x3c958c54	0.01825539
175	0xbee6d307	-0.45082876
176	0xbea2396b	-0.3168443
177	0x3dd19a65	0.102345265
178	0xbd9e2924	-0.07722691
179	0x3e1661c7	0.14685737
180	0x3ee1d4b0	0.4410758
181	0xbdeb6199	-0.11493225
182	0xbea2df98	-0.31811213
183	0x3e7033d2	0.23457268
184	0xbe9d84fe	-0.30765527
185	0xbf384d4d	-0.7199295
186	0x3df297a8	0.118453324
187	0xbd0b7832	-0.034050174
188	0x3d21db64	0.039515868
189	0xbd54d8e7	-0.051964667
190	0xbe26d123	-0.16290717
191	0xbe9ed276	-0.31019944
192	0xbee31c67	-0.44357607
193	0xbcc3a008	-0.02388002
194	0xbd31668c	-0.043310687
195	0xbe4582f1	-0.19288231
196	0xbea7e22a	-0.32789737
197	0xbdba6570	-0.09101379
198	0xbd11479d	-0.035468686
199	0xbeaf3565	-0.34220424
200	0x3eb03500	0.34415436
201	0x3d69ef98	0.05711326
202	0xbd12c76c	-0.035834715
203	0xbe517721	-0.204556
204	0x3db8a5f1	0.09016026
205	0x3e8b3ae8	0.2719338
206	0xbe440fc0	-0.19146633
207	0xbdfcc8bd	-0.12342975
208	0xbd0a25db	-0.033727508
209	0xbde5dc32	-0.112236395
210	0x3ce25615	0.027628938
211	0x3ea9dced	0.33176365
212	0x3d162757	0.03665861
213	0xbd0d4dbd	-0.034497965
214	0xbf028aeb	-0.5099322
215	0xbde0c714	-0.10975471
216	0x3e55e272	0.20887163
217	0xbe12730d	-0.14301701
218	0xbd203390	-0.039111674
219	0x3dc27b0c	0.094961256
220	0xbe14a16a	-0.145147
221	0xbe0e5f0a	-0.13903442
222	0x3eaee4f7	0.3415906
223	0x3b7acccc	0.003826904
224	0xbe632d3d	-0.22185226
225	0xbdd062bb	-0.10175081
226	0x3e655e31	0.22399212
227	0xbd426033	-0.047455024
228	0xbdbd6ce3	-0.09249284
229	0xbc12ae1b	-0.008952643
230	0xbe0b56b7	-0.13607298
231	0xbe6bfb68	-0.23045123
232	0xbe187d22	-0.14891484
233	0xbf0426db	-0.5162179
234	0x3e1040a6	0.14087161
235	0x3d3d88c6	0.046273015
236	0x3daf3760	0.08555484
237	0xbe85f622	-0.26164347
238	0x3d86814d	0.06567631
239	0x3deee8fc	0.11665532
240	0x3bff74b7	0.007795896
241	0x3e0f1158	0.1397146
242	0xbd974a70	-0.07387245
243	0x3d4d17bc	0.050071463
244	0xbdbc3e9c	-0.09191629
245	0x3ed33130	0.41248465
246	0xbe81431a	-0.25246507
247	0xbe6fa15e	-0.234014
248	0xbca90ac5	-0.020635018
249	0x3f23a5e8	0.6392503
250	0xbe33c191	-0.17554308
251	0x3c61b5c1	0.013776244
252	0x3ee07b80	0.43844223
253	0xbee86415	-0.45388857
254	0xbd14aeec	-0.03629963
255	0xbe3fd13c	-0.1873216

bias f4 [32]
0	0x3dbc9fe4	0.09210184
1	0x3d0de453	0.034641575
2	0xbdc91422	-0.09818293
3	0x3dba07da	0.09083529
4	0xbe30f4cc	-0.17280883
5	0xbd2f7a77	-0.0428414
6	0x3d9dfae2	0.07713868
7	0x3e00a2da	0.12562123
8	0x3db09acb	0.086232744
9	0x3dc5430f	0.09631931
10	0x3e01ac35	0.12663348
11	0xbd132ec6	-0.03593328
12	0xbdace71f	-0.0844252
13	0x3d2981ee	0.041383676
14	0xbd9bbfb1	-0.076049216
15	0xbcae8d0e	-0.021307494
16	0xbd817251	-0.06320632
17	0xbe3216f9	-0.17391576
18	0xbd90b21b	-0.07065221
19	0x3d87fbce	0.06639825
20	0xbde61909	-0.11235244
21	0x3bdf37d1	0.0068120738
22	0x3e43f09e	0.19134757
23	0x3d5b7f4f	0.053588208
24	0x3e3a9401	0.18220522
25	0x3d0fa6bd	0.035071123
26	0x3d17f4ab	0.037098568
27	0xbdea4938	-0.114397466
28	0xbe194f19	-0.1497158
29	0xbe0d0957	-0.13773094
30	0x3dee8690	0.116467595
31	0x3e326c5c	0.17424148

weight f4 [32, 32]
0	0x3e221218	0.15827215
1	0x3e799ae8	0.24375498
2	0xbc8cd73f	-0.017192481
3	0x3f2968df	0.66175646
4	0x3e1c5793	0.15267782
5	0x3e6701a3	0.22559218
6	0x3c57d243	0.013172689
7	0x3e3c9892	0.18417576
8	0xbdda006e	-0.10644613
9	0xbe0a7f5e	-0.13525149
10	0x3e59cd94	0.21269828
11	0x3dd264a9	0.10273106
12	0xbdb9378e	-0.09043799
13	0x3e959496	0.29214925
14	0xbe629b90	-0.22129655
15	0x3db5079a	0.088393405
16	0xbe90cf49	-0.28283146
17	0x3d3230de	0.043503635
18	0xbc902925	-0.017597744
19	0xbef81cb6	-0.48459405
20	0x3e56110f	0.20904945
21	0x3e19e397	0.15028225
22	0x3e450a2e	0.19242164
23	0xbe7d945a	-0.24763623
24	0x3eb38e05	0.3506929
25	0xbd9c90ed	-0.0764483
26	0xbec55577	-0.38541767
27	0xbd3f90f5	-0.0467691
28	0xbe08fb81	-0.13377191
29	0x3d3da40f	0.046299037
30	0x3df9dac6	0.12199931
31	0xbee848da	-0.4536808
32	0x3e61e492	0.22059849
33	0x3eafca71	0.34334138
34	0xbec748bf	-0.38922688
35	0x3d947bf1	0.072502024
36	0x3d15c027	0.036560204
37	0xbd54ac22	-0.05192197
38	0xbea44c82	-0.3208962
39	0xbd881479	-0.0664453
40	0xbdfcf3ea	-0.123512104
41	0x3d8a6d7e	0.06759165
42	0x3d5f823f	0.05456757
43	0x3dca2bc7	0.09871631
44	0x3e0b8195	0.1362365
45	0x3dfa93a8	0.122351944
46	0xbe23a146	-0.1597949
47	0xbe1fe0aa	-0.15613046
48	0x3ed4215c	0.414317
49	0xbe8fbc73	-0.28073463
50	0x3ed97a8b	0.42476305
51	0xbe2052a8	-0.15656531
52	0x3e87bd2d	0.26511517
53	0xbddc6336	-0.107611105
54	0xbe47a71e	-0.19497344
55	0x3d24aa5d	0.040201534
56	0x3eb614fc	0.35562885
57	0xbe37fb6b	-0.17967002
58	0xbeb7bbe2	-0.3588553
59	0x3eb05c43	0.3444539
60	0xbe95807b	-0.29199585
61	0xbef0c2a4	-0.470235
62	0xbda650de	-0.08120893
63	0x3e6dbdbf	0.23216914
64	0x3e5352a2	0.2063699
65	0xbecade8f	-0.39622924
66	0x3ed57e81	0.41698077
67	0xbe842b25	-0.25814167
68	0xbdd58d46	-0.104273364
69	0xbe0c1b90	-0.1368239
70	0x3eb6d754	0.35711157
71	0x3da1b9a8	0.07896739
72	0x3c17102d	0.009220165
73	0xbb297917	-0.0025859529
74	0x3e83835a	0.2568615
75	0xbe8c2c83	-0.2737771
76	0x3f00c15c	0.50295043
77	0x3ce6626b	0.028123101
78	0xbefdc8bf	-0.4956722
79	0x3e92c19e	0.28663343
80	0xbe88b228	-0.26698422
81	0x3c5a3c63	0.013320061
82	0x3e60cb8a	0.21952644
83	0xbe05503c	-0.13018888
84	0x3e743e98	0.23852003
85	0x3df67d92	0.120356694
86	0xbe2c71e0	-0.16840315
87	0xbe389bd4	-0.18028194
88	0x3e714887	0.23562823
89	0xbda770c9	-0.08175809
90	0xbe59fa8e	-0.21286985
91	0xbe0c8e1c	-0.13726085
92	0xbe92f59b	-0.28703007
93	0xbebd0696	-0.36919087
94	0x3dbd7ef1	0.09252728
95	0x3e646638	0.22304618
96	0x3f3f78ac	0.74793506
97	0x3dbf64d8	0.09345406
98	0x3d65cd81	0.056104187
99	0xbe77a278	-0.2418307
100	0xbea688e5	-0.32526317
101	0x3de81d7e	0.1133375
102	0x3ea1bc85	0.3158914
103	0x3ea4e49a	0.3220566
104	0xbe75436d	-0.23951502
105	0x3ed9503d	0.4244403
106	0x3e855af7	0.26045963
107	0xbe858da9	-0.2608464
108	0x3b9469d2	0.0045292163
109	0x3ec6d4ee	0.38834327
110	0xbdbcf08e	-0.0922557
111	0xbf149f3c	-0.5805547
112	0xbdeeddcf	-0.116634004
113	0x3eb8755f	0.36027047
114	0x3dad91fa	0.084751084
115	0x3eb3f21d	0.35145655
116	0x3e15931a	0.14606896
117	0x3e121a0a	0.14267746
118	0x3e4d0e7b	0.20025055
119	0x3c01b47c	0.007916566
120	0xbe8d7031	-0.27624658
121	0x3e903f4f	0.281733
122	0x3d86c338	0.06580204
123	0x3ea09f42	0.31371504
124	0xbeb4e1a7	-0.3532841
125	0x3dfe5d55	0.124201454
126	0xbdf19698	-0.117963016
127	0xbd303748	-0.04302147
128	0x3e21dd32	0.15807036
129	0x3f202b5a	0.6256615
130	0x3e3c888e	0.18411466
131	0xbea74a2f	-0.32673785
132	0x3e1debc3	0.15421967
133	0x3ee7e057	0.45288345
134	0x3da2d340	0.07950449
135	0xbe21079e	-0.15725562
136	0x3f10b784	0.5653002
137	0x3eae66ae	0.34062713
138	0xbd4cb67f	-0.04997873
139	0xbea9a45b	-0.33133206
140	0x3dbb3ff6	0.09143059
141	0x3d35b5b3	0.044362735
142	0xbe0830b1	-0.13299824
143	0x3db129a7	0.08650523
144	0xbec2f173	-0.38074836
145	0xbdfa14d6	-0.122110054
146	0x3ebb6199	0.365979
147	0x3e1448fa	0.14480963
148	0x3e42eabc	0.19034857
149	0x3e7fe177	0.24988352
150	0x3edab375	0.4271504
151	0xbe8b00b0	-0.27148962
152	0x3e73888f	0.23782562
153	0x3ec1f41a	0.37881547
154	0xbc9703ea	-0.018434484
155	0xbe75eddd	-0.24016519
156	0xbc5647df	-0.013078659
157	0x3e0f4955	0.13992818
158	0x3f1e91df	0.6194133
159	0x3e2fb0f8	0.17157352
160	0x3d6e3fef	0.05816644
161	0xbe8847ee	-0.26617378
162	0xbdb5a00d	-0.08868418
163	0xbe98fbd6	-0.29879636
164	0x3eaf5197	0.34241936
165	0x3e221bda	0.15830937
166	0x3e89c153	0.26905307
167	0x3edc6fcc	0.43054044
168	0xbd10009e	-0.03515684
169	0xbc2c93a8	-0.010533251
170	0x3f16293d	0.58656675
171	0xbed0e00a	-0.40795928
172	0x3d0f6724	0.035010472
173	0xbe3645cd	-0.17800064
174	0xbecd2424	-0.40066636
175	0x3cd73849	0.026271956
176	0xbda9059e	-0.082530245
177	0x3eb2a1fa	0.34889203
178	0x3e07974f	0.13241313
179	0xbf11b68f	-0.5691919
180	0x3eb30d71	0.34971192
181	0x3e14a9fa	0.14517966
182	0x3caf4b44	0.021398194
183	0xbe3c0e3f	-0.1836481
184	0x3dd9c482	0.10633184
185	0xbe492c42	-0.1964579
186	0xbd69dd80	-0.057096004
187	0xbf131db9	-0.5746723
188	0xbdba57aa	-0.09098752
189	0x3d67ac94	0.056561068
190	0x3e29d4d9	0.16585101
191	0xbec34379	-0.38137415
192	0xbe1accc2	-0.15117171
193	0xbd91deea	-0.071225956
194	0xbe4b77b1	-0.19869877
195	0xbe87354f	-0.2640786
196	0x3e707f14	0.23485976
197	0x3d36d35e	0.04463517
198	0x3dbb9d0d	0.091608144
199	0xbe54f626	-0.20797023
200	0x3d9f34b6	0.07773726
201	0x3ebb21b0	0.3654914
202	0x3dc4e9e0	0.096149206
203	0xbe4b7d75	-0.19872077
204	0x3dc9f904	0.09861949
205	0xbe0c1732	-0.13680723
206	0xbe0652d1	-0.1311753
207	0xbd20945b	-0.039203983
208	0x3e1ecb7b	0.15507309
209	0xbe48a3e0	-0.19593763
210	0xbe29a41a	-0.16566506
211	0x3ebc654a	0.36796027
212	0x3dab36d5	0.08360068
213	0x3dae5412	0.08512129
214	0xbdeb65d6	-0.11494033
215	0xbe5ead48	-0.21745789
216	0xbd766bc2	-0.06016136
217	0x3da57535	0.08078996
218	0x3e500b33	0.20316772
219	0x3e5ac2dc	0.21363395
220	0x3e119414	0.14216644
221	0xbd00360d	-0.031301547
222	0xbd9b3529	-0.07578499
223	0xbdf8c913	-0.12147727
224	0xbe39dcb4	-0.18150598
225	0x3f0cb45a	0.54962695
226	0xbe348ea0	-0.17632532
227	0x3e5d89bd	0.21634574
228	0x3b4cb793	0.0031237348
229	0xbe462e98	-0.19353712
230	0xbd8e0d53	-0.06936135
231	0x3ea168cb	0.31525263
232	0xbb982cff	-0.004644036
233	0x3e9be500	0.3044815
234	0xbe6de47e	-0.23231694
235	0xbd555323	-0.05208124
236	0xbe443d46	-0.19163999
237	0x3e936aff	0.2879257
238	0x3effc4b5	0.49954763
239	0xbd26c9b5	-0.040719707
240	0x3e41cd74	0.1892603
241	0x3ea283fb	0.31741318
242	0xbeafe4c0	-0.3435421
243	0x3ea0fc77	0.31442615
244	0x3c8c885b	0.017154863
245	0x3e6dd4f6	0.2322577
246	0xbe2b0fc8	-0.16705239
247	0x3eb3fa86	0.35152072
248	0xbdd34d7f	-0.103175156
249	0x3ec1319c	0.3773316
250	0x3d2cc718	0.042182058
251	0xbea63f5b	-0.3247021
252	0x3eebcb86	0.46053714
253	0x3d6c7587	0.05772927
254	0xbe4b968f	-0.19881652
255	0xbea609ba	-0.32429296

bias f4 [32]
0	0xbdcaef79	-0.09908957
1	0xbda26f8b	-0.079314314
2	0x3b9ad933	0.004725599
3	0xbe1c7cf0	-0.15282035
4	0x3e3a234d	0.18177529
5	0x3e1b21f4	0.15149671
6	0xbddb42c5	-0.10706095
7	0x3e0d4853	0.13797121
8	0x3e1a11d7	0.15045868
9	0x3d113b8b	0.035457175
10	0xbe3117e3	-0.17294268
11	0xbd8894d3	-0.06669011
12	0x3d716224	0.058931485
13	0x3d3a824b	0.045534413
14	0x3d93fe91	0.07226289
15	0xbdef9770	-0.11698806
16	0xbc86ccb3	-0.01645503
17	0xbc8b7eba	-0.017028201
18	0x3dcb2a26	0.099201486
19	0x3c97df4d	0.018539095
20	0x3ddb99de	0.10722707
21	0xbe6fb57c	-0.23409075
22	0x3b8216db	0.0039700097
23	0xbd91c4be	-0.07117604
24	0x3df2494c	0.118303865
25	0xbe1df3f5	-0.15425093
26	0xbdb0741d	-0.08615897
27	0xbe0f0a8d	-0.13968869
28	0xbdb131d0	-0.08652079
29	0xbd822d07	-0.063562445
30	0xbd372158	-0.044709533
31	0xbd4601e8	-0.04834166

weight f4 [32, 32]
0	0xbeb0895f	-0.34479806
1	0xbd672a7a	-0.056436993
2	0xbc157c1e	-0.00912383
3	0x3b88cb00	0.00417459
4	0xbecf7e03	-0.40525827
5	0xbe828cda	-0.25498086
6	0x3d5b729f	0.053576108
7	0x3e0f3521	0.13985111
8	0xbd5b9f9b	-0.05361901
9	0xbe611ba7	-0.21983205
10	0xbe997ede	-0.29979604
11	0xbc3acc0a	-0.011401186
12	0x3ec9dc9b	0.3942612
13	0xbd59b1d4	-0.053148106
14	0xbd6d557d	-0.057942856
15	0x3f115404	0.5676882
16	0xbdef3b46	-0.116812274
17	0x3e28e85b	0.16494887
18	0x3d993c6b	0.07482227
19	0xbb74a281	-0.0037328305
20	0xbdf9271b	-0.12165662
21	0xbe97b310	-0.296288
22	0xbeaa0ff4	-0.33215296
23	0xbf0b00c1	-0.54298025
24	0x3eb5c0b9	0.35498598
25	0xbd00a22c	-0.03140466
26	0xbd4e4151	-0.05035526
27	0x3df81ef1	0.121152766
28	0xbeff9ee0	-0.499259
29	0x3cf54214	0.029938735
30	0x3f02af58	0.51048803
31	0xbe4a64b8	-0.19764984
32	0x3df71b90	0.12065804
33	0xbdb3c64b	-0.08778056
34	0xbd9211ef	-0.07132327
35	0xbe0ae13a	-0.1356248
36	0xbe8228ae	-0.2542166
37	0x3cf8dcbf	0.030378697
38	0x3ea80888	0.3281901
39	0xbe9c631d	-0.30544367
40	0xbe25ba37	-0.16184317
41	0x3e5a2c39	0.21305932
42	0xbdc325ae	-0.09528671
43	0xbe4f2aa4	-0.2023111
44	0x3ea8ed47	0.32993528
45	0xbd90b395	-0.070655026
46	0xbdac03bd	-0.083991505
47	0xbcb27571	-0.021784516
48	0xbe874207	-0.26417562
49	0x3e39240d	0.18080159
50	0x3dda02a1	0.10645033
51	0xbebb9174	-0.3663441
52	0xbed6838a	-0.4189723
53	0xbe6cab5f	-0.23112248
54	0x3e1c65b4	0.15273172
55	0x3caf3058	0.021385357
56	0x3da3db17	0.080007724
57	0x3dbfe10e	0.09369098
58	0xbe9ef1c2	-0.31043822
59	0xbeb81096	-0.35950154
60	0x3eb45afd	0.3522567
61	0x3ddde34a	0.108343676
62	0xbedd5021	-0.43225196
63	0x3d4de12b	0.050263565
64	0xbed35aa1	-0.41280082
65	0x3e7ac916	0.2449077
66	0x3eb54bc3	0.35409364
67	0xbe536d35	-0.20647128
68	0x3da7a0b5	0.08184949
69	0x3ede6288	0.43434548
70	0x3dc7acd1	0.09749759
71	0x3d65d1e2	0.056108363
72	0x3e8dd09f	0.27698228
73	0x3e31271f	0.1730008
74	0xbee32ee3	-0.4437171
75	0x3e0d501d	0.13800092
76	0x3c90c990	0.017674237
77	0x3caa39b2	0.020779464
78	0xbe0c1bd8	-0.13682497
79	0xbe9e9152	-0.30970246
80	0xbe67e70a	-0.22646728
81	0xbea5cb55	-0.32381693
82	0xbe39d26f	-0.1814668
83	0xbdf6e949	-0.12056214
84	0xbf1e535b	-0.6184594
85	0xbe5752e6	-0.21027717
86	0x3d8a4bff	0.06752776
87	0xbdb0e710	-0.08637822
88	0xbe0d9cc6	-0.13829336
89	0xbe4738df	-0.19455288
90	0x3ea6fa1b	0.3261269
91	0x3d0d651c	0.034520254
92	0xbde963a9	-0.11395962
93	0xbe319b8b	-0.17344491
94	0xbd165f1e	-0.036711805
95	0x3ee16b17	0.44027016
96	0xbe1abe5c	-0.15111679
97	0xbecc07e4	-0.3984977
98	0xbdbd764f	-0.09251081
99	0xbeffc68d	-0.4995617
100	0xbe32617e	-0.17420003
101	0xbe698407	-0.2280427
102	0xbe164562	-0.14674905
103	0xbe5d72de	-0.2162585
104	0x3e982cb1	0.29721597
105	0xbdd914a1	-0.10599638
106	0x3e73cd21	0.23808719
107	0x3bdcb3e0	0.00673531
108	0xbe78a64d	-0.24282189
109	0xbde3cfab	-0.11123594
110	0xbe23b5a8	-0.15987265
111	0x3dd58599	0.10425872
112	0xbec00fed	-0.3751215
113	0xbe237797	-0.15963589
114	0x3f14b5e0	0.5809002
115	0xbdb16aa0	-0.08662915
116	0xbdab95a7	-0.08378153
117	0x3de5c8fa	0.11219974
118	0x3eca3796	0.39495534
119	0x3e844925	0.25837055
120	0x3e18706d	0.14886637
121	0x3e8723f7	0.26394626
122	0xbe78231e	-0.24232146
123	0x3f0c9ea5	0.5492957
124	0xbccf349e	-0.025293645
125	0xbe5f04f9	-0.2177924
126	0xbcd60529	-0.026125507
127	0x3e0d8062	0.13818505
128	0xbefb6b2e	-0.4910521
129	0xbe941e07	-0.2892916
130	0xbe6268ea	-0.22110334
131	0xbe3729c1	-0.17887022
132	0xbe316108	-0.1732217
133	0x3e0a6f5d	0.13519044
134	0x3d08d5ba	0.03340695
135	0x3e7a8a60	0.24466848
136	0x3e118725	0.1421171
137	0x3e733ae6	0.23752937
138	0xbed17f2c	-0.40917337
139	0x3e4444c6	0.1916686
140	0x3d6c24ff	0.05765247
141	0x3e47e139	0.1951951
142	0xbd0e82dc	-0.034792766
143	0x3db079eb	0.08617004
144	0x3ebf20b9	0.37329653
145	0xbd8d8f19	-0.06912059
146	0x3b2ace5a	0.0026062937
147	0xbda5a831	-0.080887206
148	0xbe27e527	-0.16396008
149	0x3b87b49e	0.0041414043
150	0xbe38d0b3	-0.18048362
151	0xbf0d8d66	-0.5529388
152	0xbc59d43f	-0.013295232
153	0xbe75f3d3	-0.24018793
154	0xbd33e5c3	-0.04392029
155	0x3aec31d6	0.0018020223
156	0x3e939b51	0.28829435
157	0x3ef44dc8	0.47715592
158	0x3ebe8ae5	0.37215343
159	0x3d8c1816	0.068405315
160	0xbdeeb0e3	-0.11654832
161	0xbe918d56	-0.28428143
162	0xbf072d93	-0.52803916
163	0xbe4fcfde	-0.20294139
164	0x3e05d968	0.13071215
165	0xbcec8630	-0.02887258
166	0x3e175ecb	0.14782254
167	0xbe0a9fd4	-0.13537532
168	0xbe59bf52	-0.21264389
169	0xbe43f49a	-0.19136277
170	0x3de45bc2	0.11150314
171	0x3e4ead82	0.20183375
172	0x3ecaf18a	0.39637405
173	0x3e31ece2	0.1737552
174	0x3e829821	0.2550669
175	0xbe837f68	-0.2568314
176	0x3dcd3f7c	0.10021874
177	0xbd6a49cb	-0.05719928
178	0x3e111019	0.14166297
179	0xbe494dad	-0.19658537
180	0x3ef05098	0.46936488
181	0xbba1a354	-0.0049328003
182	0x3cfe48d8	0.031040594
183	0x3e89b237	0.2689378
184	0xbdc218a6	-0.094773576
185	0xbd5d16ba	-0.053976752
186	0x3e5d6218	0.21619451
187	0xba36d9e5	-0.0006975218
188	0x3e9bafd2	0.30407578
189	0x3c5fab4a	0.013651678
190	0xbd6d6337	-0.057955947
191	0xbee0fdb1	-0.4394355
192	0x3ee21c34	0.44162142
193	0x3e2db606	0.16963968
194	0xbee930a3	-0.4554492
195	0xbe489676	-0.19588646
196	0x3dd6e8f1	0.10493649
197	0x3ee1dbb0	0.4411292
198	0xbeb4b484	-0.35293972
199	0x3f46666d	0.7750004
200	0xbe28cbe8	-0.16484034
201	0x3e0d453c	0.13795942
202	0xbee64df9	-0.44981363
203	0x3e8ca099	0.27466276
204	0x3e887670	0.2665286
205	0xbc9bc144	-0.019013055
206	0x3e2830f1	0.1642492
207	0x3ee5f574	0.44913828
208	0xbe9151a2	-0.28382593
209	0xbbeeb5a2	-0.007284836
210	0x3d87d32a	0.06632073
211	0x3e631528	0.22176039
212	0xbe68df86	-0.22741517
213	0x3e2a8949	0.16653933
214	0x3ed2128b	0.41029772
215	0x3ee76107	0.45191213
216	0x3e3978de	0.18112513
217	0xbd02211c	-0.031769857
218	0xbeaf173b	-0.3419741
219	0xbea9d5b8	-0.33170867
220	0xbe47a5a3	-0.19496779
221	0xbed9841b	-0.424836
222	0x3ead63da	0.33865243
223	0xbe14673a	-0.14492503
224	0xbcbc80d9	-0.023010658
225	0x3f08857a	0.5332867
226	0xbecefd79	-0.4042776
227	0xbec2a919	-0.38019636
228	0xbc9a8499	-0.018862056
229	0xbe86825b	-0.26271328
230	0x3e15ebca	0.14640728
231	0x3d965f24	0.073423654
232	0xbe33fe09	-0.17577375
233	0xbe4b1ad2	-0.1983445
234	0x3edb57b7	0.4284036
235	0x3e9bb147	0.3040869
236	0xbe33a0d3	-0.17541818
237	0xbe235eb6	-0.15954098
238	0x3e6ad9f9	0.22934712
239	0xbee4667c	-0.4460944
240	0x3e670cdc	0.22563499
241	0x3d70ec52	0.058819123
242	0x3e64945b	0.22322218
243	0x3ea632df	0.32460687
244	0x3e5a49b7	0.21317182
245	0xbd9501a3	-0.07275703
246	0xbefcf6ae	-0.49406952
247	0x3d1c67f2	0.038185067
248	0xbd82af9c	-0.06381151
249	0x3d86dfb7	0.06585639
250	0x3f08859d	0.5332888
251	0xbd16f0e6	-0.036850832
252	0xbe38057b	-0.1797084
253	0xbd82c78e	-0.06385718
254	0xbddff5bc	-0.10935542
255	0xbe02d023	-0.1277471

bias f4 [32]
0	0x3e31f5b8	0.1737889
1	0xbd83af1d	-0.064298846
2	0xbe1358d3	-0.14389353
3	0xbde84ac3	-0.11342385
4	0x3e00290a	0.12515655
5	0xbe212fe4	-0.15740925
6	0xbe2c83f7	-0.16847216
7	0xbccc29e8	-0.024922326
8	0x3d782c5b	0.060589176
9	0x3d9069e4	0.07051447
10	0x3c88711c	0.016655497
11	0x3d77b027	0.060470726
12	0xbd85a374	-0.06525317
13	0x3e2d3daa	0.16918054
14	0x3b6e51c5	0.0036364656
15	0xbde60c4d	-0.11232815
16	0xbde78813	-0.11305251
17	0x3de3afd2	0.111175194
18	0xbd92a7ec	-0.07160935
19	0xbde3bc7b	-0.11119934
20	0x3d997d86	0.07494645
21	0x3c8bdc46	0.017072808
22	0xbcf3fd99	-0.02978401
23	0xbe06e839	-0.13174523
24	0xbdb75209	-0.08951194
25	0xbda55171	-0.08072174
26	0xbe26dbab	-0.16294734
27	0xbe0b9cf1	-0.13634087
28	0xbe3641fa	-0.17798606
29	0xbddbdfe9	-0.10736067
30	0xbb9714fa	-0.004610655
31	0xbcb99d9d	-0.022658164

weight f4 [32, 32]
0	0xbe38e6c0	-0.18056774
1	0xbe7515a1	-0.23934032
2	0xbe00aaac	-0.12565106
3	0xbea126cb	-0.3147491
4	0xbcaabdbe	-0.02084243
5	0xbe74e620	-0.2391591
6	0x3eba307d	0.3636512
7	0x3d4a4f30	0.049391925
8	0x3ccdd564	0.025126167
9	0x3e1f0345	0.15528591
10	0xbec9e653	-0.39433536
11	0xbe8a4087	-0.27002355
12	0xbea749d9	-0.3267353
13	0x3dda3921	0.10655428
14	0xbc4288d7	-0.0118734455
15	0x3ea4e6cb	0.3220733
16	0xbc898daa	-0.016791184
17	0xbf0e5d9e	-0.556116
18	0x3edfa054	0.43677008
19	0x3eaa7a08	0.33296227
20	0x3cbb25a9	0.022845106
21	0x3e3de4f4	0.1854437
22	0xbc84f997	-0.016232295
23	0x3d514091	0.051086966
24	0x3e6dcfbc	0.23223776
25	0x3e186c04	0.14884955
26	0xbe0c4134	-0.13696748
27	0xbc9cc755	-0.019138018
28	0x3dc901de	0.09814809
29	0xbc405c35	-0.011740734
30	0x3e973212	0.29530388
31	0xbe6eae28	-0.23308623
32	0x3e3cf4d6	0.18452772
33	0x3dc0946f	0.094033115
34	0x3dd1fa3b	0.10252806
35	0xbf0703a5	-0.52739936
36	0xbe344b73	-0.17606907
37	0xbd8d69b3	-0.06904926
38	0x3e88d2ae	0.26723236
39	0xbde0a42f	-0.109688155
40	0x3da1ead6	0.079061195
41	0x3e46c97d	0.19412799
42	0x3d901aa8	0.07036334
43	0xbde1d6c8	-0.110272944
44	0xbde36d7c	-0.11104867
45	0x3e1dbd9a	0.15404359
46	0xbd57d7b2	-0.052695937
47	0x3d59ce15	0.05317505
48	0x3f01293b	0.5045354
49	0xbde0adb4	-0.10970631
50	0x3baa1dc8	0.0051915385
51	0xbeabec81	-0.33578876
52	0x3e1889e9	0.14896359
53	0xbdeb3f2c	-0.114866585
54	0x3ea18e0b	0.31553683
55	0x3c679ee4	0.014137004
56	0x3ef92e8f	0.48668334
57	0x3f086cf2	0.5329124
58	0x3d3436ec	0.04399769
59	0x3d42edcb	0.04759006
60	0xbeafafb6	-0.34313744
61	0x3d109b47	0.035304334
62	0x3d8a3b98	0.06749648
63	0xbe42ea8b	-0.19034784
64	0x3e5715d1	0.21004416
65	0x3eae3e00	0.34031677
66	0x3ebb1793	0.36541423
67	0x3e9828c2	0.29718596
68	0xbdb9912a	-0.09060891
69	0xbcb47274	-0.022027232
70	0x3e90dfb1	0.28295663
71	0x3f192b3e	0.5983161
72	0x3c56f28d	0.013119352
73	0xbec46c9a	-0.38364106
74	0x3e259113	0.16168623
75	0xbd54afa1	-0.051925305
76	0x3d62752c	0.055287525
77	0xbf28e887	-0.6597981
78	0x3e4b47ec	0.19851655
79	0x3ec72ebf	0.38902852
80	0x3e80e0c1	0.25171474
81	0x3cf58164	0.029968925
82	0x3df3fe46	0.11913733
83	0x3da05ca5	0.078301705
84	0x3e4a575a	0.19759884
85	0xbe392dbb	-0.18083851
86	0xbc45b796	-0.012067696
87	0xbe5f941e	-0.21833846
88	0xbeada1e8	-0.33912587
89	0x3e418d1d	0.18901487
90	0xbe2ff9f4	-0.17185193
91	0xbeb1d8c3	-0.3473569
92	0x3e836d8a	0.2566951
93	0x3d49c68e	0.049261622
94	0x3f382612	0.7193309
95	0x3dccf60b	0.100078665
96	0xbea9d813	-0.33172664
97	0x3d918a55	0.07106463
98	0xbd0d10d3	-0.034439873
99	0x3ccf6b57	0.025319738
100	0xbed24551	-0.4106851
101	0xbe0bbaae	-0.13645431
102	0xbe9eceea	-0.31017238
103	0x3e5bd7b3	0.21469001
104	0xbede268a	-0.43388778
105	0x3d2fdbc8	0.04293421
106	0x3e4e4311	0.20142771
107	0xbe60a27f	-0.21936987
108	0xbebf4317	-0.37355873
109	0xbe7d8313	-0.24757032
110	0xbd4e5445	-0.050373334
111	0xbedb1585	-0.42789856
112	0x3d299447	0.041401174
113	0x3e58c499	0.21168746
114	0x3e13ea78	0.14444911
115	0x3e913c05	0.28366104
116	0xbca995fe	-0.020701405
117	0xbdcc0052	-0.099609986
118	0xbb873c56	-0.0041270657
119	0x3ec4a2fd	0.384056
120	0xbe64f463	-0.22358851
121	0x3d3d5cc9	0.046231065
122	0xbd5b565f	-0.053549167
123	0xbd89e16d	-0.0673245
124	0x3e47b7fa	0.19503775
125	0x3e6762c3	0.22596268
126	0xbe3d0ae2	-0.18461183
127	0xbd8d37d4	-0.06895414
128	0xbec78d5d	-0.3897504
129	0x3e612263	0.21985774
130	0xbde259bf	-0.11052274
131	0xbd5874d8	-0.052845806
132	0xbe96875e	-0.29400152
133	0x3e93c2ef	0.2885966
134	0xbe52736b	-0.20551841
135	0x3e028f41	0.1274996
136	0x3bf0d5e4	0.0073497165
137	0xbe68c709	-0.22732176
138	0x3e793479	0.24336423
139	0xbd5b2df0	-0.053510606
140	0x3e82eef4	0.25572932
141	0x3e5aeaec	0.21378678
142	0xbe4935fb	-0.19649498
143	0x3cd4d39f	0.025979815
144	0x3e327f77	0.17431436
145	0xbc97e91d	-0.018543774
146	0xbe86a347	-0.26296446
147	0x3e3fd5b7	0.1873387
148	0x3d035a49	0.032068525
149	0xbebba7f3	-0.36651573
150	0xbdb3a3d3	-0.08771481
151	0xbdc21596	-0.094767734
152	0xbd674e30	-0.05647105
153	0x3d9899f2	0.07451238
154	0xbea80a5c	-0.32820404
155	0xbf1beef0	-0.60911465
156	0xbee6ff20	-0.4511652
157	0x3e62d995	0.22153313
158	0xbf1d02bd	-0.61332303
159	0xbde04294	-0.10950199
160	0xbeadb2fa	-0.3392561
161	0xbcf45fc6	-0.029830825
162	0xbb8c3fc2	-0.0042800615
163	0xbe05e9cb	-0.13077466
164	0xbc6235c0	-0.01380676
165	0x3e5803a1	0.21095134
166	0xbc0b0b0a	-0.008486519
167	0x3e5a4d5a	0.2131857
168	0x3e835496	0.2565047
169	0x3df3e9e5	0.11909846
170	0xbe2b141a	-0.16706887
171	0xbe7b1c2e	-0.24522468
172	0x3e7ab056	0.2448133
173	0x3e84fa83	0.25972375
174	0xbdeac998	-0.11464232
175	0x3d9ffd4d	0.07811985
176	0xbe07d505	-0.13264854
177	0x3f5d40b1	0.86426836
178	0xbd413e4a	-0.047178544
179	0x3e2991ae	0.16559479
180	0x3eae43b7	0.34036037
181	0xbe34e969	-0.17667164
182	0x3e6fa18d	0.2340147
183	0xbdadb553	-0.084818505
184	0x3ea51801	0.32244876
185	0x3e0192e5	0.12653692
186	0xbe213043	-0.15741067
187	0xbebf945b	-0.37417874
188	0x3e300e57	0.1719297
189	0xbe82ccd3	-0.25546893
190	0xbe04d9de	-0.12973735
191	0xbe72ed4c	-0.23723334
192	0xbee49582	-0.44645315
193	0xbd0ae798	-0.03391227
194	0x3b9e2f29	0.0048273993
195	0xbe40863e	-0.1880121
196	0xbdae27fd	-0.08503721
197	0x3dd4423d	0.103641964
198	0x3dff8a22	0.124775186
199	0x3e2823e5	0.16419943
200	0x3ba854b1	0.005137049
201	0xbe1975d8	-0.1498636
202	0x3dc4b1af	0.09604203
203	0x3d99887b	0.07496735
204	0x3ecf13ea	0.4044488
205	0x3d2c143a	0.042011477
206	0xbe94164b	-0.28923258
207	0x3bc1b0e0	0.0059109777
208	0x3dcdc508	0.10047346
209	0xbe6fa588	-0.23402989
210	0x3e1dcc2b	0.15409915
211	0x3ec544f8	0.3852918
212	0x3d494d73	0.049146127
213	0xbcae54ea	-0.021280725
214	0x3dbfbe6f	0.09362494
215	0xbd929c8b	-0.071587645
216	0xbc481196	-0.012211224
217	0x3e198582	0.14992335
218	0x3e2b0705	0.16701896
219	0xbe046d8a	-0.12932411
220	0xbdcc29cf	-0.09968912
221	0x3e7e1fb2	0.24816778
222	0x3e17403b	0.14770596
223	0x3de51646	0.11185889
224	0x3e45d3fe	0.1931915
225	0xbf0120d7	-0.50440735
226	0x3c23f88e	0.0100079905
227	0xbea59fdf	-0.32348534
228	0x3e74593f	0.2386217
229	0xbe190f97	-0.14947353
230	0xbefbc033	-0.49170074
231	0x3d26f3da	0.0407599
232	0x3e1d634c	0.1536991
233	0x3e3bfe56	0.1835874
234	0xbdd24102	-0.102663055
235	0x3d6a4033	0.05719013
236	0x3d864f6d	0.06558118
237	0x3e146687	0.14492236
238	0xbe243f66	-0.1603981
239	0xbe3ae701	-0.18252183
240	0xbeb055d2	-0.34440476
241	0x3e7815d5	0.24227078
242	0x3dd7f934	0.105455786
243	0x3e8a8954	0.27057898
244	0xbe62a509	-0.22133268
245	0x3b77072a	0.003769348
246	0x3f1a278c	0.60216594
247	0xbec64f10	-0.38732195
248	0x3dec79c4	0.115466624
249	0xbd2ae24d	-0.041719723
250	0x3e988d87	0.29795477
251	0xbf47abd5	-0.7799657
252	0x3e5516a8	0.20809424
253	0x3e89bdf0	0.26902723
254	0xbdf72bc2	-0.12068893
255	0x3d28dca7	0.041226055

bias f4 [32]
0	0xbcc09a15	-0.023510972
1	0x3db42807	0.08796697
2	0xbe159bbd	-0.1461019
3	0x3d91da2d	0.07121692
4	0xbe36f218	-0.17865789
5	0xbe1096a0	-0.14119959
6	0x3d5d734c	0.054065034
7	0x3dc82d9d	0.09774325
8	0xbdcf7846	-0.10130362
9	0xbe3dcf78	-0.18536174
10	0x3cfc58b7	0.030804021
11	0x3e1c5357	0.15266167
12	0xbe35cf7a	-0.17754927
13	0x3db40396	0.087897465
14	0x3dd802ea	0.10547431
15	0x3caa987b	0.020824661
16	0xbe087463	-0.13325648
17	0xbe11d2f0	-0.14240623
18	0x3dc8762d	0.09788165
19	0x3deac021	0.11462427
20	0xbd890a51	-0.06691421
21	0xbe0c2818	-0.1368717
22	0x3d934acc	0.07192001
23	0xbdbda25d	-0.09259484
24	0xbdc846d1	-0.09779132
25	0xbd8e3ee4	-0.06945589
26	0xbd97701c	-0.0739443
27	0xbdcbd221	-0.09952188
28	0x3e0b9d27	0.13634168
29	0xbde697f7	-0.11259454
30	0xbd985f6b	-0.074400745
31	0x3dc7ac8f	0.0974971

weight f4 [32, 32]
0	0xbe6871a8	-0.22699606
1	0x3ed8f05e	0.42370886
2	0x3d51fc68	0.051266104
3	0x3d46c179	0.048524354
4	0x3f03f9ea	0.51553214
5	0x3e88467d	0.26616278
6	0xbe269e47	-0.16271316
7	0x3ed69415	0.41909853
8	0x3dabe5c8	0.08393437
9	0x3ea65594	0.32487166
10	0x3e907e6b	0.2822145
11	0xbe660bd4	-0.2246545
12	0x3e99c783	0.30035028
13	0x3ecef24b	0.4041923
14	0xbf0efbf5	-0.55853206
15	0x3df3a636	0.118969366
16	0xbcad127b	-0.021126976
17	0x3ec8626e	0.39137596
18	0x3e62b783	0.22140317
19	0xbd5f3214	-0.054491118
20	0xbca08d06	-0.019598495
21	0xbe87dc18	-0.26535106
22	0xbd350bc0	-0.04420066
23	0x3e9795a8	0.29606366
24	0xbdeb4af7	-0.11488908
25	0x3d39f53c	0.04539989
26	0x3dcace47	0.099026255
27	0xbddc78fc	-0.107652634
28	0xbea5335d	-0.3226575
29	0xbdcc12ca	-0.09964521
30	0xbf10ce71	-0.56565005
31	0x3cd1eed0	0.02562657
32	0x3dd64239	0.1046185
33	0x3de49f5b	0.11163207
34	0xbef179ce	-0.47163242
35	0xbe354a4e	-0.17704126
36	0xbe4701af	-0.19434236
37	0xbc1d9fec	-0.009620648
38	0xbeb6668d	-0.35625115
39	0xbe139ecc	-0.14416045
40	0xbecc964d	-0.3995842
41	0x3e78bd87	0.24291049
42	0x3e692000	0.22766113
43	0xbf2c152d	-0.6721981
44	0x3d670c36	0.05640813
45	0xbeafe916	-0.34357518
46	0x3cb4c012	0.022064243
47	0x3eaf4f35	0.34240118
48	0xbed07449	-0.4071372
49	0x3f0eafd4	0.5573704
50	0x3e8f229c	0.27956092
51	0xbecf3da9	-0.4047673
52	0x3e7ef20c	0.24897021
53	0xbd7a20bb	-0.06106637
54	0xbe3c3b5e	-0.18382022
55	0x3e7bba27	0.2458273
56	0xbdf3fb87	-0.119132094
57	0x3db3b98e	0.08775626
58	0x3e950225	0.291032
59	0xbd8fe7bc	-0.07026622
60	0xbe78ba00	-0.24289703
61	0xbdc82c93	-0.09774127
62	0xbcb5fdad	-0.022215689
63	0x3e86cea8	0.2632954
64	0xbd897e84	-0.06713584
65	0xbed604c4	-0.4180051
66	0xbdc7b201	-0.097507484
67	0x3e840569	0.25785378
68	0x3e18ba01	0.14914705
69	0x3d83edb1	0.064418204
70	0x3d93704a	0.07199152
71	0x3dacde13	0.08440795
72	0x3e904072	0.28174168
73	0x3e9c51bd	0.3053111
74	0x3e713975	0.23557074
75	0xbe655dd3	-0.22399072
76	0x3d2278aa	0.039665855
77	0x3ead85bd	0.33891097
78	0xbe6716c9	-0.22567286
79	0x3f1c0093	0.60938376
80	0xbe7decbc	-0.24797338
81	0x3e9748c9	0.29547718
82	0x3dd18000	0.10229492
83	0xbd3a8738	-0.04553911
84	0x3ef1fd13	0.47263393
85	0xbe2b07d3	-0.16702203
86	0xbe7151e3	-0.23566394
87	0xbd9f67c5	-0.07783464
88	0x3ec9f05b	0.3944119
89	0x3e42f22c	0.19037694
90	0xbc96b428	-0.018396452
91	0x3c8b913f	0.017037032
92	0xbd95506e	-0.07290731
93	0x3d655a67	0.055994418
94	0xbf1a29de	-0.60220134
95	0x3e5ffe3f	0.21874331
96	0xbdd4736c	-0.103735775
97	0xbe2697e9	-0.16268887
98	0xbe888f34	-0.26671755
99	0xbd724dd5	-0.059156258
100	0xbeb71c2b	-0.35763678
101	0x3d4e38f7	0.050347295
102	0x3d08ca6d	0.033396173
103	0x3e0a05d4	0.13478786
104	0x3e8ebc1a	0.27877885
105	0xbe205a09	-0.15659346
106	0x3e8e3499	0.27774504
107	0x3e0c707f	0.13714789
108	0xbeab61b4	-0.3347298
109	0x3d89e8bb	0.06733843
110	0x3e0a5cc0	0.13511944
111	0xbe5eac45	-0.21745403
112	0x3e202364	0.156385
113	0xbe7969db	-0.24356787
114	0x3d17618c	0.036958262
115	0xbc0b2b5f	-0.008494227
116	0xbd5433bf	-0.05180716
117	0x3db48527	0.08814459
118	0xbe95e568	-0.29276586
119	0xbe1af862	-0.15133813
120	0xbd6a307a	-0.057175137
121	0xbe931664	-0.2872802
122	0x3dc4b77d	0.0960531
123	0x3d86dd73	0.06585207
124	0x3e1babd9	0.15202273
125	0x3edc6e10	0.4305272
126	0xbe51de05	-0.2049485
127	0xbbd5a125	-0.006519454
128	0x3e97930e	0.2960438
129	0x3dfd734e	0.12375508
130	0xbe34c4a8	-0.17653143
131	0xbe1a8d55	-0.15092976
132	0xbe705fbc	-0.2347402
133	0x3dcfa63b	0.10139128
134	0x3e08c9d4	0.13358241
135	0x3da143a7	0.07874232
136	0x3e3fbbd6	0.18723997
137	0xbdbeb4ca	-0.093118265
138	0x3e811fb7	0.2521951
139	0x3cee5386	0.029092561
140	0x3d83cc0b	0.064354025
141	0xbbbc4c0a	-0.0057463693
142	0xbe94c7cc	-0.29058683
143	0x3e0bc70d	0.1365015
144	0x3d93f2a2	0.07224013
145	0xbed0bb00	-0.4076767
146	0x3c3032fa	0.010754341
147	0x3e91e56c	0.28495347
148	0x3ed96804	0.4246217
149	0x3e883f99	0.2661102
150	0x3e94c05c	0.2905301
151	0x3ed5e73d	0.41777983
152	0x3d2ba8d2	0.041909046
153	0xbe2fef30	-0.17181087
154	0x3e4fcd1b	0.20293085
155	0xbe3ec12c	-0.18628377
156	0xbeb31a78	-0.34981132
157	0xbe84948e	-0.25894588
158	0xbe17ed40	-0.14836597
159	0x3e0cdc73	0.1375597
160	0x3e0ec673	0.1394289
161	0x3acc0839	0.0015566415
162	0xbedb540c	-0.4283756
163	0xbcc978c8	-0.024593726
164	0xbc932c44	-0.017965443
165	0xbe4f4f47	-0.20245086
166	0xbecc60f0	-0.39917707
167	0x3e52af65	0.2057472
168	0xbcbb5bc8	-0.022870913
169	0x3ddfa167	0.10919457
170	0xbe7b25c4	-0.24526125
171	0x3dffe188	0.124941885
172	0x3dcb554d	0.09928379
173	0xbd80956d	-0.06278501
174	0x3ee2a218	0.44264293
175	0xbee8392d	-0.45356122
176	0x3d1b3785	0.037894744
177	0x3e86df71	0.26342347
178	0xbec7dff9	-0.39038065
179	0xbe47995b	-0.19492094
180	0xbec25e24	-0.3796245
181	0xbea32248	-0.31862092
182	0x3e01c608	0.12673199
183	0xbe7a435e	-0.24439761
184	0xbf2c4a1f	-0.673006
185	0xbeee0c6f	-0.4649386
186	0x3eab9243	0.33510026
187	0xbe0045b1	-0.12526585
188	0xbe27ee25	-0.16399439
189	0x3e3c0d85	0.18364532
190	0xbde2fbce	-0.11083184
191	0x3e2345c8	0.15944588
192	0xbea60894	-0.3242842
193	0x3eaa4b8a	0.33260757
194	0xbd8c5f87	-0.06854158
195	0xbd8f5474	-0.0699853
196	0xbdaa83d5	-0.08325926
197	0xbedbc4bb	-0.4292353
198	0x3e29601f	0.16540574
199	0x3be858d4	0.0070906673
200	0xbeacba3f	-0.33735844
201	0x3e01dc6b	0.12681739
202	0x3dfa2c8a	0.122155264
203	0xbec02295	-0.37526384
204	0xbebb6df8	-0.36607337
205	0xbd641717	-0.055686083
206	0xbbe0b47b	-0.0068574524
207	0x3e2a7c73	0.16649036
208	0x3e0ca9ea	0.13736692
209	0xbc180c18	-0.009280227
210	0xbe319f65	-0.1734596
211	0x3ca9d4df	0.020731388
212	0x3e52011a	0.20508233
213	0xbed52132	-0.4162689
214	0x3c9500bb	0.018188825
215	0x3eff41db	0.4985493
216	0x3f1e3180	0.6179428
217	0x3d945a1f	0.07243752
218	0x3e5b4288	0.21412098
219	0x3e75fb7b	0.24021713
220	0x3ef7e8f7	0.48419926
221	0xbe9b9ddf	-0.30393884
222	0xbea1a293	-0.31569347
223	0x3db28012	0.08715834
224	0xbdb98c73	-0.09059992
225	0x3cf0e813	0.029407537
226	0xbe1578f8	-0.14596927
227	0xbd010081	-0.03149462
228	0x3ea0d2c8	0.31410813
229	0x3d99fb3e	0.07518624
230	0x3e294a71	0.16532303
231	0x3eca65a1	0.39530662
232	0xbdd44385	-0.10364441
233	0x3de67387	0.11252504
234	0xba689ae0	-0.0008873176
235	0x3f030ce3	0.5119154
236	0xbe7e0008	-0.248047
237	0xbe8ff813	-0.28118953
238	0xbe878b02	-0.26473242
239	0x3d8aadb1	0.0677141
240	0x3ede6000	0.43432617
241	0xbd469559	-0.048482273
242	0x3dfa6c47	0.122276835
243	0x3e111533	0.14168243
244	0x3e98b7dd	0.29827777
245	0x3e5d9586	0.2163907
246	0xbeef56e2	-0.46745974
247	0xbe191d8d	-0.14952679
248	0x3e53b0d2	0.2067292
249	0x3e605bc8	0.21910012
250	0xbde2c2d7	-0.11072319
251	0xbe1d4d9f	-0.15361641
252	0x3de68d9e	0.1125748
253	0x3e16e8eb	0.14737289
254	0xbe82b61f	-0.25529572
255	0x3ed2b27b	0.41151795

bias f4 [32]
0	0xbe15d543	-0.14632134
1	0x3dcaaeaf	0.098965995
2	0x3c8c607f	0.017135857
3	0x3d78c8ce	0.060738377
4	0xbb25c148	-0.0025292207
5	0xbe349e27	-0.17638455
6	0xbe175de6	-0.14781913
7	0xbdc585ec	-0.09644684
8	0xbda156a7	-0.07877856
9	0xbe0eaaa6	-0.13932285
10	0xbe02a449	-0.12757982
11	0x3cbcdea7	0.023055388
12	0xbddbb588	-0.10727984
13	0x3c453cee	0.012038453
14	0x3dc1121b	0.094272815
15	0xbde5c20e	-0.112186536
16	0xbd096514	-0.03354366
17	0xbddb47cc	-0.107070535
18	0x3e003b75	0.12522681
19	0x3dcdd22a	0.10049851
20	0xbc4ea513	-0.012612599
21	0xbe0d1851	-0.13778807
22	0x3d64ab2f	0.055827316
23	0x3d9828dd	0.07429669
24	0x3d7ddb6b	0.06197683
25	0x3d64d271	0.055864755
26	0xbc95b08e	-0.018272664
27	0xbd1d661e	-0.038427465
28	0xbdc63b79	-0.09679312
29	0xbe016f9c	-0.12640232
30	0x3ddf4276	0.10901348
31	0xbe3ebdaa	-0.18627039
