Models/model-A-6.pt (torch, 53607 bytes, 17 tensors)

weight f4 [32, 86]
-0.28339702 0.30958435 0.18535298 0.13209562 -0.05362894 0.14124055 0.1084804 0.17996044
0.11414205 -0.44422373 -0.22104461 -0.05057434 0.04201196 0.12930857 0.25119883 0.19961132
-0.040113073 -0.25885895 -0.16884853 0.06632413 0.08367681 0.055784825 -0.292059 -0.12099357
-0.17609408 -0.02270821 0.06778441 -0.15882604 0.09672975 -0.28136307 0.078691356 0.057891723
-0.5174056 -0.2504849 0.20164636 -0.438556 -0.3562675 -0.108770445 0.07292584 0.037604716
0.11398116 0.027849067 -0.26870465 -0.078108154 -0.13077354 0.04553469 0.24028905 0.033426307
-0.5493558 -0.094599985 -0.352948 -0.0817051 0.021336706 0.17000578 0.15654746 0.12689134
-0.021228153 0.049980562 0.13006489 0.077948116 -0.053537406 0.008150557 -0.057921235 0.023151504
0.09108815 0.09752842 -0.075866394 0.061916642 0.04031028 -0.12234493 -0.06328617 -0.14784215
-0.045936964 0.07895924 -0.20904477 0.2324401 0.068332806 -0.07622712 0.061262608 -0.14187245
-0.013922234 0.28692937 0.27076963 -0.27576417 0.27808732 -0.09153566 0.060562063 0.27601263
-0.24247631 0.09287014 -0.115034916 -0.0056185303 -0.0693129 -0.13984478 -0.02649913 -0.05464633
-0.052470863 -0.218385 -0.118154995 0.17260885 -0.17029597 -0.0860202 0.08757919 0.027824122
-0.21830766 0.03025503 0.221762 -0.17070824 -0.119674176 -0.21883269 -0.12621266 0.20217727
0.23576899 0.11845613 0.27105573 -0.13581514 -0.27635294 -0.26191476 -0.30786422 -0.27055952
-0.4626583 0.46780577 0.33778968 0.11508456 -0.1219908 -0.035265055 -0.23405288 -0.47669494
-0.13471135 -0.1633228 -0.09561262 -0.010544989 -0.04456383 -0.47832957 0.05137136 0.26587406
0.20219891 0.0033577313 0.21104778 -0.18485582 -0.11171641 0.22805546 -0.007792664 0.0038420432
-0.06885438 -0.0042602792 0.35062313 0.094610244 0.036805578 -0.102719285 0.13999777 -0.23900872
0.0026185561 -0.21584725 -0.2030584 -0.16516966 -0.17218252 0.06949125 -0.27310818 -0.02486107
-0.1140022 -0.09537012 -0.077023506 -0.16653681 -0.034107648 0.12543505 0.05397764 -0.20189719
0.23489359 -0.11050617 0.0031087783 0.21757014 -0.21991599 0.048427586 0.21202283 -0.25377405
0.116280235 0.28791818 -0.10480323 0.13395576 -0.3303983 -0.007880526 0.047793787 0.37484536
-0.24969645 0.116607785 -0.4754061 0.08997588 -0.14746398 -0.07116982 -0.13601725 0.062016256
0.12462814 -0.60482866 0.13846493 0.02412513 0.040594503 0.00027535023 0.052325193 0.13614692
-0.09122056 -0.010914673 -0.22677976 -0.09607859 -0.16245453 -0.15219311 -0.26411885 0.18717471
-0.067170665 0.09460065 -0.11910511 -0.082624555 0.19920036 0.11504563 -0.010215211 -0.1443001
-0.00568338 -0.120146826 0.29478 0.1389621 -0.2734871 0.10073747 -0.5191595 0.04278873
-0.15723023 -0.00016708708 0.030624708 -0.09616631 -0.20803389 -0.1859261 -0.44707167 -0.14270045
-0.017664354 -0.26253965 -0.02375929 0.22420971 -0.00703448 -0.0017906999 0.14730792 0.22372349
0.18492268 0.13921791 0.06969672 0.09375466 0.0320452 -0.028813101 0.19496502 -0.3290021
0.15537766 0.07311923 0.1125828 -0.14163087 0.061500065 -0.23611628 -0.17647283 -0.11821417
00000000: 6a19 91be d781 9e3e 2ccd 3d3e 1344 073e
00000010: 05aa 5bbd 5da1 103e f92a de3d 8d47 383e
00000020: 4fc3 e93d 4b71 e3be 8559 62be 0a27 4fbd
00000030: bc14 2c3d 7769 043e 229d 803e e966 4c3e
00000040: 9b4d 24bd 2989 84be a1e6 2cbe f2d4 873d
00000050: bf5e ab3d a17e 643d c288 95be 7acb f7bd
00000060: 0252 34be 9106 babc 8ed2 8a3d 4ba3 22be
00000070: 3f1a c63d d20e 90be ef28 a13d df1f 6d3d
00000080: b274 04bf 8f3f 80be 627c 4e3e 698a e0be
00000090: b268 b6be 0ac3 debd 255a 953d 6707 1a3d
000000a0: f46e e93d ba23 e43c a893 89be 2bf7 9fbd
000000b0: 80e9 05be 9582 3a3d 550e 763e 06ea 083d
000000c0: 95a2 0cbf a3bd c1bd 9ab5 b4be 0155 a7bd
000000d0: 51ca ae3c ff15 2e3e fa4d 203e ceef 013e
000000e0: aae6 adbc 6bb8 4c3d bb2f 053e 43a3 9f3d
000000f0: 0a4a 5bbd ea89 053c d13e 6dbd 39a8 bd3c
00000100: 6d8c ba3d fbbc c73d d75f 9bbd 4e9c 7d3d
00000110: 641c 253d fb8f fabd 2e9c 81bd ef63 17be
00000120: 6628 3cbd 62b5 a13d d50f 56be c704 6e3e
00000130: 12f2 8b3d f71c 9cbd 80ee 7a3d 0347 11be
00000140: 151a 64bc 68e8 923e 51a2 8a3e f630 8dbe
00000150: 7661 8e3e 0c77 bbbd ed0f 783d 8751 8d3e
00000160: b64b 78be b332 be3d 6d97 ebbd a61b b8bb
00000170: ecf3 8dbd 7833 0fbe b414 d9bc d5d4 5fbd
00000180: b0eb 56bd 51a0 5fbe 3ffb f1bd 60c0 303e
00000190: 1162 2ebe 5c2b b0bd b85c b33d 6aef e33c
000001a0: 0b8c 5fbe 66d9 f73c 9415 633e 24ce 2ebe
000001b0: bc17 f5bd ad15 60be e43d 01be 8f07 4f3e
000001c0: 6d6d 713e 2199 f23d d1c7 8a3e 2013 0bbe
000001d0: 227e 8dbe b119 86be 61a0 9dbe c786 8abe
000001e0: 8ce1 ecbe 3d84 ef3e c5f2 ac3e 74b1 eb3d
000001f0: 50d6 f9bd 1772 10bd 8fab 6fbe 5c11 f4be
00000200: c6f1 09be 183e 27be 8dd0 c3bd e4c4 2cbc
00000210: 9088 36bd 9de7 f4be c66a 523d a520 883e
00000220: 3b0d 4f3e 620d 5c3b e91c 583e d84a 3dbe
00000230: 93cb e4bd 5f87 693e 9b59 ffbb caca 7b3b
00000240: 8603 8dbd d099 8bbb e084 b33e 04c3 c13d
00000250: 72c1 163d 7d5e d2bd 935b 0f3e b4be 74be
00000260: 159c 2b3b 1007 5dbe 8bee 4fbe 3c22 29be
00000270: 9d50 30be 6e51 8e3d d6d4 8bbe 71a9 cbbc
00000280: fc79 e9bd 6951 c3bd 80be 9dbd a088 2abe
00000290: 76b4 0bbd 0c72 003e a817 5d3d 23be 4ebe
000002a0: f287 703e 0f51 e2bd a5bc 4b3b b5ca 5e3e
000002b0: a831 61be 015c 463d 831c 593e acee 81be
000002c0: 5524 ee3d 036a 933e 13a3 d6bd b32b 093e
000002d0: f729 a9be 521d 01bc 6bc3 433d bbeb bf3e
000002e0: 6db0 7fbe 10d0 ee3d 6e68 f3be 4645 b83d
000002f0: cc00 17be 7cc1 91bd 1b48 0bbe c204 7e3d
00000300: 0a3d ff3d 0dd6 1abf c0c9 0d3e 11a2 c53c
00000310: 6c46 263d e25c 9039 f152 563d 196a 0b3e
00000320: d8d1 babd 75d3 32bc f438 68be dac4 c4bd
00000330: 7b5a 26be 83d8 1bbe 963a 87be baaa 3f3e
00000340: c690 89bd fcbd c13d 61ed f3bd 1037 a9bd
00000350: 2efb 4b3e 0b9d eb3d b35d 27bc 68c3 13be
00000360: a63b babb 8a0f f6bd 67ed 963e 154c 0e3e
00000370: 8006 8cbe 724f ce3d a3e7 04bf 3c43 2f3d
00000380: f600 21be 1934 2fb9 abe0 fa3c d8f2 c4bd
00000390: d606 55be 6963 3ebe 94e6 e4be 1120 12be
000003a0: d6b4 90bc 996b 86be d8a2 c2bc 3b97 653e
000003b0: 7f81 e6bb ebb5 eaba e3d7 163e c517 653e
000003c0: 5f5c 3d3e 248f 0e3e 27bd 8e3d 7102 c03d
000003d0: d441 033d 7409 ecbc e9a4 473e f772 a8be
000003e0: 521b 1f3e 89bf 953d d091 e63d af07 11be
000003f0: 7ee7 7b3d 77c8 71be 4bb5 34be 451a f2bd

bias f4 [32]
0.010636561 -0.061910115 0.07179629 0.050797813 -0.08409771 -0.0064530186 -0.0149017265 0.05530811
-0.046315145 -0.07536609 0.0650329 -0.06665893 0.0064267325 0.0007900589 -0.02740117 -0.040787306
-0.06800838 -0.10199499 -0.008498044 -0.10598106 -0.001953717 -0.10246424 -0.089778684 -0.006545052
-0.07048305 -0.02372195 -0.04583559 0.06484872 -0.06478667 -0.08337883 0.09560123 -0.0020950863
00000000: f844 2e3c 7695 7dbd ef09 933d 5e11 503d
00000010: 6c3b acbd d873 d3bb 5f26 74bc c28a 623d
00000020: f3b4 3dbd 8959 9abd f82f 853d 7a84 88bd
00000030: 5797 d23b f51b 4f3a 6b78 e0bc 9710 27bd
00000040: fa47 8bbd c0e2 d0bd 613b 0bbc 990c d9bd
00000050: ef09 00bb c5d8 d1bd e3dd b7bd e077 d6bb
00000060: 6b59 90bd 8954 c2bc 1abe 3bbd 68cf 843d
00000070: e0ae 84bd 85c2 aabd 94ca c33d b74d 09bb

weight f4 [32, 32]
0.07535061 -0.44947276 -0.25107506 0.3666257 -0.020562727 -0.10083286 -0.013230851 0.08028312
-0.19951162 -0.12943311 0.06937197 -0.0546711 0.24488348 -0.17469642 0.11018325 0.08460538
0.20079564 -0.5063786 -0.31077048 -0.3684399 0.04729405 0.025709996 0.18706277 -0.20157425
-0.23153636 0.0783232 0.13027272 0.017139524 0.023832247 0.008948981 0.13540778 0.64461654
-0.074374855 -0.23872072 -0.43154436 -0.16454114 0.019936943 -0.15324521 -0.3728285 -0.10620352
-0.18243489 0.045645416 -0.12892203 -0.6992698 -0.30268648 0.41301143 -0.16379732 -0.09980468
-0.25338665 -0.21189927 0.51950455 0.35278305 -0.009511271 0.17690757 -0.013999919 0.3558495
0.08733196 -0.39710325 0.039497864 -0.007912639 0.019532768 -0.13506204 0.39533895 0.39336053
0.17384118 0.012062193 -0.12918186 -0.11405091 0.061558336 0.49685034 -0.09248222 0.49034578
0.14984246 -0.15969357 -0.17835003 0.16437647 0.26326323 -0.3074736 -0.25071847 0.37543285
-0.12895739 -0.15359122 -0.08483632 -0.078521535 -0.1937215 -0.10048875 -0.13159186 0.18293893
-0.076622896 -0.16453911 -0.23990658 -0.46921572 -0.0208641 0.12722895 -0.006040244 -0.1526593
-0.06278129 0.43502566 -0.22370403 -0.16741753 -0.088867866 0.45293453 -0.4008576 -0.2526866
0.11061812 0.101704404 0.11656491 -0.19875017 -0.1446901 -0.048705127 0.08166053 0.23442103
-0.008702704 0.27853283 0.03318957 -0.010114875 0.29878482 -0.40439206 -0.29581022 -0.2840315
0.114002265 -0.17117026 -0.039288145 -0.27611116 -0.047418606 0.0012199837 -0.0390207 0.16866137
-0.25717327 -0.007076002 -0.15378718 0.27399835 0.3095461 0.019918691 0.00822721 0.07370949
-0.24339004 -0.099578306 0.13684869 -0.12382506 -0.14425057 -0.06127793 0.32944888 -0.09781955
-0.21816376 -0.22199646 -0.10784695 -0.2065243 -0.13116007 -0.03702383 -0.15760568 -0.119278975
0.01144106 -0.15386523 -0.0642471 0.07138485 0.01512435 -0.018392004 0.19305128 -0.10364199
-0.099256165 -0.13842933 -0.32645777 -0.33297387 -0.18887518 0.27298036 -0.41932938 0.09827702
-0.20159142 -0.31146392 0.24097951 -0.054135755 -0.007221166 -0.08818309 0.26888946 0.41900548
-0.104496166 0.12482424 -0.1314946 0.085298136 0.075788 0.11764167 -0.35491973 0.02350514
0.18778552 0.08735787 0.042964928 -0.58280253 -0.17450923 0.42076823 -0.11055918 0.11155829
0.14319676 -0.014846633 -0.35992783 -0.4177566 0.1825448 0.4029921 -0.5762822 -0.16670717
0.32282344 0.2109241 -0.07495089 -0.13316673 -0.25425485 0.112114966 0.15850906 -0.09656128
-0.27780887 0.32656989 0.34337538 0.22534195 0.32151863 0.06822954 -0.3328934 -0.34957278
-0.06561277 -0.13340986 0.23214018 0.03668367 -0.42913407 0.18475357 -0.3149702 0.34040606
-0.21699876 -0.038153708 0.22110029 -0.019645749 0.3870962 0.15093638 0.060023896 -0.088874
-0.2886699 -0.41940904 0.2307303 0.48231602 -0.4208489 0.009270211 -0.28720865 -0.34861028
0.10530124 -0.104360506 0.040208984 0.04755371 0.122185215 0.13379587 0.13118498 -0.09434358
0.18669479 0.13884586 0.22322819 0.21920577 0.5120081 0.51886135 0.017188849 0.059340943
00000000: 6c51 9a3d 4b21 e6be e98c 80be 5db6 bb3e
00000010: 2a73 a8bc 7581 cebd 36c6 58bc 7a6b a43d
00000020: c64c 4cbe 1d8a 04be e412 8e3d ceee 5fbd
00000030: bcc2 7a3e 9ee3 32be c1a7 e13d 9645 ad3d
00000040: 5f9d 4d3e 07a2 01bf 4f1d 9fbe 28a4 bcbe
00000050: 68b7 413d c59d d23c 628d 3f3e 7b69 4ebe
00000060: de17 6dbe ea67 a03d 3666 053e 3068 8c3c
00000070: d83b c33c bf9e 123c 56a8 0a3e 9705 253f
00000080: d851 98bd 3473 74be 62f3 dcbe 797d 28be
00000090: cd52 a33c 50ec 1cbe 61e3 bebe 3b81 d9bd
000000a0: 36d0 3abe b0f6 3a3d 2304 04be 5803 33bf
000000b0: b9f9 9abe 3c76 d33e 7cba 27be 6566 ccbd
000000c0: e5bb 81be 1ffc 58be 40fe 043f fb9f b43e
000000d0: 29d5 1bbc 4227 353e eb5f 65bc e831 b63e
000000e0: 19db b23d 1e51 cbbe 83c8 213d 03a4 01bc
000000f0: 2f03 a03c b44d 0abe de69 ca3e 8d66 c93e
00000100: 6c03 323e 81a0 453c 4048 04be 8693 e9bd
00000110: 9824 7c3d 2b63 fe3e 5167 bdbd 9a0e fb3e
00000120: 4d70 193e b686 23be 64a1 36be 4e52 283e
00000130: 70ca 863e 2e6d 9dbe 2c5e 80be bc38 c03e
00000140: 680d 04be 0447 1dbe aabe adbd e6cf a0bd
00000150: ee5e 46be 0ccd cdbd 04c0 06be 5854 3b3e
00000160: 77ec 9cbd f17c 28be 12aa 75be 0b3d f0be
00000170: 30eb aabc 4e48 023e 3ded c5bb b852 1cbe
00000180: 7a93 80bd afbb de3e ab12 65be 806f 2bbe
00000190: 5b00 b6bd 09e7 e73e 353d cdbe 2360 81be
000001a0: c18b e23d 664a d03d 95b9 ee3d 2a85 4bbe
000001b0: a429 14be 077f 47bd a33d a73d 110c 703e
000001c0: c995 0ebc db9b 8e3e c9f1 073d dcb8 25bc
000001d0: 53fa 983e 7a0c cfbe 7074 97be 946c 91be
000001e0: 057a e93d 4247 2fbe 9bec 20bd 715e 8dbe
000001f0: 033a 42bd dce7 9f3a 2bd4 1fbd 91b5 2c3e
00000200: 37ac 83be cfdd e7bb 637a 1dbe 8349 8c3e
00000210: d47c 9e3e 862c a33c 6bcb 063c 00f5 963d
00000220: 3d3b 79be b6ef cbbd 1022 0c3e fe97 fdbd
00000230: 6cb6 13be 91fe 7abd 86ad a83e 9e55 c8bd
00000240: 5266 5fbe 0a53 63be ddde dcbd 1b7b 53be
00000250: d34e 06be 4da6 17bd 6263 21be 8948 f4bd
00000260: 4973 3b3c d98e 1dbe fc93 83bd 3832 923d
00000270: 1fcc 773c d4aa 96bc 3caf 453e 4042 d4bd
00000280: d146 cbbd 6bc0 0dbe 7925 a7be 8d7b aabe
00000290: 7f68 41be 15c4 8b3e 57b2 d6be 7645 c93d
000002a0: fb6d 4ebe 3378 9fbe 55c3 763e 74bd 5dbd
000002b0: 889f ecbb 5699 b4bd e1ab 893e e387 d63e
000002c0: 1602 d6bd daa3 ff3d 85a6 06be cab0 ae3d
000002d0: bd36 9b3d 1eee f03d 0ab8 b5be da8d c03c
000002e0: d94a 403e afe8 b23d fefb 2f3d 8c32 15bf
000002f0: 8cb2 32be ef6e d73e da6c e2bd ac78 e43d
00000300: 2ca2 123e 4b3f 73bc 7648 b8be 31e4 d5be
00000310: 06ed 3a3e fb54 ce3e 3b87 13bf 49b5 2abe
00000320: 1d49 a53e 7dfc 573e da7f 99bd dc5c 08be
00000330: b12d 82be 889c e53d 3350 223e ecc1 c5bd
00000340: f73c 8ebe 2b34 a73e e6ce af3e 0ac0 663e
00000350: 179e a43e eebb 8b3d 0171 aabe 34fb b2be
00000360: fd5f 86bd 989c 08be 28b6 6d3e 9e41 163d
00000370: 76b7 dbbe 0a30 3d3e c643 a1be b449 ae3e
00000380: ec34 5ebe 1047 1cbd 1d68 623e 1ff0 a0bc
00000390: 7931 c63e 118f 1a3e 9edb 753d 9203 b6bd
000003a0: 8bcc 93be c8bc d6be 9044 6c3e 20f2 f63e
000003b0: 8279 d7be 15e2 173c 030d 93be 0c7d b2be
000003c0: 2da8 d73d f6ba d5bd 2db2 243d aec7 423d
000003d0: 3e3c fa3d c901 093e 5b55 063e 3537 c1bd
000003e0: eb2c 3f3e 9c2d 0e3e ee95 643e 7a77 603e
000003f0: f612 033f 19d4 043f a1cf 8c3c 7d0f 733d

bias f4 [32]
0.08494671 -0.033085156 -0.044068433 0.077715136 -0.17378974 -0.10828949 -0.0443876 0.08298168
-0.018820956 0.18772537 0.04746066 -0.075588636 -0.15203734 -0.08285541 -0.25116894 -0.15188217
0.10068666 -0.1429335 0.1298931 -0.12754415 0.024059633 -0.11653709 0.053834938 0.08654339
-0.09718082 -0.067967154 -0.16170385 0.08578584 -0.10781013 -0.046784952 0.15495409 -0.17117544
00000000: 8af8 ad3d 4d84 07bd 1a81 34bd 1d29 9f3d
00000010: f0f5 31be e1c6 ddbd c6cf 35bd 4df2 a93d
00000020: 682e 9abc 143b 403e 1c66 423d 37ce 9abd
00000030: adaf 1bbe 19b0 a9bd 3799 80be 0087 1bbe
00000040: cf34 ce3d 295d 12be b202 053e ef9a 02be
00000050: b518 c53c ffaa eebd 0682 5c3d a93d b13d
00000060: bd06 c7bd 5d32 8bbd b295 25be 7db0 af3d
00000070: 8fcb dcbd 94a1 3fbd 49ac 1e3e 9d48 2fbe

weight f4 [32, 32]
-0.25120804 0.20897043 -0.3389565 0.10762117 0.24359305 -0.03672499 -0.23887146 0.00977563
0.035856403 0.5546887 -0.25244147 -0.36484605 0.27635583 -0.22035271 -0.3963261 0.517862
-0.2564333 0.10528661 0.15258524 -0.16346066 0.05192776 -0.10823858 -0.11039226 -0.14325117
0.0178765 -0.04571561 -0.3677273 -0.18668522 0.23908472 0.39521787 0.15565209 -0.40099233
-0.21993694 -0.013620402 -0.18879601 0.32991025 0.066827066 0.08357596 -0.12477709 0.42180604
-0.08752298 0.25656134 -0.36772972 -0.13577592 0.1526362 0.027238242 0.23699392 0.040003177
-0.5250617 0.12738977 0.11038967 -0.12356531 0.17378129 -0.35163015 -0.35144588 0.26986387
-0.0066131237 -0.013272847 -0.11742907 -0.18649392 -0.06239625 0.36428216 0.45208254 0.014042312
0.18652253 -0.32164353 -0.18313988 0.06117775 -0.110998794 -0.36404118 0.0400446 0.109078914
-0.13265052 0.1165784 0.13687944 0.4313633 -0.21386185 -0.0555338 0.3848425 -0.19709012
-0.08056402 -0.17269701 -0.7068666 -0.13278276 -0.094415165 -0.113525346 0.1901477 0.11219957
-0.20226549 0.2984833 -0.52357423 -0.35581294 0.04322696 -0.09698094 -0.29433456 -0.30898783
0.102905445 -0.63255906 -0.3485395 -0.2356927 -0.22232375 0.13440864 0.10823684 0.5272346
0.30559722 0.3429895 0.26576972 -0.13036983 0.08103722 -0.016803287 0.053365555 0.15834342
-0.031520717 -0.20394799 -0.38559863 0.20726275 -0.22763729 -0.035920087 0.14169368 -0.3301268
-0.14837554 0.23144142 -0.49366105 -0.13672008 -0.0046661193 -0.54019684 -0.035401203 0.27703017
0.039749216 0.01360571 0.20462467 -0.323749 0.0030841308 -0.08438847 -0.08630162 -0.30300227
-0.33225125 -0.1458208 -0.04382277 0.491364 -0.2767822 -0.12349706 0.11284239 -0.081266746
0.1113548 -0.11241278 0.17265728 0.360267 -0.14892666 0.15918057 -0.31782594 0.2961285
-0.3108534 0.15228304 0.23827899 -0.27728847 -0.1680182 -0.20704974 0.13146862 0.33973885
0.22594103 0.24570389 0.012114661 0.16936101 0.18198036 -0.077670075 0.16379407 0.30768383
-0.4017836 -0.1377596 -0.17697214 0.08002002 -0.06455467 -0.13420124 0.16885296 -0.10835017
-0.083412014 -0.26544693 0.04100544 -0.28780234 -0.18673463 -0.07082565 0.04199251 -0.10231478
-0.111979626 0.1104214 -0.017468283 -0.14426209 0.028184526 0.07100464 -0.16397433 -0.04607155
-0.08962419 -0.0077162497 -0.23226745 -0.36642942 -0.018163837 0.07914589 0.21636793 -0.13136452
-0.24669807 -0.17215966 0.27388966 0.3024283 -0.02876027 -0.07230254 -0.3461766 0.009205481
-0.08747151 -0.09437788 0.10132848 -0.23222746 0.4246478 0.0494326 0.18907923 -0.37559444
-0.065764934 -0.23219362 -0.057126403 -0.05431993 -0.10237402 -0.14343333 0.38058352 -0.17334448
-0.0856312 -0.108508915 -0.11056294 0.20842007 0.2305658 0.14821899 -0.08652625 0.009577169
-0.13015065 0.03624111 0.059814032 0.74649465 0.03757335 -0.40288305 -0.057297707 -0.16458887
0.36724684 -0.1463615 -0.38044882 -0.33739194 -0.19142944 -0.15747252 0.3271504 0.19640343
-0.074335545 0.05106755 -0.46663302 -0.3742788 0.09946967 0.19709395 -0.12876488 0.07956321
00000000: 579e 80be 58fc 553e b58b adbe 7d68 dc3d
00000010: 7570 793e f16c 16bd b89a 74be f729 203c
00000020: 2ade 123d 1400 0e3f 0240 81be 1acd babe
00000030: 837e 8d3e 24a4 61be 41eb cabe 9b92 043f
00000040: 3a4b 83be 82a0 d73d 4e3f 1c3e 3b62 27be
00000050: 34b2 543d 30ac ddbd 5615 e2bd 6fb0 12be
00000060: bd71 923c 4b40 3bbd c146 bcbe 692a 3fbe
00000070: a0d2 743e ff59 ca3e 4363 1f3e de4e cdbe
00000080: 2637 61be 1b28 5fbc be53 41be ffe9 a83e
00000090: a1dc 883d df29 ab3d 228b ffbd f6f6 d73e
000000a0: 403f b3bd 025c 833e 1247 bcbe d808 0bbe
000000b0: aa4c 1c3e bc22 df3c 89ae 723e 5fda 233d
000000c0: 726a 06bf 7772 023e fb13 e23d cf0f fdbd
000000d0: b9f3 313e de08 b4be b7f0 b3be 992b 8a3e
000000e0: e7b2 d8bb 5b76 59bc a77e f0bd 43f8 3ebe
000000f0: 3693 7fbd 3183 ba3e 5d77 e73e ba11 663c
00000100: c3ff 3e3e 76ae a4be 0589 3bbe 8595 7a3d
00000110: 5653 e3bd 9b63 babe ce05 243d c464 df3d
00000120: 8ad5 07be a8c0 ee3d 202a 0c3e a7db dc3e
00000130: 9afe 5abe 6977 63bd 130a c53e fed1 49be
00000140: c0fe a4bd 7cd7 30be 36f5 34bf 34f8 07be
00000150: bd5c c1bd fa7f e8bd 14b6 423e e3c8 e53d
00000160: af1e 4fbe ced2 983e f608 06bf 1d2d b6be
00000170: c10e 313d f19d c6bd 05b3 96be a733 9ebe
00000180: 17c0 d23d 64ef 21bf c573 b2be 6d59 71be
00000190: d6a8 63be 6ba2 093e 47ab dd3d d9f8 063f
000001a0: 3d77 9c3e 529c af3e f812 883e ab7f 05be
000001b0: d8f6 a53d 0ca7 89bc d795 5a3d c724 223e
000001c0: de1b 01bd bed7 50be 2f6d c5be b03c 543e
000001d0: c019 69be f120 13bd 2618 113e 6106 a9be
000001e0: c2ef 17be fbfe 6c3e 24c1 fcbe 5900 0cbe
000001f0: 3fe6 98bb 574a 0abf da00 11bd e6d6 8d3e
00000200: 13d0 223d 7cea 5e3c 2189 513e 6ec2 a5be
00000210: 211f 4a3b ddd3 acbd e7be b0bd 1d23 9bbe
00000220: d61c aabe 0c52 15be 817f 33bd 1094 fb3e
00000230: 66b6 8dbe 07ec fcbd e919 e73d 2e6f a6bd
00000240: fc0d e43d ac38 e6bd 12cd 303e eb74 b83e
00000250: 3b80 18be 3b00 233e 15ba a2be 289e 973e
00000260: 2d28 9fbe 16f0 1b3e 68ff 733e c1f8 8dbe
00000270: f70c 2cbe d904 54be b69f 063e 40f2 ad3e
00000280: 165d 673e cd99 7b3e 927c 463c f96c 2d3e
00000290: 0f59 3a3e 7d11 9fbd a2b9 273e bc88 9d3e
000002a0: 94b6 cdbe da10 0dbe 2f38 35be 89e1 a33d
000002b0: 3d35 84bd 0d6c 09be cae7 2c3e b2e6 ddbd
000002c0: ebd3 aabd a9e8 87be 52f5 273d d45a 93be
000002d0: 5d37 3fbe 0a0d 91bd 5700 2c3d 698a d1bd
000002e0: 9355 e5bd 9d24 e23d a519 8fbc 71b9 13be
000002f0: 3ce3 e63c e16a 913d e3e8 27be 86b5 3cbd
00000300: e38c b7bd 98d8 fcbb 85d7 6dbe a39c bbbe
00000310: 54cc 94bc 3e17 a23d 8e8f 5d3e 6c84 06be
00000320: 6b9e 7cbe 9f4a 30be 443b 8c3e e2d7 9a3e
00000330: a89a ebbc 5b13 94bd 0f3e b1be 96d2 163c
00000340: 4324 b3bd 3149 c1bd 4e85 cf3d 09cd 6dbe
00000350: 706b d93e d779 4a3d fc9d 413e ea4d c0be
00000360: c4af 86bd 2ac4 6dbe 60fd 69bd 937e 5ebd
00000370: 78a9 d1bd 30e0 12be d8db c23e 3781 31be
00000380: 695f afbd ec39 debd d36e e2bd 126c 553e
00000390: 7119 6c3e b8c6 173e ad34 b1bd 8fe9 1c3c
000003a0: 3646 05be 8f71 143d 8fff 743d 461a 3f3f
000003b0: 83e6 193d b046 cebe 00b1 6abd fc89 28be
000003c0: c707 bc3e cadf 15be 30ca c2be a3be acbe
000003d0: 1406 44be 7a40 21be 4280 a73e fb1d 493e
000003e0: 3c3d 98bd 352c 513d 86ea eebe 79a1 bfbe
000003f0: c1b6 cb3d ffd2 493e f1da 03be 09f2 a23d

bias f4 [32]
-0.0024795858 0.029220229 -0.018882658 0.11103748 -0.06955781 -0.12237401 -0.08717717 -0.0631915
0.060025405 0.04783854 0.06276726 -0.1934012 -0.046630986 0.14791697 -0.07487092 -0.067934945
-0.027367214 -0.08161494 -0.1011747 0.031179225 -0.08151124 -0.047554497 0.0035975317 0.1574989
0.013912289 0.026494266 0.060448896 -0.13991475 -0.13899268 -0.13499199 -0.12156434 0.0200671
00000000: 8c80 22bb 435f ef3c ceaf 9abc 9e67 e33d
00000010: 5374 8ebd 3a9f fabd f289 b2bd 8c6a 81bd
00000020: 33dd 753d 58f2 433d 1f8c 803d f70a 46be
00000030: 2200 3fbd 8c77 173e ed55 99bd 7a21 8bbd
00000040: 3531 e0bc bc25 a7bd ae34 cfbd 936b ff3c
00000050: 5def a6bd 81c8 42bd 91c4 6b3b 6447 213e
00000060: 5ff0 633c 810a d93c 4399 773d d045 0fbe
00000070: 1954 0ebe 573b 0abe baf6 f8bd c263 a43c

weight f4 [32, 32]
-0.1362486 0.044283025 0.08514972 -0.20515652 -0.068299845 -0.008469174 -0.27264634 -0.26654813
0.26562467 -0.23170543 -0.26449656 -0.03166676 -0.09799949 -0.10580282 -0.18820654 -0.5109532
-0.15069446 0.13824141 -0.35605508 0.21852592 0.075148806 0.17288028 -0.17512897 0.2036169
0.072464816 0.09996189 0.16714853 -0.17203033 0.029419102 -0.07352522 -0.26438424 0.6255241
-0.17123292 0.22825365 -0.02268333 -0.27877894 -0.0012340265 0.015753638 -0.091470644 0.11586284
-0.069465265 -0.079960555 0.4223123 -0.13701351 0.061922718 -0.3489028 -0.17321134 -0.048692763
-0.118895166 0.084624015 0.18835968 0.52790916 -0.19243918 0.1076874 0.27394688 -0.078119114
0.062735185 0.002453583 -0.1004299 0.5752874 -0.13620038 0.06700672 0.17778023 -0.10063571
-0.03642684 0.12582766 0.090535305 -0.11676394 -0.023978068 0.11034817 0.113345325 -0.08272557
0.3188434 0.042830363 -0.23627536 -0.24762037 -0.32011318 -0.08761935 0.046364482 -0.22277871
-0.4565343 -0.3582558 -0.19724387 0.036976494 -0.188901 -0.37396848 0.22079639 0.33380878
-0.20886041 0.6007262 -0.25758186 -0.20268464 0.21418756 -0.33840558 -0.5481377 0.056955002
-0.14790592 -0.098011516 0.09701239 -0.36222926 -0.08478886 0.0022768648 -0.12121149 -0.025662096
0.16246134 -0.13009714 0.23429161 0.15852354 0.16461773 0.041095085 0.08106631 -0.105777
-0.5316518 0.092756346 0.4148009 0.25785604 0.0032786115 0.29923105 -0.016882323 -0.29322606
0.00016523708 -0.2266263 0.045769785 0.10650768 -0.15815826 -0.09269192 0.16851918 0.41312984
-0.06567467 0.04199757 -0.003480425 0.1904235 0.24315736 0.10385877 0.22227332 -0.27815008
0.31927696 -0.02789054 -0.055956807 0.15786299 -0.46490553 -0.14728129 -0.098436914 -0.2056138
0.09856138 -0.019887233 -0.31606904 -0.32689747 0.0073129786 -0.275143 0.061393928 -0.07250013
-0.008415483 0.021949952 0.3526327 -0.18423614 0.1757172 -0.59745336 -0.15916309 0.16713743
0.3971269 0.19363011 0.59703434 -0.024800729 0.36366028 -0.29184255 -0.008158618 -0.2379644
-0.093177855 0.07439354 -0.10719687 0.16413113 0.028041944 0.080363445 -0.07632616 0.1833337
0.14141385 -0.38789514 0.035617538 -0.19458692 0.2919234 0.068411864 -0.31886894 -0.51209944
0.22055283 0.26936525 -0.05557114 0.26085636 -0.36909243 -0.1784398 0.26595554 0.2500827
0.19728832 -0.23081948 -0.3433468 -0.47535962 -0.02742229 -0.085919954 -0.040246967 -0.20431603
-0.17200375 -0.05194396 0.46801105 0.12770109 -0.12047248 -0.04689519 -0.37278596 -0.102443844
-0.084934525 0.18447922 0.45102063 -0.08041315 -0.05982843 0.26056793 -0.10664129 -0.385571
-0.24691017 0.28945747 0.064849116 -0.053087387 -0.39277372 0.15274969 0.044838313 0.32389727
0.13150081 0.22564712 0.010722102 -0.1304977 0.07417231 0.10270535 0.09043499 -0.11718299
-0.11520284 0.15758646 0.19565925 -0.29144812 0.1891553 0.2137044 -0.14512163 -0.51123834
0.4140318 0.30508798 0.07731538 -0.23264705 -0.115100786 0.11848624 -0.0043549887 0.28390557
-0.15914597 -0.011886378 0.17586127 -0.29482532 0.424508 -0.0816776 0.024199003 0.3783172
00000000: c184 0bbe 1e62 353d fa62 ae3d 8d14 52be
00000010: cae0 8bbd 4ac2 0abc 4d98 8bbe ff78 88be
00000020: f5ff 873e 3044 6dbe 186c 87be 01b5 01bd
00000030: f5b3 c8bd 26af d8bd 37b9 40be d4cd 02bf
00000040: a64f 1abe 288f 0d3e da4c b6be 42c5 5f3e
00000050: 9ee7 993d 8707 313e 0255 33be f380 503e
00000060: 6f68 943d d2b8 cc3d fc28 2b3e b828 30be
00000070: 5400 f13c 6494 96bd 5f5d 87be 5922 203f
00000080: af57 2fbe 53bb 693e 64d2 b9bc 1dbc 8ebe
00000090: 0fbf a1ba c60d 813c f654 bbbd 7f49 ed3d
000000a0: ce43 8ebd 5cc2 a3bd 5139 d83e 454d 0cbe
000000b0: ada2 7d3d 63a3 b2be 505e 31be 1072 47bd
000000c0: 4f7f f3bd 5b4f ad3d 5ce1 403e 0e25 073f
000000d0: c70e 45be 368b dc3d c442 8c3e eafc 9fbd
000000e0: 4e7b 803d 4bcc 203b 31ae cdbd 0946 133f
000000f0: 1d78 0bbe d23a 893d 050c 363e 181a cebd
00000100: 4f34 15bd f7d8 003e 936a b93d ef21 efbd
00000110: a76d c4bc 39fe e13d 9821 e83d 066c a9bd
00000120: 713f a33e e46e 2f3d 2bf2 71be 3290 7dbe
00000130: e0e5 a3be c671 b3bd afe8 3d3d 1a20 64be
00000140: ddbe e9be 4e6d b7be 4cfa 49be aa74 173d
00000150: 446f 41be cc78 bfbe 7318 623e fce8 aa3e
00000160: 81df 55be 31c9 193f c5e1 83be 908c 4fbe
00000170: fc53 5b3e 7f43 adbe c152 0cbf a649 693d
00000180: a674 17be 43ba c8bd 6fae c63d 1d76 b9be
00000190: c8a5 adbd 7437 153b bb3d f8bd 5139 d2bc
000001a0: 445c 263e 2f38 05be 24ea 6f3e ff53 223e
000001b0: 8d91 283e 5253 283d 1806 a63d 9da1 d8bd
000001c0: 551a 08bf 0af7 bd3d c960 d43e b505 843e
000001d0: f9dd 563b d034 993e cc4c 8abc ba21 96be
000001e0: 7e43 2d39 ba10 68be 1979 3b3d b320 da3d
000001f0: 3df4 21be 43d5 bdbd 4b90 2c3e c185 d33e
00000200: 7180 86bd a505 2c3d d817 64bb 61fe 423e
00000210: 3efe 783e e8b3 d43d 9e9b 633e b069 8ebe
00000220: 4578 a33e b47a e4bc f732 65bd d6a6 213e
00000230: 1908 eebe e8d0 16be 4b99 c9bd 6d8c 52be
00000240: 8cda c93d 8dea a2bc cdd3 a1be 1b5f a7be
00000250: b6a1 ef3b 8bdf 8cbe 3378 7b3d f37a 94bd
00000260: 18e1 09bc 63d0 b33c 468c b43e 66a8 3cbe
00000270: 36ef 333e b4f2 18bf a6fb 22be 1326 2b3e
00000280: 3854 cb3e f946 463e 3ed7 183f e62a cbbc
00000290: ae31 ba3e 636c 95be b9ab 05bc f1ac 73be
000002a0: 08d4 bebd a45b 983d 088a dbbd fe11 283e
000002b0: 38b8 e53c 9795 a43d e450 9cbd d4bb 3b3e
000002c0: cbce 103e 319a c6be b2e3 113d cb41 47be
000002d0: fc76 953e 851b 8c3d ca42 a3be f318 03bf
000002e0: 9ad8 613e 3eea 893e 909e 63bd f78e 853e
000002f0: aff9 bcbe ecb8 36be 532b 883e d70a 803e
00000300: f305 4a3e f15b 6cbe 27cb afbe 5662 f3be
00000310: b6a4 e0bc cdf6 afbd 01da 24bd 3938 51be
00000320: c021 30be 31c3 54bd 259f ef3e 13c4 023e
00000330: 47ba f6bd 2c15 40bd cddd bebe 14ce d1bd
00000340: 27f2 adbd 1fe8 3c3e 2dec e63e a6af a4bd
00000350: a80e 75bd 2969 853e c066 dabd 9069 c5be
00000360: 05d6 7cbe c533 943e 9dcf 843d 2972 59bd
00000370: a319 c9be 6a6a 1c3e 61a8 373d ddd5 a53e
00000380: 26a8 063e 0a10 673e c1ab 2f3c 30a1 05be
00000390: a7e7 973d 2f57 d23d fb35 b93d a3fd efbd
000003a0: 77ef ebbd 585e 213e e65a 483e b038 95be
000003b0: edb1 413e 54d5 5a3e c49a 14be 84e0 02bf
000003c0: fafb d33e 7e34 9c3e 8757 9e3d 073b 6ebe
000003d0: f6b9 ebbd eaa8 f23d 4bb4 8ebb 125c 913e
000003e0: 29f7 22be 15bf 42bc fa14 343e 58f3 96be
000003f0: 1d59 d93e 9646 a7bd fd3c c63c cbb2 c13e

bias f4 [32]
-0.06963194 0.029952694 0.08097549 -0.018508777 0.10613965 -0.10953055 -0.116251476 0.029201021
0.03043629 -0.15365985 0.16541635 0.033127874 -0.14279915 -0.008042344 -0.21274267 -0.17497121
0.14420275 -0.2836252 -0.03426716 -0.20622146 -0.025785571 -0.02124844 0.07662794 -0.03496478
-0.09140896 0.07503899 0.13074419 -0.060943253 -0.12964517 -0.03268011 0.06742903 -0.1255632
00000000: 319b 8ebd 5a5f f53c 7ad6 a53d b89f 97bc
00000010: bf5f d93d 8e51 e0bd 4115 eebd fb36 ef3c
00000020: 8755 f93c 0259 1dbe e762 293e 18b1 073d
00000030: f139 12be 09c4 03bc 37d9 59be a72b 33be
00000040: e3a9 133e 5237 91be b95b 0cbd b82b 53be
00000050: 433c d3bc 3511 aebc 1cef 9c3d 3b37 0fbd
00000060: 9f34 bbbd 0bae 993d cee1 053e a29f 79bd
00000070: b4c1 04be 94db 05bd 3b18 8a3d a493 00be

weight f4 [32, 32]
-0.19374579 0.17179696 -0.25970808 -0.055689793 -0.0038269518 0.16814253 -0.036689933 -0.34233856
-0.03206128 0.02995498 -0.49765882 -0.19875726 -0.336102 -0.16509558 0.1011529 -0.17648438
0.054313783 -0.5503595 -0.345339 -0.1245591 -0.1853235 0.13789268 -0.20421071 0.047470972
0.30372855 -0.121795066 0.2532019 -0.24038026 0.15283112 -0.10329484 -0.37433332 0.45357913
-0.06497176 -0.09204702 0.15180211 0.30593896 -0.05438623 0.2630141 0.09385013 0.3218237
-0.41034213 0.21315153 -0.28838035 0.15974034 -0.057365168 -0.00949547 0.06708187 0.12566051
-0.08144675 0.13767405 0.10515474 0.09976508 -0.045338597 0.027918242 -0.22257221 0.16206704
0.069717124 -0.17407438 -0.04789207 -0.036281116 -0.15757549 0.14985912 -0.0059669768 0.008396567
0.12207302 0.04509602 -0.29781157 -0.067657195 0.02891496 -0.06925752 -0.1568446 -0.1422471
0.19666219 -0.15362607 0.14203937 0.09034161 0.33483085 -0.33490872 -0.20140615 0.16278763
-0.3278183 -0.21639352 -0.01526446 0.0922238 0.14770135 -0.044194706 0.06644484 0.038949057
0.13137041 -0.22234371 -0.31674057 0.28764635 -0.17456278 -0.10805392 0.056290712 0.1681811
0.09774035 0.13983308 -0.08311615 0.2403587 -0.15943098 -0.006650194 0.042537004 -0.25392473
0.23488455 0.38858056 -0.21687776 0.38310578 -0.0025369383 0.17979479 -0.072326496 -0.12920578
-0.34113467 0.020179763 0.17980519 -0.17798656 -0.17395784 0.34889665 -0.447024 0.10256534
0.0059164977 -0.047091816 0.3403409 0.020951476 -0.12220126 0.26328814 -0.20369886 0.06842194
-0.00729908 -0.25215894 0.15349464 -0.05756126 -0.26305032 -0.18340577 0.05950077 0.39747947
-0.10169438 -0.095420085 0.018010654 -0.24590257 -0.10294476 -0.12709114 0.5757364 -0.5020039
-0.37292582 0.06441043 0.19314842 -0.019189782 -0.038470857 0.19225974 0.068214156 -0.04200819
-0.15365069 0.5496198 0.0026186649 -0.18212405 -0.36106783 0.065661974 0.06438749 -0.07261103
-0.11820641 -0.08999135 0.18358798 -0.17611004 -0.17390844 0.35461053 0.070201814 0.036564156
-0.0042447094 0.124127194 -0.23146878 0.03972872 -0.2257011 0.18613252 0.07983047 -0.10993133
-0.16917844 0.015146843 0.07259112 -0.048501972 0.10631444 0.208636 0.022071464 -0.066199645
-0.449104 -0.042949405 -0.6016621 0.14481647 -0.3014489 0.014027225 -0.12598933 0.17973553
0.010823439 -0.11500495 -0.1982175 0.15137255 0.1641379 -0.2656446 0.14837876 0.20517555
0.11948982 0.020064175 0.22759378 0.102373 0.09722388 -0.13292362 -0.010004504 0.306054
0.2693131 -0.06730255 0.36528802 -0.29289585 0.10406539 0.3868743 0.12581165 0.18460312
-0.055146128 -0.33104926 -0.0147388615 0.052644275 0.29580638 -0.24422535 -0.03759612 -0.037347768
-0.09829096 -0.20393619 0.016874602 -0.4115247 -0.2927217 -0.054823462 -0.32272032 0.070088014
-0.22343576 0.31249142 0.02981006 0.16288155 -0.3168659 -0.05528944 0.07570929 0.09221988
-0.040800262 -0.17514229 -0.59060097 0.021453314 -0.25857446 -0.55453765 0.38573796 0.08739587
0.064789005 -0.29846138 0.15133467 0.5920436 -0.16844374 0.055929948 0.09618086 -0.03410747
00000000: 4c65 46be 8beb 2f3e 75f8 84be fb1a 64bd
00000010: 99cd 7abb 8e2d 2c3e 2f48 16bd 0047 afbe
00000020: b052 03bd 2564 f53c 23cd febe 0687 4bbe
00000030: 9015 acbe d10e 29be 4029 cf3d 52b8 34be
00000040: 2178 5e3d 5ce4 0cbf 46d0 b0be d718 ffbd
00000050: 72c5 3dbe bd33 0d3e 9d1c 51be ec70 423d
00000060: 4f82 9b3e b16f f9bd aea3 813e 3e26 76be
00000070: c37f 1c3e 3f8c d3bd 9ea8 bfbe 863b e83e
00000080: ea0f 85bd 2683 bcbd 0372 1b3e 08a4 9c3e
00000090: 18c4 5ebd c9a9 863e 7f34 c03d 13c6 a43e
000000a0: 5d18 d2be 6544 5a3e 97a6 93be f992 233e
000000b0: bdf7 6abd e392 1bbc 3862 893d 26ad 003e
000000c0: 8ecd a6bd 6dfa 0c3e 5e5b d73d a251 cc3d
000000d0: f7b4 39bd ccb4 e43c f8e9 63be e7f4 253e
000000e0: dac7 8e3d 8e40 32be 7a2a 44bd 829b 14bd
000000f0: 785b 21be ab74 193e a186 c3bb c191 093c
00000100: 6b01 fa3d 9bb6 383d c27a 98be db8f 8abd
00000110: 11df ec3c e3d6 8dbd df9b 20be 39a9 11be
00000120: d061 493e 2750 1dbe c572 113e 0605 b93d
00000130: f36e ab3e 2879 abbe 6a3d 4ebe cdb1 263e
00000140: cdd7 a7be 4396 5dbe c917 7abc d5df bc3d
00000150: 063f 173e 8205 35bd 3b14 883d 0c89 1f3d
00000160: f785 063e 12ae 63be d22b a2be 6246 933e
00000170: 96c0 32be 604b ddbd 1791 663d ab37 2c3e
00000180: 182c c83d 6730 0f3e cd38 aabd 9720 763e
00000190: e041 23be dfe9 d9bb 483b 2e3d 6c02 82be
000001a0: 9385 703e 08f4 c63e 3415 5ebe 7126 c43e
000001b0: c342 26bb 201c 383e ea1f 94bd 854e 04be
000001c0: 34a9 aebe 0850 a53c da1e 383e 1c42 36be
000001d0: 0122 32be 95a2 b23e 54e0 e4be c70d d23d
000001e0: 2edf c13b 59e3 40bd 2a41 ae3e 6ea2 ab3c
000001f0: a744 fabd b4cd 863e 6f96 50be cd20 8c3d
00000200: 1f2d efbb fa1a 81be b32d 1d3e 5bc5 6bbd
00000210: 88ae 86be b9ce 3bbe 14b7 733d 6e82 cb3e
00000220: 2545 d0bd 9b6b c3bd 148b 933c e2cd 7bbe
00000230: b4d4 d2bd 2e24 02be 7663 133f 5483 00bf
00000240: 22f0 bebe 9ee9 833d b3c8 453e e433 9dbc
00000250: 9e93 1dbd bddf 443e ddb3 8b3d c810 2cbd
00000260: 9b56 1dbe e2b3 0c3f e89d 2b3b ba7e 3abe
00000270: e2dd b8be c979 863d 97dd 833d 17b5 94bd
00000280: 3416 f2bd 634d b8bd 7dfe 3b3e 3156 34be
00000290: 0e15 32be 838f b53e f8c5 8f3d 4cc4 153d
000002a0: 3417 8bbb 6636 fe3d 2706 6dbe 95ba 223d
000002b0: 301e 67be 8699 3e3e 287e a33d ad23 e1bd
000002c0: 1d3d 2dbe 772a 783c a7aa 943d 01aa 46bd
000002d0: 63bb d93d ada4 553e 37cf b43c ae93 87bd
000002e0: f6f0 e5be b7eb 2fbd 8706 1abf c54a 143e
000002f0: 8357 9abe 72d2 653c 5903 01be 970c 383e
00000300: cb54 313c b787 ebbd 87f9 4abe 6801 1b3e
00000310: c413 283e 9202 88be 9af0 173e 8a19 523e
00000320: 14b7 f43d a05d a43c 580e 693e efa8 d13d
00000330: 501d c73d 211d 08be eee9 23bc 1cb3 9c3e
00000340: 68e3 893e ebd5 89bd 0807 bb3e 72f6 95be
00000350: 3c20 d53d 6314 c63e c5d4 003e 9a08 3d3e
00000360: e8e0 61bd 4a7f a9be 447b 71bc 86a1 573d
00000370: ef73 973e 3616 7abe 64fe 19bd f9f9 18bd
00000380: c54c c9bd a6d4 50be 9b3c 8a3c 5eb3 d2be
00000390: 9edf 95be 918e 60bd 993b a5be 4e8a 8f3d
000003a0: 58cc 64be e0fe 9f3e 3a34 f43c 6cca 263e
000003b0: 3f3c a2be 2e77 62bd 790d 9b3d c7dd bc3d
000003c0: 2d1e 27bd 8058 33be a031 17bf dcbe af3c
000003d0: df63 84be 2ef6 0dbf 727f c53e 9bfc b23d
000003e0: 19b0 843d eecf 98be 7af7 1a3e 2b90 173f
000003f0: 847c 2cbe cd16 653d 79fa c43d 46b4 0bbd

bias f4 [32]
-0.07305515 -0.21168284 -0.028415821 0.03853924 -0.20708238 0.04965052 -0.059400816 -0.017946234
-0.19350506 0.10960511 -0.026151143 -0.030696813 0.011513544 -0.13425204 0.05429996 0.13904467
-0.02151878 -0.014290942 0.027629519 -0.039366774 -0.015624875 -0.115136735 -0.20498191 0.04327182
-0.12133817 -0.13338222 -0.04828948 -0.0623057 0.0017774056 -0.15276562 -0.057346452 0.080948174
00000000: f09d 95bd 63c3 58be 4cc8 e8bc 52db 1d3d
00000010: 670d 54be 585e 4b3d 454e 73bd fb03 93bc
00000020: 3126 46be a578 e03d ec3a d6bc e277 fbbc
00000030: 4ea3 3c3c 5e79 09be a369 5e3d ba61 0e3e
00000040: 2748 b0bc 8e24 6abc 4d57 e23c 0e3f 21bd
00000050: 7aff 7fbc cfcc ebbd c7e6 51be cb3d 313d
00000060: 2580 f8bd 5995 08be 31cb 45bd 4334 7fbd
00000070: d6f7 e83a 976e 1cbe 1de4 6abd 28c8 a53d

weight f4 [32, 32]
0.23736362 -0.091398284 0.116674855 -0.07314311 0.048397355 -0.025922325 0.12311644 0.47658694
-0.085065104 -0.14582948 -0.18403468 -0.15068272 -0.19892706 -0.1028719 -0.04885243 0.044783406
-0.06889785 -0.07548603 -0.14875929 0.08740693 0.3065125 -0.29671308 0.05039808 -0.3073305
0.3303676 -0.02043986 -0.05985038 0.039321754 -0.20174664 0.20101061 0.052138325 -0.10174936
0.3230305 0.064236715 -0.17692743 -0.05128862 -0.16108584 -0.051563725 -0.15659872 0.034929845
-0.25115263 -0.24716794 -0.26660457 0.069145955 0.23525111 -0.21787417 -0.38462102 0.24933138
0.27759674 -0.25940764 -0.43546036 0.29761925 -0.0043905647 0.15833475 0.086810604 0.009647312
0.021143727 -0.03702566 0.12621471 -0.021847587 -0.18089432 0.22324498 0.28657714 -0.48946854
-0.07980577 -0.34202498 0.2151921 -0.056642763 0.08247891 -0.057268243 -0.012938376 -0.4113007
0.099750854 -0.1393067 -0.056113213 -0.22242688 -0.04520623 0.17355375 -0.18412048 0.27157342
-0.08064668 -0.24861676 0.5702958 -0.39248785 0.19526856 -0.3627709 -0.05742935 0.041995473
0.01635857 0.12863426 -0.49099517 -0.14859866 -0.49935687 0.16379064 0.041700568 -0.22459148
-0.010329392 0.16821718 0.33050847 -0.11556796 0.03685574 -0.1675956 0.004170605 -0.29057583
0.38475603 0.15795629 0.3127651 0.101736486 0.101757236 0.14597458 0.16438843 0.11728609
0.015339237 0.2419005 -0.25589964 0.20221494 0.043207914 0.17823046 0.2518379 0.24116635
0.02548336 0.16282016 -0.07901484 0.093487404 -0.07864921 0.0014902807 0.017167104 -0.24152437
0.0706524 0.045787625 0.10849494 -0.43906546 0.065442145 -0.13944738 -0.37038112 -0.14155167
0.018931596 -0.08161524 0.35107517 0.020101693 -0.109506615 0.010901116 -0.056959104 -0.12793666
0.24302164 -0.06514699 0.016366174 -0.19419514 0.006455758 0.14327186 0.052366115 -0.29722515
-0.063188866 -0.4038086 -0.20316127 -0.13114758 -0.094897 -0.4618663 0.028053928 0.1683927
0.10398799 -0.053335417 -0.17814781 0.13278385 0.12697822 0.1594677 -0.20967968 0.028341906
0.29030874 -0.54423374 -0.0881759 0.07762755 -0.46422645 -0.15526727 -0.085584655 -0.13408609
0.23704916 -0.16204463 -0.02635906 0.110831104 -0.009108401 -0.121361725 -0.17393634 -0.1993048
-0.019338738 -0.0077765784 0.0102143455 0.07989771 -0.31529185 -0.48419365 0.26860195 0.056217622
-0.08253272 0.17818987 0.35540682 -0.48111677 -0.16838272 -0.07896479 0.43546292 -0.04322316
0.051929515 -0.12564844 0.23929952 -0.09743368 0.09246825 0.1321835 -0.05321796 -0.1589902
-0.3490834 -0.20585842 -0.077746585 0.20024416 0.20917231 0.026257897 -0.04156019 -0.098200254
0.024761215 0.18346 0.21445172 0.18496305 0.3871561 0.17364667 -0.36778888 0.09723994
-0.035942413 -0.094846174 0.24540266 0.064109236 -0.49344587 -0.12640941 -0.15043929 0.2177386
0.11451725 -0.20658594 -0.10952684 0.1462712 -0.10087766 -0.14153388 -0.2576822 -0.094274685
0.11190442 -0.3396201 -0.26833823 -0.08854683 -0.10788469 -0.1142982 0.030090732 0.015455164
0.10292262 -0.07736581 -0.11356635 0.114338815 -0.23972602 0.04738636 0.057754785 -0.24162157
00000000: 730f 733e 062f bbbd 3af3 ee3d 0ecc 95bd
00000010: 4e3c 463d 0e5b d4bc 7924 fc3d 3403 f43e
00000020: 9d36 aebd 5354 15be 9673 3cbe 924c 1abe
00000030: 89b3 4bbe 81ae d2bd 7c19 48bd ce6e 373d
00000040: 511a 8dbd 6b98 9abd 5b54 18be 6802 b33d
00000050: 35ef 9c3e c7ea 97be 386e 4e3d 6c5a 9dbe
00000060: f125 a93e 7e71 a7bc ac25 75bd d90f 213d
00000070: ac96 4ebe bad5 4d3e ff8e 553d f861 d0bd
00000080: 4164 a53e 8a8e 833d 772c 35be 0414 52bd
00000090: b0f3 24be 7c34 53bd 6a5b 20be 9912 0f3d
000000a0: 1497 80be 9819 7dbe 6580 88be 659c 8d3d
000000b0: abe5 703e 681a 5fbe 0ced c4be ba50 7f3e
000000c0: 2921 8e3e 14d1 84be a9f4 debe 8d61 983e
000000d0: bade 8fbb 8122 223e c2c9 b13d c20f 1e3c
000000e0: 9c35 ad3c 38a8 17bd 6e3e 013e b6f9 b2bc
000000f0: 5c3c 39be 559a 643e 3dba 923e 9f9b fabe
00000100: 3571 a3bd e61d afbe 515b 5c3e 3e02 68bd
00000110: b4ea a83d 1b92 6abd 7bfb 53bc 0196 d2be
00000120: 2d4a cc3d 6aa6 0ebe f8d6 65bd dfc3 63be
00000130: 2b2a 39bd 13b8 313e 148a 3cbe ac0b 8b3e
00000140: 162a a5bd 6495 7ebe e8fe 113f 2bf4 c8be
00000150: 7bf4 473e 1bbd b9be 0a3b 6bbd 7203 2c3d
00000160: 6802 863c b3b8 033e b863 fbbe 3f2a 18be
00000170: b4ab ffbe bcb8 273e 37ce 2a3d 4ffb 65be
00000180: 9c3c 29bc 2041 2c3e 6838 a93e e5ae ecbd
00000190: 0bf6 163d 2e9e 2bbe 92a9 883b 5bc6 94be
000001a0: befe c43e 4bbf 213e bf22 a03e 385b d03d
000001b0: 1966 d03d 5c7a 153e 7155 283e b133 f03d
000001c0: 6c51 7b3c c4b4 773e 4705 83be 6f11 4f3e
000001d0: c8fa 303d 0c82 363e e6f0 803e 50f4 763e
000001e0: 7bc2 d03c 54ba 263e 88d2 a1bd 5376 bf3d
000001f0: d612 a1bd 8655 c33a 07a2 8c3c 2a52 77be
00000200: 35b2 903d ce8b 3b3d 9832 de3d 30cd e0be
00000210: 8806 863d 4bcb 0ebe 98a2 bdbe ecf2 10be
00000220: 6f16 9b3c e425 a7bd 20c0 b33e 4eac a43c
00000230: 0145 e0bd 989a 323c f34d 69bd d401 03be
00000240: aada 783e c96b 85bd 5b12 863c 17db 46be
00000250: d38a d33b dcb5 123e da7d 563d e52d 98be
00000260: 2a69 81bd 00c0 cebe 8209 50be 8d4b 06be
00000270: 5c59 c2bd bd79 ecbe 5ad1 e53c 236f 2c3e
00000280: a8f7 d43d 3d76 5abd 616c 36be 7df8 073e
00000290: 9406 023e 804b 233e 45b6 56be 492d e83c
000002a0: 59a3 943e e752 0bbf 9195 b4bd 31fb 9e3d
000002b0: 17af edbe 62fe 1ebe 0247 afbd dd4d 09be
000002c0: 04bd 723e 07ef 25be f5ee d7bc 6bfb e23d
000002d0: 673b 15bc 7f8c f8bd 5e1c 32be 8f16 4cbe
000002e0: 466c 9ebc abd2 febb 125a 273c 69a1 a33d
000002f0: ef6d a1be 3be8 f7be 3286 893e 7344 663d
00000300: ea06 a9bd 6877 363e e2f7 b53e f054 f6be
00000310: 856c 2cbe 4bb8 a1bd fff4 de3e c50a 31bd
00000320: 0bb4 543d fca9 00be ef0a 753e 4f8b c7bd
00000330: fe5f bd3d 1d5b 073e 13fb 59bd 54ce 22be
00000340: 0fbb b2be 8dcc 52be 9a39 9fbd ce0c 4d3e
00000350: 4431 563e cd1a d73c 053b 2abd 371d c9bd
00000360: 08d8 ca3c f0dc 3b3e 3b99 5b3e f466 3d3e
00000370: 5339 c63e 6fd0 313e d34e bcbe bc25 c73d
00000380: 5a38 13bd b63e c2bd d64a 7b3e b44b 833d
00000390: f0a4 fcbe 7871 01be c20c 1abe def6 5e3e
000003a0: 0588 ea3d 448b 53be 9c4f e0bd 1ec8 153e
000003b0: f298 cebd 42ee 10be ecee 83be 1613 c1bd
000003c0: 252e e53d b0e2 adbe a163 89be 0a58 b5bd
000003d0: a6f2 dcbd 2d15 eabd d780 f63c a837 7d3c
000003e0: 18c9 d23d f771 9ebd 7995 e8bd 782a ea3d
000003f0: bd7a 75be 3318 423d 4890 6c3d a56b 77be

bias f4 [32]
0.14547989 -0.097190455 -0.043790188 -0.06849739 -0.014755691 0.022856543 -0.04697318 -0.037009075
0.071678765 0.11564056 -0.02590228 -0.06940552 0.008458403 -0.07184717 -0.061990816 -0.1442623
-0.14204761 -0.029037615 -0.10795252 -0.007140255 -0.025910994 0.16618362 -0.09913739 0.046352673
0.12252917 -0.10940553 -0.13614383 0.1006369 0.007927968 -0.2364457 -0.006147882 -0.06255173
00000000: aef8 143e ca0b c7bd 575d 33bd 5c48 8cbd
00000010: dbc1 71bc a53d bb3c f366 40bd d496 17bd
00000020: 51cc 923d f5d4 ec3d 0531 d4bc 7b24 8ebd
00000030: 1d95 0a3c 9c24 93bd 15ea 7dbd 7fb9 13be
00000040: ee74 11be 4be0 edbc 3616 ddbd cdf8 e9bb
00000050: 4b43 d4bc 0a2c 2a3e 8b08 cbbd 4ddc 3d3d
00000060: 93f0 fa3d 0210 e0bd 4a69 0bbe b81a ce3d
00000070: 4fe4 013c d21e 72be 2c74 c9bb 1f1b 80bd

weight f4 [32, 32]
-0.09516873 0.21191026 0.039559625 0.06451124 -0.17433748 -0.35599676 0.27273402 0.102154754
-0.009050808 -0.064713955 -0.026030067 0.11714088 0.09892675 -0.21035463 0.0005820534 0.2991566
-0.052084446 -0.3741449 -0.2608823 0.023712851 -0.36814418 -0.36779526 0.14176136 -0.11545279
0.02394075 -0.022928882 0.26186782 -0.059373442 -0.07704078 0.45279422 -0.08881157 -0.014893378
-0.16942313 -0.2504854 -0.19139151 0.026644986 -0.085644394 0.103523955 -0.05826658 -0.3567877
0.19005218 0.14381132 -0.23029965 0.003582146 -0.13498867 -0.2317689 0.065472074 -0.35042483
0.00025152072 -0.128973 -0.1396546 0.377277 0.017309016 0.35824233 -0.36089557 -0.30745038
0.037036654 -0.0014732665 0.010732277 -0.23720297 0.12304444 0.08288314 -0.14674267 0.096397996
-0.09008629 0.004248061 -0.57699645 -0.37211466 -0.2750643 0.6422902 -0.20283623 -0.22450458
0.43370292 -0.2664115 0.07845213 -0.10507771 -0.06851264 0.029788831 -0.082294114 0.27969152
-0.47585285 0.17907515 0.17655125 0.25036976 0.180738 -0.19347924 0.06813033 0.08019304
0.35286948 0.032653462 0.27823007 0.11414862 -0.122728825 -0.12714207 0.011616852 -0.23990816
0.1493314 0.11433767 0.1564549 0.18867497 -0.36308336 0.099062294 -0.18154457 -0.098045245
-0.33888257 -0.43259045 -0.15896146 -0.09489261 0.23178935 0.1774554 -0.40636823 0.10323386
-0.25268838 -0.13742724 0.22904877 -0.14663404 -0.3471413 -0.1215312 0.087534994 0.08890198
-0.071631014 -0.26158503 -0.019366147 -0.31709713 0.09476577 -0.1531952 -0.16450548 0.20039481
-0.46455887 0.37338227 -0.020478724 0.051886402 0.14717557 -0.065348186 0.22790743 -0.16550684
0.19133812 -0.007937047 -0.029016178 -0.1631141 -0.12862052 0.11123878 -0.07761926 0.22305116
0.09043795 -0.39636078 0.0152892405 0.13852695 0.25394142 -0.14521575 0.062305927 0.34840912
0.10519997 0.07284645 0.6656423 0.04248152 0.32080004 -0.07681588 -0.08694716 -0.17116772
-0.0018021476 0.008201392 0.17215747 -0.5222809 0.46132463 0.10661209 0.22873004 -0.10445326
0.21985038 0.13749595 0.08411455 -0.027337566 0.34969872 0.012742381 -0.08924739 -0.13933368
0.034015886 -0.33057606 -0.12734307 -0.072708756 -0.5897194 0.15037534 0.10416953 -0.28607053
-0.1572136 0.21645886 -0.32616243 -0.3858845 0.12011648 -0.022095768 0.24800174 0.032633997
-0.0803556 0.24723935 0.16261002 -0.0461374 -0.01268312 -0.2889978 -0.27271634 0.0043154466
0.108871095 -0.21471968 -0.06996092 -0.044059716 0.10397447 -0.15710224 0.112566054 0.121778995
0.29158577 -0.1547655 -0.19221845 0.08036898 0.0064196605 -0.009249673 -0.17767262 -0.3378129
-0.12390052 0.007591668 0.21439108 -0.07571044 0.07217726 -0.025364667 0.14512458 0.27248242
0.16122659 -0.10353038 -0.31822565 -0.061886556 -0.1571174 0.26229635 -0.10554305 -0.1068113
-0.101656176 -0.42767316 -0.30157128 -0.0067604925 -0.016991328 -0.1813317 0.031879604 -0.10582388
-0.38752598 0.25785753 -0.03620422 0.05162204 -0.071372695 -0.113858365 -0.0023976667 0.06320871
-0.005998136 -0.23670088 0.15939939 -0.29469553 -0.10915215 0.087247275 0.2019526 -0.06569744
00000000: d3e7 c2bd 01ff 583e 4609 223d 781e 843d
00000010: 8685 32be 3545 b6be cba3 8b3e 8336 d13d
00000020: d749 14bc c088 84bd 023d d5bc 8fe7 ef3d
00000030: 1c9a ca3d 3467 57be f194 183a 0e2b 993e
00000040: 8056 55bd ec8f bfbe 5d92 85be 7441 c23c
00000050: 657d bcbe a94f bcbe e429 113e 8372 ecbd
00000060: 641f c43c 5ad5 bbbc 8a13 863e 9131 73bd
00000070: 8ec7 9dbd a5d4 e73e d7e2 b5bd 5b03 74bc
00000080: 427d 2dbe 9f3f 80be 23fc 43be 9646 da3c
00000090: 5466 afbd 5e04 d43d f0a8 6ebd e1ac b6be
000000a0: 0a9d 423e 4643 133e acd3 6bbe 70c2 6a3b
000000b0: 783a 0abe d454 6dbe 3916 863d e26a b3be
000000c0: 8ade 8339 8011 04be 9e01 0fbe 732a c13e
000000d0: a3cb 8d3c 8a6b b73e 4ec7 b8be 236a 9dbe
000000e0: bfb3 173d 9f1a c1ba 6fd6 2f3c 56e5 72be
000000f0: b9fe fb3d a3be a93d b643 16be 506c c53d
00000100: 297f b8bd 5233 8b3b 0ab6 13bf d085 bebe
00000110: 3ad5 8cbe 216d 243f 4db4 4fbe 87e4 65be
00000120: 4f0e de3e 1767 88be 83ab a03d fb32 d7bd
00000130: 5b50 8cbd b507 f43c d189 a8bd ba33 8f3e
00000140: fca2 f3be 7a5f 373e dac9 343e 7730 803e
00000150: 6213 393e 6c1f 46be ea87 8b3d 403c a43d
00000160: 4fab b43e a3bf 053d 2c74 8e3e c0c6 e93d
00000170: 4059 fbbd 8831 02be 9c54 3e3c 7caa 75be
00000180: 55ea 183e de29 ea3d b735 203e 0334 413e
00000190: 10e6 b9be 2ce1 ca3d d2e6 39be f2cb c8bd
000001a0: 0482 adbe 7f7c ddbe cbc6 22be 0f57 c2bd
000001b0: 305a 6d3e deb6 353e 7f0f d0be 466c d33d
000001c0: 5f60 81be bab9 0cbe c38b 6a3e 3c27 16be
000001d0: 81bc b1be 5ae5 f8bd 8c45 b33d 3e12 b63d
000001e0: 48b3 92bd 79ee 85be c1a5 9ebc 8e5a a2be
000001f0: 8e14 c23d 34df 1cbe 2074 28be 4c34 4d3e
00000200: a9da edbe f62b bf3e ffc2 a7bc d686 543d
00000210: 31b5 163e 45d5 85bd 9160 693e a07a 29be
00000220: 24ee 433e 630a 02bc 56b3 edbc 6207 27be
00000230: 19b5 03be 28d1 e33d d9f6 9ebd 8667 643e
00000240: 8837 b93d cdef cabe b97f 7a3c 02da 0d3e
00000250: 9c04 823e 70b3 14be 8034 7f3d ae62 b23e
00000260: 1573 d73d 8530 953d 8967 2a3f 1a01 2e3d
00000270: e73f a43e a551 9dbd 5a11 b2bd 9746 2fbe
00000280: 0a36 ecba 225f 063c 0c4a 303e 33b4 05bf
00000290: be32 ec3e 7057 da3d 3538 6a3e 97eb d5bd
000002a0: 7520 613e bdcb 0c3e 4044 ac3d 08f3 dfbc
000002b0: b60b b33e 6bc5 503c 56c7 b6bd 7dad 0ebe
000002c0: 3e54 0b3d 4441 a9be 3966 02be 54e8 94bd
000002d0: daf7 16bf fefb 193e d656 d53d d677 92be
000002e0: 9afc 20be 64a7 5d3e c3fe a6be a792 c5be
000002f0: a1ff f53d 2f02 b5bc 2bf4 7d3e 3aab 053d
00000300: 7a91 a4bd 502c 7d3e 3e83 263e 92fa 3cbd
00000310: dccc 4fbc 85f7 93be 7aa1 8bbe 9768 8d3b
00000320: cff7 de3d 7adf 5bbe ac47 8fbd f677 34bd
00000330: 91f0 d43d 69df 20be 0889 e63d 4467 f93d
00000340: bb4a 953e d97a 1ebe ead4 44be 7e98 a43d
00000350: 045c d23b f18b 17bc d0ef 35be d0f5 acbe
00000360: 8ebf fdbd 87c3 f83b 5689 5b3e 130e 9bbd
00000370: acd1 933d 90c9 cfbc 8a9b 143e d182 8b3e
00000380: 9518 253e bc07 d4bd 79ee a2be c27c 7dbd
00000390: 62e3 20be b54b 863e f426 d8bd e2bf dabd
000003a0: 1d31 d0bd faf7 dabe 8d67 9abe 1f87 ddbb
000003b0: 6631 8bbc 04af 39be 3094 023d 31ba d8bd
000003c0: ce69 c6be e705 843e e04a 14bd a271 533d
000003d0: d92b 92bd 932e e9bd 2c22 1dbb 9173 813d
000003e0: 038c c4bb b761 72be 9839 233e 55e2 96be
000003f0: 2a8b dfbd b3ae b23d aacc 4e3e 618c 86bd

bias f4 [32]
0.015367884 -0.07808331 -0.13757803 0.03170497 -0.24552609 -0.06434209 -0.0051812315 0.010985046
-0.019516388 0.06259032 -0.32070827 0.071127936 -0.09415729 -0.04639762 -0.15501326 -0.1702709
-0.104378715 0.042319838 -0.1656129 -0.15975237 0.004037479 -0.072019234 -0.36783785 -0.037192725
0.03533548 0.056452468 -0.01135062 0.04767757 -0.016972896 0.20768015 -0.048785497 0.15199752
00000000: 94c9 7b3c 24ea 9fbd 41e1 0cbe 12dd 013d
00000010: 316b 7bbe c9c5 83bd 52c7 a9bb 9ffa 333c
00000020: d5e0 9fbc 5b2f 803d e033 a4be 86ab 913d
00000030: 8ad5 c0bd 6e0b 3ebd ccbb 1ebe 7f5b 2ebe
00000040: 82c4 d5bd 9157 2d3d 6e96 29be 2096 23be
00000050: d44c 843b d27e 93bd 3e55 bcbe 6657 18bd
00000060: f0bb 103d b43a 673d f3f7 39bc 8e49 433d
00000070: be0a 8bbc 1baa 543e 4dd3 47bd 3da5 1b3e
