Models/model-A-7.pt (torch, 25051 bytes, 5 tensors)

weight f4 [32, 86]
0.015228346 -0.049565718 -0.010965676 0.22674723 -0.07944867 -0.06570712 0.08762311 -0.30173245
-0.2756873 0.052217107 -0.15877032 0.19880866 -0.04286766 0.02063532 -0.24689728 0.12102432
0.12681954 -0.08560874 0.19488616 -0.026669595 -0.03717531 -0.0019207712 -0.3807888 0.04406377
0.0043140324 0.081754416 -0.29708984 0.2909958 0.3176786 -0.01390616 -0.067658566 -0.058097847
0.20471929 -0.0060858433 0.011845134 0.11564395 -0.047199864 -0.16566105 0.21891789 -0.11091057
0.16109829 0.05589636 -0.02052261 -0.03869637 -0.17884018 0.27490404 0.07541983 0.01681441
0.06596364 0.20215484 -0.033313617 -0.12265466 -0.26932654 -0.14777663 -0.075373776 -0.091920525
-0.016021285 -0.011445785 0.09910516 -0.07875282 -0.1762232 0.10173231 0.07241649 -0.023250148
0.1872579 -0.026544498 -0.08252606 -0.17016594 -0.0642716 0.018214278 0.086074 0.12307046
-0.051687494 0.06156691 0.07338396 -0.06234479 0.29857108 0.14298022 -0.027363047 0.026912447
-0.15279819 0.018214803 0.10017812 -0.35477307 0.16824122 0.25469333 0.1554273 -0.07048343
0.15659642 0.2593887 -0.23831259 -0.20767722 0.060980845 -0.07143305 0.122951016 -0.02775809
0.023688368 0.38731536 -0.046745025 0.12693913 -0.081924096 0.108904436 0.11921191 0.20450126
0.008813615 -0.012390742 0.03373568 -0.14995553 -0.037884004 0.025907362 0.2732608 0.028108323
-0.09010307 0.091151275 0.19010174 -0.19436458 0.009951187 0.02984315 -0.18307596 0.07901815
0.072522424 -0.052741665 -0.20456403 0.25903425 -0.12143005 0.04238692 0.30726844 0.2788857
-0.16475384 0.008446281 0.21025415 0.3231826 0.066298366 -0.017352263 -0.12732492 0.14031678
-0.13827658 -0.122624926 0.122081876 -0.2286041 -0.23196386 0.18755104 0.112138756 -0.054453164
0.0734996 0.07933987 -0.2678646 0.20088378 -0.047334954 -0.113587946 -0.07128871 0.009366699
-0.25605744 -0.20621516 -0.1964857 -0.1830801 0.08068917 -0.14702612 -0.3291881 0.03753371
-0.008944951 -0.23428702 0.08505608 -0.09703484 0.0044559757 0.05751705 0.2135441 0.013900163
0.09821529 -0.2643217 -0.11564054 0.4087872 0.03588086 -0.015093279 -0.18644747 0.28502935
-0.07033798 -0.10115075 -0.13006493 -0.021561809 0.17226511 -0.026819624 -0.013206622 -0.07903079
-0.26774958 -0.2428936 0.17560965 -0.23860677 0.0041591697 -0.36832616 -0.5721056 0.13907818
-0.054526545 -0.06373696 0.07106976 0.20443194 0.009100861 -0.15239646 -0.16694118 0.08190548
-0.18205225 -0.20527755 0.030815963 -0.2899609 0.2582612 0.00858831 -0.1849223 0.06336297
-0.0706543 0.23945306 0.36778715 -0.07852152 -0.19667529 -0.21909703 -0.0676235 0.21811794
0.12911242 -0.095041655 -0.11574782 0.07324006 -0.12614389 -0.42808303 -0.23118368 0.24042813
0.07277719 -0.1182527 -0.11696231 -0.047872283 -0.0031272862 0.264255 0.19819431 0.030145843
-0.21929473 0.010217492 -0.025660487 -0.27398235 0.19911078 -0.08773498 -0.05818423 -0.033079673
-0.2753618 0.04051249 0.059434928 -0.17217304 0.19158123 -0.14742674 -0.038865518 -0.2365594
-0.1320189 0.21765889 -0.06233338 0.02248806 -0.051670484 0.16537738 -0.13760623 0.16838543
00000000: 5080 793c 6c05 4bbd 61a9 33bc 6d30 683e
00000010: fcb5 a2bd 7491 86bd bf73 b33d ad7c 9abe
00000020: e326 8dbe 9be1 553d b094 22be 7f94 4b3e
00000030: 0096 2fbd 670b a93c a4d2 7cbe 99db f73d
00000040: fbdc 013e a353 afbd 3d90 473e 327a dabc
00000050: 2345 18bd 63c2 fbba c0f6 c2be 367c 343d
00000060: ba5c 8d3b dc6e a73d 291c 98be 67fd 943e
00000070: c5a6 a23e aad6 63bc 9390 8abd 02f8 6dbd
00000080: efa1 513e c16b c7bb 1812 423c bcd6 ec3d
00000090: a554 41bd 0da3 29be 032c 603e 1525 e3bd
000000a0: f3f6 243e 95f3 643d 081f a8bc 1680 1ebd
000000b0: e121 37be 39c0 8c3e b675 9a3d 60be 893c
000000c0: f217 873d ae01 4f3e dc73 08bd 5e32 fbbd
000000d0: 2be5 89be c252 17be 915d 9abd d440 bcbd
000000e0: 123f 83bc 1a87 3bbc a5f7 ca3d 2949 a1bd
000000f0: db73 34be 0859 d03d 194f 943d 1877 bebc
00000100: 89c0 3f3e d973 d9bc 6c03 a9bd fb3f 2ebe
00000110: d4a0 83bd 1c36 953c 9147 b03d 5e0c fc3d
00000120: 44b6 53bd 962d 7c3d 544a 963d 405d 7fbd
00000130: 4fde 983e 6869 123e 7828 e0bc 7e77 dc3c
00000140: 2177 1cbe 3637 953c 302a cd3d d1a4 b5be
00000150: 6d47 2c3e 2a67 823e 5628 1f3e 9e59 90bd
00000160: d05a 203e 98ce 843e 3708 74be 56a9 54be
00000170: 0dc7 793d 7e4b 92bd becd fb3d ef64 e3bc
00000180: 1c0e c23c 334e c63e b677 3fbd 55fc 013e
00000190: d2c7 a7bd 4a09 df3d 6025 f43d c768 513e
000001a0: fb66 103c 8a02 4bbc 6d2e 0a3d f18d 19be
000001b0: 422c 1bbd ad3b d43c d7e8 8b3e 6d43 e63c
000001c0: f587 b8bd 85ad ba3d 08aa 423e 8207 47be
000001d0: 4e0a 233c 9f79 f43c 4478 3bbe 45d4 a13d
000001e0: a386 943d a507 58bd 3c79 51be 23a0 843e
000001f0: 51b0 f8bd e89d 2d3d 4a52 9d3e 1bca 8e3e
00000200: 3bb5 28be 4562 0a3c dd4c 573e 3178 a53e
00000210: 70c7 873d 5526 8ebc 7761 02be 34af 0f3e
00000220: 6098 0dbe c722 fbbd 1006 fa3d 3117 6abe
00000230: ef87 6dbe 610d 403e 01a9 e53d 480a 5fbd
00000240: f586 963d f17c a23d 8d25 89be 7ab4 4d3e
00000250: 4ce2 41bd cca0 e8bd d1ff 91bd c876 193c
00000260: f619 83be 112a 53be 8c33 49be 5a79 3bbe
00000270: 5d40 a53d 048e 16be 588b a8be f3bc 193d
00000280: d88d 12bc f0e8 6fbe e231 ae3d 34ba c6bd
00000290: 6f03 923b 0097 6b3d 4eab 5a3e 82bd 633c
000002a0: 1925 c93d 2d55 87be f3d4 ecbd 8e4c d13e
000002b0: cff7 123d cd49 77bc 16ec 3ebe 5eef 913e
000002c0: 5c0d 90bd 2028 cfbd be2f 05be 64a2 b0bc
000002d0: 4466 303e d4b4 dbbc 9660 58bc e5da a1bd
000002e0: 7916 89be 1ab9 78be 04d3 333e 5555 74be
000002f0: a549 883b 3f95 bcbe 8375 12bf 836a 0e3e
00000300: 3a57 5fbd 8688 82bd 068d 913d 9b56 513e
00000310: c71b 153c d10d 1cbe a1f2 2abe 0fbe a73d
00000320: e86b 3abe 4734 52be c271 fc3c c175 94be
00000330: d03a 843e fcb5 0c3c 455c 3dbe 72c4 813d
00000340: 34b3 90bd 2f33 753e 994e bc3e e4cf a0bd
00000350: 3f65 49be f95a 60be 317e 8abd 4f5a 5f3e
00000360: 0c36 043e 33a5 c2bd 310d edbd e2fe 953d
00000370: dd2b 01be b32d dbbe 6abb 6cbe cb32 763e
00000380: 350c 953d 792e f2bd f089 efbd ba15 44bd
00000390: 28f3 4cbb 6e4c 873e 73f3 4a3e 6af4 f63c
000003a0: cc8e 60be 4467 273c f135 d2bc 6a47 8cbe
000003b0: b2e3 4b3e 66ae b3bd 9652 6ebd 8d7e 07bd
000003c0: 39fc 8cbe 6df0 253d 0a72 733d 214e 30be
000003d0: df2d 443e 09f7 16be 7331 1fbd a13c 72be
000003e0: f62f 07be f9e1 5e3e 4951 7fbd e138 b83c
000003f0: 6ea4 53bd b058 293e a6e8 0cbe 3b6d 2c3e

bias f4 [32]
0.06671024 0.00591443 -0.042433087 -0.0609006 -0.08583789 -0.08591079 0.119536854 -0.009161562
0.006170988 -0.0037881972 -0.05296939 0.0032849172 -0.021804903 0.09769024 -0.05274384 0.01251923
-0.04298374 0.04906936 -0.071204156 -0.12626575 0.02682417 -0.0365724 0.03258605 0.008025307
-0.06621445 -0.110562384 0.105461635 0.062555574 0.06498884 -0.0122940615 -0.08162233 -0.093436904
00000000: 619f 883d d6cd c13b 51ce 2dbd e872 79bd
00000010: c7cb afbd fff1 afbd bdcf f43d 601a 16bc
00000020: 0036 ca3b 6743 78bb 6ef6 58bd c447 573b
00000030: 32a0 b2bc d211 c83d ed09 58bd 751d 4d3c
00000040: b80f 30bd f4fc 483d 7cd3 91bd cf4b 01be
00000050: 5dbe db3c f1cc 15bd f378 053d 947c 033c
00000060: 719b 87bd 886e e2bd 45fc d73d 231d 803d
00000070: de18 853d 086d 49bc 9c29 a7bd d95b bfbd

weight f4 [32, 32]
0.09233553 -0.06281393 0.033847198 0.11367306 0.036020037 0.013847699 -0.22202002 -0.24363753
-0.08009294 -0.095583804 0.14450383 -0.0886797 -0.6214714 0.18232846 -0.011511315 0.06750823
-0.11415351 0.17837828 -0.40650785 -0.1923268 0.012346699 -0.28213686 0.38879067 0.2006706
-0.039378818 -0.20507146 0.030492026 0.09455261 -0.33604723 0.0129304705 -0.38020167 -0.25042796
-0.015525022 -0.11267223 0.3365796 -0.20043461 -0.20690592 -0.22803591 -0.05788421 0.10520894
-0.23036933 0.13631889 0.006570316 0.0014981547 0.103280514 -0.20626318 -0.68226266 0.09723339
-0.15060252 0.2307838 -0.040412568 0.0990263 -0.17232056 -0.19498906 0.1843944 -0.34850615
-0.19648966 0.25695935 -0.4557834 -0.06847374 -0.21375532 -0.036176547 -0.18103506 -0.06459235
-0.00664025 -0.07406296 -0.19115397 0.21143383 -0.108864576 -0.29366222 0.45481107 -0.2992088
-0.023199746 0.49233246 -0.039720654 0.14615142 -0.2557483 0.22857103 -0.26182076 0.2081597
-0.05042912 0.26050657 0.2709043 -0.6908998 -0.0074508935 0.09900001 0.15733545 -0.035572506
-0.6091019 0.27773386 -0.42884037 0.23030601 0.24620374 0.04889207 -0.1878551 0.4426205
-0.03715338 -0.28755122 0.0892296 -0.26547766 0.42345387 0.2670566 0.23035738 -0.048534624
-0.016677983 0.48449072 0.12903327 0.14544207 -0.0857875 0.51142496 -0.065798685 -0.057046454
0.18373595 -0.003501899 -0.21352902 0.09782025 0.5353952 -0.1350423 -0.46055716 0.04172003
0.25487497 0.033882782 -0.033524044 -0.26146773 -0.24227785 -0.010390306 0.09078044 -0.2539857
0.27194867 -0.1621423 0.55069107 0.35175124 0.024383502 0.20216161 -0.4506637 -0.27876845
0.13128807 -0.34802306 0.40654337 0.078103706 0.23189332 -0.33111155 -0.25219616 0.26786256
-0.07347616 0.32502523 -0.044210717 0.08655905 -0.13125369 0.11773509 0.1839183 0.12310382
0.22742523 0.16009218 -0.18335277 -0.39463028 -0.28848734 0.12052131 0.0787566 0.16130506
0.08746492 -0.034447063 -0.104067296 0.09646762 0.08470646 0.09070591 0.25490716 0.47852674
0.11745407 -0.2071392 0.15970556 -0.09124373 -0.30333975 -0.10658178 0.19520578 0.0012932551
0.5751403 0.12014159 0.20377764 0.15607525 -0.13105981 -0.27141544 -0.05447684 0.4594676
0.26136896 -0.041211583 -0.057421714 0.23605683 0.100397356 0.108308904 -0.09512716 0.48815864
0.06662897 0.08498814 -0.033446636 0.1683046 0.120391846 -0.13561985 0.32122096 -0.07152447
-0.27187786 -0.26931128 0.32207912 0.18057063 -0.22224057 -0.3045756 0.33990976 0.1296097
-0.30725944 -0.02002127 -0.55648786 0.10536197 0.067443304 -0.1985673 0.040242612 0.046646327
0.103966646 0.16929263 -0.025863659 -0.09737057 -0.29588357 0.24419166 0.031002792 0.030035378
0.07534262 0.07315327 0.22239359 0.32159516 -0.081982404 0.2836526 -0.2354777 -0.30024242
0.1830674 -0.11872301 -0.15478426 0.090961136 -0.66606724 0.29678395 -0.15979603 0.12476614
0.13771257 -0.1145383 -0.1628484 -0.537518 0.05754234 0.22415245 0.23103385 0.038911372
-0.24147955 -0.28629637 -0.08416239 0.30728906 -0.1734169 0.32950476 0.1405633 0.14371608
00000000: 691a bd3d 97a4 80bd 5ca3 0a3d 6ccd e83d
00000010: bf89 133d 76e1 623c 3759 63be 1e7c 79be
00000020: c407 a4bd 71c1 c3bd d0f8 133e b49d b5bd
00000030: c018 1fbf 50b4 3a3e f499 3cbc c141 8a3d
00000040: 51c9 e9bd cca8 363e cc21 d0be 51f1 44be
00000050: cf49 4a3c 3e74 90be 920f c73e 987c 4d3e
00000060: af4b 21bd 41fe 51be 6aca f93c cca4 c13d
00000070: 620e acbe 53da 533c cba9 c2be 1838 80be
00000080: a95c 7ebc b3c0 e6bd 2954 ac3e bb3e 4dbe
00000090: 25df 53be 3f82 69be fe17 6dbd c977 d73d
000000a0: f0e5 6bbe 2e97 0b3e ce4b d73b bb5d c43a
000000b0: bc84 d33d a836 53be c4a8 2ebf 4d22 c73d
000000c0: 8c37 1abe 9752 6c3e a687 25bd 4dce ca3d
000000d0: cd74 30be 36ab 47be e3d1 3c3e 666f b2be
000000e0: 9634 49be 2d90 833e 715c e9be f63b 8cbd
000000f0: ade2 5abe dc2d 14bd 4161 39be fe48 84bd
00000100: 7496 d9bb 52ae 97bd debd 43be 1c82 583e
00000110: 64f4 debd e55a 96be ffdc e83e e531 99be
00000120: 650d bebc 0013 fc3e 20b2 22bd b8a8 153e
00000130: 71f1 82be 860e 6a3e 5f0d 86be d127 553e
00000140: c48e 4ebd 1e61 853e f8b3 8a3e cfde 30bf
00000150: a026 f4bb 84c0 ca3d 8b1c 213e 7ab4 11bd
00000160: 1aee 1bbf 2233 8e3e f790 dbbe 57d5 6b3e
00000170: d51c 7c3e 0d43 483d 165d 40be 279f e23e
00000180: 252e 18bd ea39 93be 02be b63d b0ec 87be
00000190: f2ce d83e a5bb 883e cee2 6b3e 3ecc 46bd
000001a0: 44a0 88bc 2b0f f83e 4c21 043e c4ee 143e
000001b0: 5bb1 afbd bfec 023f 76c1 86bd 8ba9 69bd
000001c0: 4725 3c3e 1e80 65bb 5aa7 5abe fc55 c83d
000001d0: a90f 093f 8748 0abe 26ce ebbe 9fe2 2a3d
000001e0: f97e 823e acc8 0a3d 8250 09bd 19df 85be
000001f0: af17 78be 1a3c 2abc 18eb b93d 6a0a 82be
00000200: db3c 8b3e a208 26be 17fa 0c3f bd18 b43e
00000210: e9bf c73c 7403 4f3e 64bd e6be bdba 8ebe
00000220: 6170 063e 1430 b2be 7426 d03e d6f4 9f3d
00000230: 7175 6d3e 7487 a9be db1f 81be 4825 893e
00000240: ab7a 96bd b569 a63e 4c16 35bd df45 b13d
00000250: 5e67 06be 181f f13d 1455 3c3e db1d fc3d
00000260: 29e2 683e 34ef 233e d4c0 3bbe fb0c cabe
00000270: 9db4 93be e0d3 f63d 244b a13d 272d 253e
00000280: cf20 b33d 5d18 0dbd 3c21 d5bd d190 c53d
00000290: 957a ad3d 05c4 b93d 3183 823e 7501 f53e
000002a0: c28b f03d 4c1c 54be db89 233e fedd babd
000002b0: 594f 9bbe 8c47 dabd 06e4 473e 7182 a93a
000002c0: 653c 133f cb0c f63d 16ab 503e 31d2 1f3e
000002d0: 8b34 06be f7f6 8abe 1b23 5fbd 563f eb3e
000002e0: 27d2 853e 7acd 28bd 0833 6bbd e2b8 713e
000002f0: 219d cd3d 0fd1 dd3d 07d2 c2bd eeef f93e
00000300: c574 883d 430e ae3d 57ff 08bd 0b58 2c3e
00000310: 0090 f63d eedf 0abe 1377 a43e 6c7b 92bd
00000320: 9333 8bbe 2be3 89be 8ee7 a43e 82e7 383e
00000330: 0893 63be 55f1 9bbe a708 ae3e 68b8 043e
00000340: 1c51 9dbe a503 a4bc fd75 0ebf 04c8 d73d
00000350: b71f 8a3d 3a55 4bbe 70d5 243d 3810 3f3d
00000360: 77ec d43d 0c5b 2d3e 06e0 d3bc 396a c7bd
00000370: 0d7e 97be 610d 7a3e 91f9 fd3c c10c f63c
00000380: 3b4d 9a3d 62d1 953d 25bb 633e 1fa8 a43e
00000390: 64e6 a7bd ea3a 913e 1121 71be 60b9 99be
000003a0: 0576 3b3e 0d25 f3bd c47f 1ebe d549 ba3d
000003b0: 6283 2abf 11f4 973e 92a1 23be 6485 ff3d
000003c0: 8604 0d3e 0e93 eabd bbc1 26be c89a 09bf
000003d0: 84b1 6b3d 3888 653e 2394 6c3e 8861 1f3d
000003e0: 6a46 77be 7095 92be 555d acbd fe54 9d3e
000003f0: 3394 31be d9b4 a83e d3ef 0f3e 4f2a 133e

bias f4 [32]
-0.11141433 -0.18389821 -0.12856124 0.113697946 -0.151316 -0.056370553 -0.12998205 -0.006023714
0.005244586 0.00070633355 0.051359612 -0.068038724 -0.089346886 -0.0216571 0.10326324 0.21290754
0.1984486 0.053229697 -0.14898129 -0.1401413 -0.09297691 -0.004052206 0.023405341 -0.050256718
0.007047255 -0.0076626902 0.078120135 0.056810174 -0.15556037 -0.014252349 -0.07170164 0.110950485
00000000: 322d e4bd d04f 3cbe 8fa5 03be 78da e83d
00000010: 95f2 1abe cfe4 66bd 041a 05be 9362 c5bb
00000020: c7da ab3b 3e29 393a 755e 523d e357 8bbd
00000030: 80fb b6bd 3b6a b1bc ad7b d33d 6f04 5a3e
00000040: 1c36 4b3e 6207 5a3d 8d8e 18be 3381 0fbe
00000050: ae6a bebd 5ec8 84bb 8fbc bf3c fdd9 4dbd
00000060: a9ec e63b 4e17 fbbb 73fd 9f3d c9b1 683d
00000070: 384b 1fbe af82 69bc 4fd8 92bd 023a e33d

weight f4 [1, 32]
-0.018123565 0.06812184 -0.05471115 0.09436752 -0.3560707 -0.24602993 0.0087134885 -0.059189145
0.075833164 -0.11842202 0.26227337 0.01473416 -0.013618902 0.07929323 -0.16169009 0.23579396
0.11837705 -0.021928791 -0.12810406 -0.09141974 -0.009264636 -0.14477447 -0.05756927 -0.015037536
0.68160003 0.34387395 0.077797964 -0.07788713 0.26686597 0.0076474543 -0.16249771 0.23762493
00000000: df77 94bc 7783 8b3d cc18 60bd c243 c13d
00000010: e64e b6be 45ef 7bbe 05c3 0e3c 5170 72bd
00000020: 6b4e 9b3d 3e87 f2bd b248 863e 8c67 713c
00000030: d121 5fbc 7d64 a23d 1692 25be f973 713e
00000040: ab6f f23d 02a4 b3bc b62d 03be 463a bbbd
00000050: b3ca 17bc c23f 14be c1cd 6bbd ff5f 76bc
00000060: 577d 2e3f 3f10 b03e 8a54 9f3d 4a83 9fbd
00000070: a8a2 883e 7f97 fa3b cd65 26be f353 733e
