Models/model-A-1.pt (torch, 24951 bytes, 5 tensors)

weight f4 [32, 86]
000000 5f 4e 17 be 5b 65 39 3e d4 6e 93 be 06 13 af bd
       -0.1477599 0.1810507 -0.28795493 -0.0854855
000010 5a 78 19 bd b6 ab 47 3d b3 55 1c 3e 4f 20 3e 3e
       -0.03746829 0.04874774 0.15267067 0.18567012
000020 6b 77 5b bc bb e5 46 bd 4f 1b 9f 3d 93 9f 0f bf
       -0.013395171 -0.04855893 0.077688806 -0.56102866
000030 5f 7a a8 3e 14 c1 18 3e 00 23 74 3e 60 2a 12 be
       0.32905862 0.14917403 0.23841476 -0.14273977
000040 0b 97 72 3e 68 63 3d 3d b9 22 f0 bd 87 11 a9 bc
       0.23690431 0.04623738 -0.11725373 -0.02063824
000050 bf d0 a3 bd ad 37 6a bc e0 e4 07 3e ff 2e 3a bb
       -0.079987995 -0.014295501 0.13270903 -0.002840936
000060 5e 95 30 be a3 40 3c bc 23 5a 18 3e 8e c4 a9 3d
       -0.17244479 -0.01149002 0.14878134 0.08289443
000070 53 5a 65 3d 98 f7 9f be 47 86 c3 bd f2 fd fb 3c
       0.055994343 -0.31243587 -0.09547096 0.030760739
000080 6b be 14 3d 76 f0 36 be e8 0c 06 be f7 56 e2 bd
       0.03631441 -0.17865166 -0.13090861 -0.110517435
000090 bc f3 e0 3d de 1b af 3a cb 75 7b bd 47 42 44 3e
       0.10983989 0.0013359745 -0.061391633 0.19165908
0000a0 89 d2 64 3c 9e 85 62 3c cf 04 93 bc ef bc 9e 3d
       0.013966211 0.013825802 -0.017946629 0.0775088
0000b0 32 96 e0 3d 60 b1 cb bd 0c da 29 3e aa 2d db 3d
       0.109661475 -0.09945941 0.16587085 0.10702069
0000c0 b1 ad bf be b5 13 c5 bd 40 af 70 bd ce b7 a0 bd
       -0.37437204 -0.096228994 -0.05876088 -0.07847558
0000d0 21 64 26 3d 2c 53 0d 3e 80 00 7a 3d b0 95 38 bd
       0.040622834 0.13801259 0.061035633 -0.045064628
0000e0 35 4b b8 3d 34 59 10 3e 9d 96 87 3e ce dc 21 3c
       0.089987196 0.14096528 0.26482096 0.009879304
0000f0 8e 30 fa 3d e2 ed df bc d0 db 4a be df 5e 31 3e
       0.12216292 -0.027335111 -0.19810414 0.17321347
000100 19 5b 62 bd 9d 50 c6 3d d4 65 3e be 11 d9 b8 bc
       -0.05526266 0.096833445 -0.18593532 -0.022564443
000110 fc aa f5 bb 5c 06 31 3e 4a 24 dc bd 81 e5 07 3e
       -0.0074971896 0.17287582 -0.10749109 0.13271143
000120 1e 0e 0b be 33 4d 56 bc 94 51 13 be 7c 80 37 3d
       -0.13579604 -0.013079929 -0.14386588 0.044800267
000130 fe 1b 0c be 3b 01 89 3d 42 d0 99 3c 7d 52 6b be
       -0.13682553 0.06689688 0.018776063 -0.22980686
000140 2a 61 66 3d 94 88 0f be 5f 10 88 3d 87 5d d1 bc
       0.056245007 -0.14016944 0.066437475 -0.025557293
000150 c6 2c 46 bd fb b0 7d 3d d3 aa 62 be f1 af 8f 3c
       -0.048382543 0.06193636 -0.22135477 0.01753995
000160 e4 a2 e8 bd 97 45 ca be c4 64 78 be 34 b0 76 bd
       -0.11359194 -0.39506218 -0.24257189 -0.060226634
000170 71 c5 4d be 41 50 c1 3d 7b 7c 54 be e7 0b 19 3e
       -0.20094849 0.09439135 -0.2075061 0.14945947
000180 05 c3 34 bd 5c 30 29 bd 3e ea a6 bd 60 16 57 bd
       -0.044131298 -0.041305885 -0.08150147 -0.052511573
000190 00 5f 68 be 14 fc d3 3d 18 78 bb be 68 ed d7 3c
       -0.2269249 0.103508145 -0.36615062 0.026358321
0001a0 e7 46 10 be 10 8d a4 3d 25 49 9e bc 21 25 ff bc
       -0.14089547 0.08034718 -0.019321987 -0.031145634
0001b0 1c bb bd be 48 ad 02 3e 12 fa 63 be ae 91 07 3e
       -0.37056816 0.12761414 -0.22263363 0.13239166
0001c0 03 fe 1f bd 47 89 87 be de ff ad bc 35 38 db be
       -0.039060604 -0.26471922 -0.021240171 -0.4281632
0001d0 b8 80 3f bd 15 b9 8f 3e e7 81 54 3e e8 6a 2e 3e
       -0.046753615 0.28070894 0.20752679 0.17032969
0001e0 dd 05 45 bd b9 f7 43 be a1 10 5b bd 74 69 9b bb
       -0.048101295 -0.19137467 -0.053482655 -0.0047427956
0001f0 e8 74 02 3e 7f 15 27 be 6e ac 79 3d 33 9f a4 bd
       0.12739909 -0.16316794 0.060955457 -0.08038177
000200 92 6c 5b bd 92 99 a2 3d ec 80 ee be 54 ad 13 3c
       -0.053570338 0.079394475 -0.46582735 0.009013493
000210 9f 7d 36 3e 85 03 01 3d 44 5a 21 3e db 2e 8c be
       0.17821358 0.031497497 0.1575709 -0.27379498
000220 63 cc 7d be 74 49 cf 3d 48 c2 23 3b e2 7c 12 ba
       -0.24784999 0.10121432 0.0024987627 -0.0005588067
000230 2f ea 9c 3e d7 3d 3b 3e e3 d5 8e bd 62 9e 7b bd
       0.30647418 0.18285309 -0.069743894 -0.061430342
000240 28 9c 09 3d c5 3d 8b 3d d5 7b c5 bd aa a7 b8 3d
       0.033596188 0.06798891 -0.0964276 0.090163544
000250 72 db 04 bd 51 d2 a7 be 39 f5 5b 3e 36 17 80 be
       -0.03243584 -0.32777646 0.21480264 -0.2501771
000260 e7 cc 86 3c 2b c0 96 be 6a 3c 51 be 97 73 70 be
       0.016455127 -0.29443488 -0.20433202 -0.23481594
000270 e8 7b 7f be eb 2c c1 bd 99 b3 e5 3d ff 4a 71 be
       -0.2494961 -0.094323955 0.11215896 -0.23563765
000280 fb 65 6c 3e 53 f4 34 be 77 b4 28 3e 83 cc 5f bd
       0.23085777 -0.17671327 0.16475092 -0.054638397
000290 93 30 57 bd 52 12 05 3e 56 05 54 bc b1 cd 0c be
       -0.05253656 0.1299527 -0.012940725 -0.1375034
0002a0 dc 17 2c 3e 2d c3 4d be 27 b6 a3 3e 3b f3 57 3d
       0.16805977 -0.20093985 0.3197491 0.052722197
0002b0 b0 61 23 be e5 86 6a be 51 05 96 3b 90 90 20 be
       -0.15955234 -0.2290302 0.0045782705 -0.15680146
0002c0 ff 71 42 3e 21 d9 cb bd 00 6f c9 bd f1 25 d6 3e
       0.18988799 -0.099535234 -0.09835625 0.41825822
0002d0 da fe 7d 3d df 69 e6 bc c7 b2 9a bc 70 f2 82 be
       0.062010624 -0.028126655 -0.018884076 -0.2557559
0002e0 c7 e0 a3 3d 51 ce 45 3d 46 25 e3 3d 50 a1 0d 3e
       0.08001857 0.04829246 0.11091094 0.13831067
0002f0 a4 33 d5 3e 24 9d 27 bd b5 c8 5e 3e 71 c1 36 3e
       0.4164096 -0.040921345 0.21756251 0.1784723
000300 79 44 2a 3e 4c 47 25 3e cc dc 38 bc 48 6e 86 be
       0.16627683 0.16140479 -0.011283111 -0.26256013
000310 9d 56 de be 15 6e a3 3c 14 5d 2c bf 34 56 94 be
       -0.43425456 0.019949952 -0.67329526 -0.28972018
000320 b8 3f 7e bd 2d 40 40 be 98 6a 1b bd 18 c7 b3 3b
       -0.062072486 -0.18774481 -0.037943453 0.0054863803
000330 00 6e 54 bd 07 25 2d be e2 dd b7 3c 82 f1 e6 bd
       -0.051862717 -0.16908656 0.02244467 -0.11276533
000340 74 aa ac 3d 14 40 d8 3d 34 9b 2b be 55 ed ab be
       0.08430949 0.10559097 -0.16758424 -0.33579507
000350 85 d4 42 3d 4e 09 90 bd f6 de e0 bd 68 8d 10 3b
       0.047565956 -0.07033025 -0.109800264 0.002205694
000360 10 31 32 be c0 11 08 bd 80 d2 1c bd c6 7f 14 be
       -0.17401528 -0.033220053 -0.038286686 -0.14501867
000370 d1 1e 1a bf d3 64 18 3e ea e5 15 39 73 eb 41 bd
       -0.6020327 0.14882211 0.00014295397 -0.047343682
000380 7c 83 2f 3c dd 91 81 3d d8 e3 12 bd 2d 53 85 be
       0.010712501 0.06326649 -0.03586182 -0.2604002
000390 f2 1b 07 be f8 63 02 3d 65 40 f3 bd 62 53 d4 3e
       -0.13194254 0.03183362 -0.11877517 0.41469866
0003a0 fe b3 2c 3e 7a 06 23 3e 1d 1e 08 3e 2c b8 92 bc
       0.16865537 0.1592044 0.13292737 -0.017910086
0003b0 56 73 e1 bc 6f 59 44 3d 1d 0e fa 3d 54 ef e4 3d
       -0.027520817 0.047936853 0.12209723 0.11178461
0003c0 9e f3 bc 3c 88 0f e1 bd 12 43 e1 3c 38 c0 d5 3d
       0.023065384 -0.109892905 0.027497802 0.104370534
0003d0 88 f0 52 bd 19 5a 88 bd 82 78 33 3e e2 be a1 3d
       -0.05149892 -0.0665781 0.17526439 0.07897736
0003e0 cc 0c 52 3d ff a4 8a bd 28 57 e1 3d 85 8b af be
       0.051281735 -0.06769752 0.11002952 -0.34286132
0003f0 26 61 8e 3d ed 61 13 3e a9 a5 a2 3d 01 cb b3 3c
       0.06952123 0.14392824 0.079417534 0.021947386

bias f4 [32]
000000 1e 75 08 3c 59 d7 e5 3c 8c 1e 6c bd 8e b2 e8 bc
       0.008328704 0.028056787 -0.05764632 -0.028405454
000010 5c 3c 40 3d b1 a9 08 3d 33 4a 04 bd 97 a9 8d 3d
       0.046932563 0.033364955 -0.032297324 0.06917112
000020 d6 6c 8c bd d4 aa 6c 3d 50 47 b3 3c 2f 1c 6b 3c
       -0.06856696 0.057780102 0.02188459 0.014349981
000030 1c 3e 66 3c f6 c2 c2 bd d2 8a 26 bd b1 dc 9c 3d
       0.014052894 -0.09509842 -0.040659733 0.07659281
000040 b3 61 14 bd cc 72 de bc 0e 29 84 bd 3c 4c b7 3d
       -0.036225986 -0.027154349 -0.06453143 0.089500874
000050 82 76 4a bd 4c 2a e0 3d 58 e8 8d bd d7 a9 a5 ba
       -0.049429424 0.109455675 -0.06929082 -0.0012639117
000060 f7 c4 14 3d a9 dc 67 3d 71 e3 d2 bd 4e c3 3c bd
       0.036320653 0.056606922 -0.10297287 -0.046084695
000070 33 79 b5 3d b2 ec 61 bd 15 05 53 3d d9 79 8d 3d
       0.088610075 -0.05515737 0.05151852 0.06908006

weight f4 [32, 32]
000000 ba 27 28 3e 4e 79 e4 be 04 47 b9 bd 4c 24 c0 bd
       0.16421404 -0.44623798 -0.09046748 -0.09381923
000010 03 1a 96 3e cc c9 f8 3d 19 b8 10 3d 0b 14 10 3f
       0.2931672 0.12147865 0.03533182 0.56280583
000020 a4 15 05 3f 3a 2a b6 be 70 96 45 3e 2a 42 52 3e
       0.51986146 -0.3557909 0.19295669 0.20533052
000030 d1 12 24 be 2f a9 83 be 5b 6f 03 be ef c9 a6 3d
       -0.16022803 -0.25715014 -0.12835447 0.081439845
000040 77 e0 3e be 23 88 bb 3e 32 4a 5c be ce 20 5c be
       -0.18640314 0.36627302 -0.21512678 -0.21496889
000050 be 98 59 be 43 be 0a bd 72 49 16 3f 1b 3a 2f be
       -0.21249673 -0.033872854 0.5870582 -0.17112009
000060 a4 30 bd 3e 79 06 06 bf 5a 40 82 be 63 a8 90 3d
       0.36951172 -0.52353626 -0.2543972 0.07063367
000070 4e 9e 98 be f5 18 c2 be fa cf e3 3e 71 c0 07 be
       -0.29808277 -0.37909666 0.4449461 -0.13257004
000080 48 10 c3 3d 99 83 f1 3d dc e2 d5 be 08 8e 83 bd
       0.0952459 0.117926784 -0.41774642 -0.06423575
000090 a2 d2 ef 3d d4 d3 29 bb 2d a0 a4 bc 35 c5 a0 b9
       0.11710097 -0.0025913613 -0.020095909 -0.0003066451
0000a0 92 65 97 3d d9 84 7d bd 41 89 41 be f6 4f 03 be
       0.0739242 -0.06189427 -0.18900014 -0.12823471
0000b0 60 5b 67 3d 10 81 4d 3e 45 6e 84 3e 78 ca 3e 3d
       0.056483626 0.20068765 0.2586538 0.046579808
0000c0 20 7f d8 3e 5d 59 a7 be 5b 6a 46 3e 0c 2b fe bd
       0.4228449 -0.32685366 0.19376509 -0.12410554
0000d0 18 25 e6 be 85 2b 23 3e 8c 1a ca be c7 a7 94 3d
       -0.44950175 0.1593457 -0.3947338 0.072585635
0000e0 49 7f d6 bd 4a 07 cd bc 35 48 70 be a1 1a e8 3c
       -0.104734965 -0.02502789 -0.23465045 0.02833301
0000f0 c1 d9 51 3e be 94 b5 3e 94 62 31 bd 2d 69 b2 3d
       0.20493223 0.35465044 -0.043306902 0.08711467
000100 77 4f de be 5a ef a7 3d 96 08 c6 3d 22 b3 7d 3e
       -0.43420002 0.081999496 0.096696064 0.24775365
000110 80 87 47 be d5 a1 bf be e9 fb 1f 3d 63 4c 26 bf
       -0.19485283 -0.37428156 0.0390586 -0.64960307
000120 1c 1e d8 bc ee 88 6b be f9 80 88 3e a8 88 72 bd
       -0.026381545 -0.23001453 0.26660898 -0.059212357
000130 b9 c9 2d bd 43 3f 0a 3e 1c a2 bf 3e 0e 22 3a 3e
       -0.042428706 0.13500695 0.37428367 0.18177053
000140 f5 58 d0 bc f0 9e c7 3d 0a 03 8a 3d 0f be 81 be
       -0.025433043 0.09747112 0.06738861 -0.25340316
000150 9e d1 49 be c1 4a b8 bd 1d fc e8 be 92 cf 09 be
       -0.19708869 -0.08998633 -0.45504847 -0.13458088
000160 50 0c 71 ba ab 9d 69 be 26 1c e0 3c e7 e9 31 3e
       -0.0009195255 -0.22814052 0.027357172 0.17374383
000170 64 90 43 be 19 ff c1 3e f6 3d 14 be f9 86 cc 3d
       -0.1909805 0.37889937 -0.14476761 0.099866815
000180 8d 5d 8b 3e 2f 63 c5 3c a5 b5 70 bd 04 a5 d3 be
       0.2721981 0.024095146 -0.05876698 -0.41336834
000190 4b 5f a7 3e fa 3b da 3d db 17 6a be ed 45 c9 bd
       0.3268989 0.10655971 -0.22860663 -0.098277904
0001a0 b8 92 22 3e 9d 40 19 3d be ca b6 be 0a e2 21 be
       0.15876281 0.037415136 -0.35701555 -0.15808883
0001b0 1e 01 e5 3e b8 3b 1a 3e df be f8 3d cd d6 a4 bd
       0.44727415 0.15061843 0.12145781 -0.080487825
0001c0 c6 f3 b4 bb b8 87 a4 bd 2a d4 cb bd 3f ef 35 be
       -0.005522224 -0.08033699 -0.099525765 -0.17767046
0001d0 a3 f5 74 3e 6b df 83 3d cd 04 49 be 1c 2b 2f be
       0.23921828 0.06439098 -0.19630738 -0.17106289
0001e0 c6 c1 9c bd df cf 68 3e 95 5f 1b 3e b4 ff b0 3e
       -0.07654147 0.22735547 0.1517318 0.34570086
0001f0 65 53 9f 3d 28 d6 a7 3e 2e cf 8f bd 5e 46 67 bd
       0.07779578 0.32780576 -0.07021938 -0.05646359
000200 47 97 36 3e 5d 98 e8 3e ec 29 c8 bb 49 5d 03 be
       0.17831145 0.45428744 -0.006108513 -0.12828554
000210 53 b0 29 be 26 9a 16 3f 66 1d 08 3e 8c 1f cc bc
       -0.16571169 0.5882896 0.13292465 -0.024917386
000220 00 b3 bf 3d 55 e1 a2 3d 54 ad b3 3e 17 12 82 3c
       0.093603134 0.07953135 0.35093176 0.015877767
000230 a1 1e 03 bf 46 f4 f2 bd a2 1c 67 3c c8 84 56 be
       -0.5121861 -0.11862998 0.014105948 -0.2094909
000240 25 77 da 3a 36 f6 19 be c2 2e 8d 3e ab 1e 1b bc
       0.0016667588 -0.15035328 0.27574736 -0.009467761
000250 ac 3b b8 bd f5 c5 97 be 4f 84 29 3f 38 f8 31 be
       -0.089957565 -0.29643217 0.6621751 -0.17379844
000260 16 d8 7c 3e d3 31 ca 3e 43 e6 25 bc e0 e1 c4 be
       0.24691805 0.39491138 -0.010125699 -0.3845358
000270 69 a6 e4 3e 82 31 8f bd 0e 29 82 3e 56 84 dc 3e
       0.4465821 -0.06991865 0.25421947 0.43069714
000280 c1 1d 37 be 62 d9 f6 3d a7 d5 e2 3d d1 74 c4 bd
       -0.17882444 0.12053181 0.11075907 -0.095925935
000290 ca cb bd 3c 62 02 4b 3e 47 d8 14 3d b6 68 60 3d
       0.023168463 0.19825128 0.03633907 0.05478736
0002a0 96 b7 9c be 3e 1a 93 3d 2e a7 6d bc 19 80 03 3e
       -0.30608815 0.0718274 -0.014505191 0.12841834
0002b0 aa 3f 82 be 59 8a a9 3d 4f d5 42 be b8 f1 51 bb
       -0.25439197 0.08278341 -0.19026683 -0.0032034945
0002c0 20 b2 3b be 64 94 aa bd 4f d1 ab 3e 71 f2 a3 3e
       -0.18329668 -0.083290845 0.33558127 0.32020906
0002d0 74 a3 81 bd 50 33 40 be 38 53 91 3e c2 9d 46 3d
       -0.06330004 -0.18769574 0.28383803 0.048490293
0002e0 b4 9b b4 3c 39 6c 04 3e 94 13 b2 3c 51 f0 8c be
       0.022046901 0.12931909 0.021737851 -0.27527097
0002f0 e7 8d 6e 3e 2c c3 de 3d 57 00 c5 3b dd 35 08 3e
       0.23296319 0.1087707 0.0060120034 0.13301797
000300 d8 2b 1a 3d 22 a8 6c 3e ff ca 54 3b 04 89 6f 3e
       0.03763947 0.23111013 0.0032469628 0.23392111
000310 e0 2d 04 3d b6 5d a4 3e 14 92 3a be 01 fd 14 bd
       0.032270312 0.32102746 -0.18219787 -0.036374096
000320 05 78 54 be 5a 2b f2 be bb ae a0 3c ad aa 20 be
       -0.20748909 -0.472987 0.019614568 -0.15690108
000330 9c b1 01 3e b9 fa 8c be 29 1f 8f be 47 79 0f be
       0.12665409 -0.27535036 -0.2795346 -0.14011107
000340 0b 5f 9f be a5 7b 80 bd cc 9e e7 3d 44 6c 86 bd
       -0.311272 -0.06273583 0.11309585 -0.06563619
000350 9c 57 0e 3e 07 e1 72 be c0 5f c8 3e ab 1a 8f be
       0.13900608 -0.23718654 0.3913555 -0.27950034
000360 8b 77 dc 3d 14 83 1e be 11 7b 8a bc c6 e2 49 3e
       0.107649885 -0.1547969 -0.016904386 0.19715413
000370 c9 93 35 be f0 0f 5a be 07 98 57 3e cf 6d 59 3d
       -0.17732157 -0.21295142 0.21054088 0.053083237
000380 fd 54 02 3d 66 3d 48 bd e7 97 d2 3e 7b cd 06 3f
       0.031819332 -0.04888668 0.41131517 0.5265729
000390 78 24 db bd 87 d9 f3 3c 74 0c b8 3d d6 22 14 be
       -0.10700315 0.029766811 0.0898675 -0.14466414
0003a0 7f 5f be be 7d ba ed be 53 1e bc bc 4e 6e d0 3d
       -0.37182233 -0.46431342 -0.022963678 0.10177289
0003b0 5e 1d 0b 3e eb fc c0 be 9e 86 97 be 11 f9 1f 3e
       0.13585421 -0.3769296 -0.29594892 0.15622355
0003c0 5e df ef bd 85 52 36 3e 62 8a 87 3d de 8d a8 3e
       -0.11712526 0.17804916 0.06618191 0.32920736
0003d0 18 0d 94 bd 2a 10 7d 3e 51 75 95 be d8 2a 48 3e
       -0.0722906 0.24713197 -0.29191068 0.19547594
0003e0 30 ed 9c bd 21 65 1c 3e fc e6 9c 3e 99 75 5b bb
       -0.076624274 0.15272953 0.30644977 -0.0033486842
0003f0 a5 b0 94 3e 63 9c 31 be 29 96 88 be 0f 02 00 3e
       0.2904102 -0.17344813 -0.26677063 0.12500785

bias f4 [32]
000000 67 e6 6e 3d 0f b2 71 be 76 f6 3d bd 83 73 4d 3e
       0.058325198 -0.2360308 -0.04637762 0.20063595
000010 6d 15 b9 bc 5a 7e e4 3c cf 16 fc bd 4c 73 ae bc
       -0.022593224 0.02789228 -0.12309038 -0.021295212
000020 69 1c 36 bd da 98 78 bd 5a e5 8e 3d 38 50 fb bd
       -0.044460688 -0.060692646 0.06977339 -0.1227116
000030 b5 ea f6 bc 82 bb 42 be bf ef fa bc d7 7a b2 bd
       -0.030141214 -0.19016841 -0.030631898 -0.08714836
000040 b9 a5 7c bd 4c 71 ea 3c b6 99 86 3d 62 ad f2 bd
       -0.061681483 0.028618477 0.06572287 -0.118494764
000050 da 44 9d bd 0e 17 c6 be 0c af f6 bb b2 ed 9a bd
       -0.07679148 -0.38689464 -0.0075281914 -0.07564868
000060 e0 55 fc bd 61 38 7a 3e c4 90 9f bd bf 8e 83 3c
       -0.12321067 0.2443557 -0.07791284 0.016059278
000070 a7 06 75 3b 16 e6 e1 3c fb eb ec 3b b6 97 98 3d
       0.0037387998 0.027575534 0.0072302795 0.074508116

weight f4 [1, 32]
000000 32 d4 ff bd cf f6 27 be c4 ba 1c be 6d 2a 3e 3e
       -0.12491645 -0.16402744 -0.1530562 0.18570872
000010 8c 7d c1 bd ad 4f e9 bd 0c 63 d5 3e a5 56 02 3e
       -0.09447774 -0.1139215 0.4167713 0.12728365
000020 ca 3c 13 bc 54 9a dc be 46 f5 39 3e 10 19 44 3d
       -0.008986661 -0.43086493 0.1815997 0.047875464
000030 27 8a 3b be 2c 35 dc 3d 2a ae f1 bd a2 e4 a1 be
       -0.1831442 0.10752329 -0.11800797 -0.31619745
000040 3f 5a ff 3d 90 a2 b5 bc c7 92 02 3e 7e 66 21 3e
       0.12468385 -0.022172242 0.12751304 0.15761754
000050 0c 83 1a be b8 51 40 be eb d1 94 3e 60 ab 20 3e
       -0.15089053 -0.18781173 0.29066405 0.15690374
000060 b4 da c6 bd 2f c1 9e 3e a8 ae c0 bc 36 d0 65 be
       -0.09709683 0.31006762 -0.023520783 -0.22442707
000070 c5 7d cf 3d 8c 59 d2 3d 28 e3 93 be f7 dd 80 bd
       0.101314105 0.10270986 -0.28884244 -0.062923364
