Models/model-A-2.pt (torch, 34543 bytes, 9 tensors)

weight f4 [32, 86]
0.13051365 0.008384957 0.49971694 0.10937452 0.34452242 -0.095525295 0.1491924 -0.34708408
0.22507013 0.0032871778 -0.049116485 0.3010406 -0.22546881 0.20440753 -0.18093565 -0.1402238
-0.15182212 -0.08466808 -0.10425617 0.19050996 0.2107343 -0.06263764 -0.28820553 0.19906215
-0.050431356 0.026841197 -0.11521231 0.3986021 0.062280074 0.021023806 0.076793306 -0.043722525
-0.0814984 -0.17281964 -0.11366297 0.12001243 0.19292705 -0.106337115 0.41258043 -0.16147736
0.38402557 0.18550614 -0.00016277842 0.18824331 0.3044363 0.32479188 0.2738563 0.123034984
-0.072279066 0.055759814 -0.09135488 0.12869994 0.07199124 -0.28570932 -0.024369415 0.35783696
-0.057580203 -0.032914605 -0.14602858 -0.109780386 -0.19355406 -0.34666088 0.10820539 0.05250725
-0.1280147 0.052473996 0.018634874 -0.15705045 -0.078738704 -0.28213602 -0.18574566 0.058819585
-0.06455356 0.11868777 0.06349558 -0.43233806 0.02170227 -0.101748735 0.056353178 0.25071105
0.13540047 0.255338 0.022870893 -0.1706986 0.16665578 0.014079027 0.0045982692 0.14897868
0.21571848 0.22336087 0.116241515 0.055319116 -0.1552439 -0.28426173 -0.24472101 -0.4143301
-0.26194966 -0.055173118 -0.04748716 -0.26334974 -0.12766564 0.047289796 -0.0732942 0.0077307913
-0.1489993 0.1076809 -0.20166664 -0.18308349 -0.0020041289 0.36925724 0.2995348 -0.17041342
0.07824788 0.29503968 -0.23249921 -0.39070576 -0.18917798 0.0072138216 -0.2472468 -0.11973367
0.19853519 -0.053166524 0.105436385 0.152872 0.2931095 0.008491049 -0.06975685 -0.11826666
-0.10102779 0.03909976 -0.02632459 0.01668428 0.05456748 0.1258176 -0.12204366 0.0028734198
0.11211835 -0.06637329 -0.34899184 -0.16448942 -0.0010583842 0.040923517 -0.025306301 -0.084580705
0.051586542 -0.09652358 0.14218743 0.25121185 0.3810924 -0.068053894 0.07161329 -0.18612365
-0.24306922 0.21118419 -0.26345798 -0.0670668 0.09852905 -0.03420388 -0.12857682 0.25556806
0.07248539 0.37867996 -0.18644175 -0.18148634 -0.031450894 0.23753634 -0.010529151 -0.14939116
-0.06870518 0.035197787 0.09294344 -0.1365012 -0.16425245 -0.28607345 -0.048426922 0.04181553
0.16070978 -0.16900389 -0.10234964 0.046058234 -0.15224203 0.27870122 0.3353834 -0.0027421513
0.09557659 -0.01581701 0.05366201 -0.08498189 -0.19912761 -0.20524116 0.11642936 0.18287171
-0.06748062 -0.00024536627 -0.38165113 0.043835867 -0.29652658 -0.008499656 0.2514074 -0.04180163
-0.0024088186 -0.044270426 0.20669638 0.09255077 -0.121322334 -0.04764672 -0.22755992 -0.22067557
0.2728217 0.1101771 -0.0085960375 0.2009691 0.14461474 -0.17924947 0.37558678 0.20151979
0.15528345 0.2164571 -0.11631002 0.09945311 -0.050061353 -0.21651344 0.1076164 0.13199133
-0.2053912 -0.24589694 0.15633036 -0.28015217 0.11136521 -0.22365466 -0.16482215 0.17156006
0.112750374 -0.11802445 -0.22512153 -0.36153516 0.33035794 -0.2869827 -0.1839029 -0.2708982
-0.12311893 0.012490902 0.16594854 -0.22682811 -0.19424014 -0.37019554 0.040338866 -0.10354699
0.13220493 -0.13322482 -0.2040585 -0.18490024 0.08996116 -0.27323195 -0.10916419 0.07924475
00000000: 5fa5 053e 0f61 093c e6da ff3e c0ff df3d
00000010: 3e65 b03e c4a2 c3bd e4c5 183e 01b5 b1be
00000020: c978 663e b16d 573b 5e2e 49bd fe21 9a3e
00000030: 4ce1 66be 3550 513e 3247 39be d496 0fbe
00000040: 4277 1bbe 7566 adbd 4284 d5bd 0b15 433e
00000050: bbca 573e 2a48 80bd ad8f 93be f3d6 4b3e
00000060: 1c91 4ebd 12e2 db3c 6ef4 ebbd 9315 cc3e
00000070: 6419 7f3d 1e3a ac3c cf45 9d3d 6416 33bd
00000080: a2e8 a6bd a2f7 30be 22c8 e8bd 14c9 f53d
00000090: ab8e 453e 46c7 d9bd be3d d33e 525a 25be
000000a0: 009f c43e 52f5 3d3e 80af 2ab9 dbc2 403e
000000b0: 13df 9b3e 1f4b a63e e536 8c3e c4f9 fb3d
000000c0: 0c07 94bd 6764 643d 4418 bbbd ebc9 033e
000000d0: 2570 933d 7e48 92be 5ea2 c7bc 6836 b73e
000000e0: 38d9 6bbd 77d1 06bd 8488 15be 8ad4 e0bd
000000f0: 0933 46be 897d b1be ca9a dd3d d811 573d
00000100: 4916 03be f9ee 563d 2aa8 983c d5d1 20be
00000110: c241 a1bd 2274 90be 1c34 3ebe ceec 703d
00000120: a834 84bd 9312 f33d f809 823d 6a5b ddbe
00000130: f5c8 b13c a461 d0bd 97d2 663d 335d 803e
00000140: 6ca6 0a3e aabb 823e bd5b bb3c 9dcb 2ebe
00000150: d0a7 2a3e b8ab 663c 14ad 963b de8d 183e
00000160: 4ee5 5c3e b6b8 643e 0810 ee3d 4c96 623d
00000170: 42f8 1ebe c18a 91be 2598 7abe 1323 d4be
00000180: 441e 86be 35fd 61bd e581 42bd c7d5 86be
00000190: c8ba 02be f2b2 413d 451b 96bd 9452 fd3b
000001a0: 4693 18be ce87 dc3d b381 4ebe 3d7a 3bbe
000001b0: b457 03bb 490f bd3e a05c 993e db80 2ebe
000001c0: 6d40 a03d 710f 973e 4614 6ebe 960a c8be
000001d0: dfb7 41be ec61 ec3b 442e 7dbe ed36 f5bd
000001e0: cf4c 4b3e 24c5 59bd 08ef d73d 7a8a 1c3e
000001f0: 7312 963e 0a1e 0b3c aedc 8ebd ca35 f2bd
00000200: a8e7 cebd 1227 203d aba6 d7bc 79ad 883c
00000210: 2682 5f3d 54d6 003e 07f2 f9bd fc4f 3c3b
00000220: 4e9e e53d b8ee 87bd 0faf b2be ea6f 28be
00000230: 7bb9 8aba 6b9f 273d 294f cfbc a638 adbd
00000240: 694c 533d 28ae c5bd 9599 113e d79e 803e
00000250: 8b1e c33e d75f 8bbd fda9 923d 3397 3ebe
00000260: 23e7 78be ab40 583e f7e3 86be 525a 89bd
00000270: 99c9 c93d 5e19 0cbd a4a9 03be d1d9 823e
00000280: 3873 943d 57e2 c13e 96ea 3ebe 8ed7 39be
00000290: a7d2 00bd ba3c 733e 7682 2cbc fff9 18be
000002a0: 4db5 8cbd 8e2b 103d 2159 be3d f8c6 0bbe
000002b0: cb31 28be 3878 92be 4f5b 46bd c346 2b3d
000002c0: 1b91 243e 5b0f 2dbe b09c d1bd 8fa7 3c3d
000002d0: 56e5 1bbe edb1 8e3e 5fb7 ab3e aab5 33bb
000002e0: a9bd c33d ad92 81bc b2cc 5b3d fc0a aebd
000002f0: 1ce8 4bbe bd2a 52be 8472 ee3d b942 3b3e
00000300: 4833 8abd 81a4 80b9 c767 c3be 3d8d 333d
00000310: 55d2 97be 2442 0bbc 79b8 803e 3038 2bbd
00000320: 45dd 1dbb e854 35bd 37a8 533e 428b bd3d
00000330: d877 f8bd 3529 43bd 7805 69be c7f8 61be
00000340: 49af 8b3e 88a4 e13d 65d6 0cbc d8ca 4d3e
00000350: e315 143e 2c8d 37be e94c c03e 345b 4e3e
00000360: a002 1f3e eea6 5d3e f333 eebd 12ae cb3d
00000370: 220d 4dbd b3b5 5dbe fd65 dc3d bc28 073e
00000380: 1252 52be 68cc 7bbe 1115 203e 1b70 8fbe
00000390: 7113 e43d ba05 65be 23c7 28be 71ad 2f3e
000003a0: abe9 e63d ceb6 f1bd 4286 66be 231b b9be
000003b0: ad24 a93e 65ef 92be 0b51 3cbe 2bb3 8abe
000003c0: c725 fcbd a4a6 4c3c 6aee 293e a145 68be
000003d0: e3e6 46be 458a bdbe 5e3a 253d 7210 d4bd
000003e0: bb60 073e 166c 08be b6f4 50be 7d56 3dbe
000003f0: 8f3d b83d 0fe5 8bbe 7a91 dfbd 124b a23d

bias f4 [32]
-0.04044161 -0.0807218 0.03459466 -0.07143487 0.0048615397 0.06307365 0.09364882 -0.027569229
0.06504747 -0.08818954 0.02680012 -0.14668027 0.06585519 -0.039571974 0.028884435 -0.025409274
-0.04369307 -0.01917925 -0.03907043 0.011629398 0.011323466 -0.032982834 -0.03056669 -0.059060525
0.04379697 -0.1317146 -0.0764892 0.064388976 0.08384605 0.017068503 0.055959813 -0.06410053
00000000: 1aa6 25bd 7951 a5bd 21b3 0d3d 724c 92bd
00000010: 8d4d 9f3b c22c 813d f4ca bf3d ddd8 e1bc
00000020: 9c37 853d b89c b4bd ed8b db3c 5a33 16be
00000030: 16df 863d 3916 22bd 0d9f ec3c 1c27 d0bc
00000040: 81f7 32bd cd1d 9dbc 5108 20bd 3b89 3e3c
00000050: 0f86 393c 0219 07bd ff66 fabc 73e9 71bd
00000060: 7464 333d 31e0 06be 5fa6 9cbd 5ede 833d
00000070: 7ab7 ab3d 3fd3 8b3c 1e36 653d 2447 83bd

weight f4 [32, 32]
-0.04802716 -0.01974949 -0.004954429 -0.24830899 -0.071884915 0.19440392 -0.065976456 -0.2201799
0.2256668 0.14540388 -0.35077387 -0.3142761 -0.153962 0.26878572 0.08311107 -0.057427604
-0.59931564 0.010517563 0.1523088 0.15949427 -0.37316865 -0.4483224 0.15604836 0.3736979
0.1390724 0.1469273 0.018991908 -0.23321134 0.06770212 -0.16988274 -0.054659776 -0.2675314
-0.035719316 0.2160816 0.21724026 -0.15586853 0.18080729 0.23346622 0.061950833 -0.3864653
-0.06629762 0.3022535 0.19187531 0.3061221 -0.011872588 0.12233646 -0.03467968 -0.045536574
-0.27459857 0.08788316 -0.31763905 0.19423446 0.1679101 -0.16746058 -0.4047078 -0.20758358
0.10245203 0.16319783 -0.07041438 0.4525795 -0.040943146 -0.22670892 0.08280366 -0.08427841
-0.25770906 -0.098409705 0.087970875 0.10975052 0.118295886 -0.40351143 -0.09130123 0.2396308
0.17652966 0.0028221714 -0.183306 0.14961477 -0.0003938175 0.13065508 0.22725248 -0.20750728
-0.29930404 -0.44274753 0.5706643 0.10389567 -0.07119261 -0.026759036 -0.08859096 0.27201065
0.117349856 0.0030355095 0.047438506 0.23482089 -0.07398494 0.26992992 -0.24225558 -0.32650167
-0.3555299 0.12135976 0.08310923 -0.16211465 -0.33523765 -0.6239909 -0.04004097 0.1567943
-0.44244635 0.2930055 0.15586679 0.1201187 -0.1891111 -0.03374136 0.29872453 -0.16115355
-0.09759455 -0.19004393 0.34358194 0.09796956 0.20833541 0.019981327 -0.054152064 -0.13498902
-0.19182877 0.018685658 0.028461767 -0.257684 -0.1025995 0.12510258 0.08485293 0.292821
-0.25884455 -0.5335801 0.14036053 -0.041770205 0.4475508 0.1252345 0.08518084 0.58728874
0.14576238 -0.018996777 0.25668016 -0.2009379 -0.2606574 -0.57612234 -0.08846408 -0.34199384
0.30160737 -0.123538405 0.12153894 0.08552392 -0.21191093 -0.13598278 -0.12931699 0.27933767
0.28255522 0.2567856 0.25546867 -0.21581459 -0.0059622843 0.20005187 0.135814 0.15447976
-0.12322143 -0.36868468 0.057385776 -0.17636143 0.098145604 -0.0731473 -0.11023234 0.11004926
0.18666653 0.23947106 0.17163178 -0.23145539 0.0047542127 -0.4597409 -0.1342197 0.34422868
0.07499388 -0.25826967 -0.2163881 -0.4538816 0.039413817 -0.23709475 0.05420133 -0.07915992
-0.42034987 -0.06550465 0.05030467 0.07972221 0.18746923 -0.063333705 -0.2730546 -0.057742093
0.02982319 0.16226034 0.04863995 0.09426867 0.113099046 -0.13795368 0.29269698 0.31466365
0.20346028 -0.33364737 0.20074475 -0.37668377 -0.04109312 -0.17600505 -0.39326057 -0.10796389
-0.2690373 -0.062317617 -0.011926111 -0.013781918 0.19414629 0.01605803 0.001024265 -0.085775316
0.3153691 0.1381384 -0.19340369 0.083695956 -0.06292383 -0.019684723 -0.52498 0.20656419
0.22608551 -0.16716494 0.27340692 -0.2612799 0.17579257 -0.01235218 0.26568264 0.04115675
-0.06672803 0.043132752 -0.24660212 -0.014091388 -0.27261543 -0.023825748 0.035657886 0.09195352
0.059768084 0.13714068 0.22099784 0.3384963 -0.022450209 0.16508457 -0.0006508624 0.033329576
0.21603464 -0.04817774 -0.12024132 0.12598099 -0.1122768 0.021887405 0.09552012 0.37126434
00000000: 21b8 44bd afc9 a1bc c358 a2bb b644 7ebe
00000010: 6638 93bd d211 473e aa1e 87bd d776 61be
00000020: 3315 673e c1e4 143e a298 b3be cce8 a0be
00000030: 37a8 1dbe 489e 893e 2336 aa3d 3539 6bbd
00000040: c06c 19bf db51 2c3c d7f6 1b3e 7752 233e
00000050: f60f bfbe 838a e5be 24cb 1f3e 5555 bf3e
00000060: ff68 0e3e 1c74 163e eb94 9b3c f4ce 6ebe
00000070: 69a7 8a3d bef5 2dbe eee2 5fbd e0f9 88be
00000080: 6b4e 12bd 7f44 5d3e 3b74 5e3e 009c 1fbe
00000090: 8c25 393e c511 6f3e 28c0 7d3d c8de c5be
000000a0: 0cc7 87bd f9c0 9a3e f67a 443e 09bc 9c3e
000000b0: 3e85 42bc 8a8b fa3d 480c 0ebd 8f84 3abd
000000c0: 2f98 8cbe 16fc b33d 96a1 a2be 66e5 463e
000000d0: a0f0 2b3e c97a 2bbe dc35 cfbe ca90 54be
000000e0: 5fd2 d13d 551d 273e 6a35 90bd 80b8 e73e
000000f0: 00b4 27bd 6226 68be f794 a93d 299a acbd
00000100: 71f2 83be 078b c9bd 132a b43d e1c4 e03d
00000110: 1d45 f23d 0d99 cebe 24fc babd c761 753e
00000120: 31c4 343e 2ef4 383b 91b4 3bbe 9d34 193e
00000130: 4a79 ceb9 72ca 053e e0b4 683e ca7c 54be
00000140: 613e 99be ceaf e2be 0e17 123f 41c7 d43d
00000150: 6ecd 91bd c435 dbbc 2d6f b5bd fb44 8b3e
00000160: 1f55 f03d 66ef 463b e14e 423d e374 703e
00000170: 6b85 97bd 4134 8a3e d911 78be 3a2b a7be
00000180: 0408 b6be 778b f83d 2c35 aa3d 6201 26be
00000190: 45a4 abbe debd 1fbf 0002 24bd af8e 203e
000001a0: 5488 e2be d104 963e 8b9b 1f3e cb00 f63d
000001b0: 57a6 41be 6134 0abd 6cf2 983e 7005 25be
000001c0: a7df c7bd e09a 42be f9e9 af3e 44a4 c83d
000001d0: e155 553e e1af a33c 8ece 5dbd 903a 0abe
000001e0: c36e 44be aa12 993c a728 e93c 28ef 83be
000001f0: b01f d2bd e41a 003e 5fc7 ad3d a2ec 953e
00000200: 4687 84be b598 08bf acba 0f3e 3c17 2bbd
00000210: 6125 e53e 793d 003e 4b73 ae3d 8e58 163f
00000220: bc42 153e 219f 9bbc 956b 833e aac2 4dbe
00000230: e374 85be c17c 13bf a82c b5bd d119 afbe
00000240: 486c 9a3e b401 fdbd 68e9 f83d 2a27 af3d
00000250: 2eff 58be 123f 0bbe ac6b 04be 5905 8f3e
00000260: 14ab 903e 6779 833e cacc 823e 80fe 5cbe
00000270: 445f c3bb 66da 4c3e d312 0b3e f12f 1e3e
00000280: 845b fcbd 3dc4 bcbe 590d 6b3d 1798 34be
00000290: 9000 c93d 40ce 95bd 7ec1 e1bd 8261 e13d
000002a0: 8325 3f3e e737 753e 3ec0 2f3e a402 6dbe
000002b0: 3ac9 9b3b 2963 ebbe e470 09be be3e b03e
000002c0: 6496 993d ec3b 84be d894 5dbe 2b63 e8be
000002d0: 6270 213d f7c8 72be 3702 5e3d 991e a2bd
000002e0: 1938 d7be 4d27 86bd 450c 4e3d 6645 a33d
000002f0: eff7 3f3e 1ab5 81bd d0cd 8bbe f982 6cbd
00000300: c34f f43c 9327 263e af3a 473d ef0f c13d
00000310: 79a0 e73d bb43 0dbe 61dc 953e 981b a13e
00000320: e457 503e d4d3 aabe 0890 4d3e b2dc c0be
00000330: 4251 28bd ab3a 34be 7359 c9be 2c1c ddbd
00000340: 42bf 89be c240 7fbd bc65 43bc 8ecd 61bc
00000350: 49ce 463e 218c 833c a140 863a f8aa afbd
00000360: 0f78 a13e 2774 0d3e 9e0b 46be c968 ab3d
00000370: 35de 80bd db41 a1bc 1765 06bf 9085 533e
00000380: f682 673e 492d 2bbe fefb 8b3e 7bc6 85be
00000390: f802 343e cc60 4abc 8e07 883e fb93 283d
000003a0: b5a8 88bd f8ab 303d 4485 7cbe 91df 66bc
000003b0: 4094 8bbe 372e c3bc 010e 123d 2152 bc3d
000003c0: 61cf 743d 9b6e 0c3e 424d 623e 634f ad3e
000003d0: 80e9 b7bc ee0b 293e a39e 2aba 9884 083d
000003e0: 2f38 5d3e 0656 45bd 1541 f6bd 2901 013e
000003f0: 61f1 e5bd 374d b33c 0da0 c33d 5c16 be3e

bias f4 [32]
-0.055264954 -0.06288433 0.1313629 0.005504849 0.02793168 -0.1794824 -0.15073922 -0.07326663
-0.02118106 0.13318743 0.1467002 -0.07979206 0.07745777 -0.124461524 0.03865859 -0.104933016
-0.13561678 0.1021872 -0.06824227 0.070422165 -0.09255117 -0.20646642 0.01095492 -0.09712605
0.14742754 -0.13610733 0.041188072 -0.06556234 0.086957805 -0.124674514 0.09367409 -0.08104343
00000000: 815d 62bd 80c9 80bd ff83 063e 0562 b43b
00000010: fbd0 e43c 3cca 37be 625b 1abe d10c 96bd
00000020: e783 adbc 4962 083e 9438 163e 056a a3bd
00000030: 2ea2 9e3d afe5 febd 7858 1e3d 1fe7 d6bd
00000040: 20df 0abe 8647 d13d 9ac2 8bbd 7f39 903d
00000050: 788b bdbd ef6b 53be 447c 333c 06ea c6bd
00000060: 3ff7 163e b85f 0bbe d3b4 283d 8c45 86bd
00000070: ef16 b23d 5a55 ffbd 34d8 bf3d 19fa a5bd

weight f4 [32, 32]
-0.1266109 -0.00416669 -0.05476872 0.1771494 0.029066272 0.24425001 -0.23180285 -0.2196253
-0.06556086 0.12163786 -0.077082396 -0.29158926 0.11091217 0.057748303 0.23689634 -0.29442364
0.011984158 -0.009063455 -0.10585063 -0.018160434 -0.3173462 -0.03927372 0.3307957 0.028547887
0.4339543 0.23633713 -0.06417986 0.27769455 -0.02191275 0.02095872 -0.05511877 0.01225902
0.01904754 0.06982134 0.012861967 0.19093703 0.13375856 -0.30149382 -0.022567147 -0.05111794
0.41397232 -0.41215238 0.22797652 -0.053988475 0.17681314 0.079168044 0.041956898 -0.08204225
-0.10833267 0.021054877 0.14278157 0.15087381 -0.23241426 0.124620564 0.072650075 -0.63261896
0.05419008 0.1658793 -0.29489225 -0.2525771 0.17451063 -0.09164947 0.18284425 -0.16563389
-0.18364985 -0.0026425656 -0.02088977 0.4533133 -0.30593657 -0.12166128 -0.04705243 -0.33602452
-0.0135128535 0.021822603 0.24635029 0.21360746 0.110905334 0.33163455 -0.4046238 -0.26563329
-0.124396786 0.57868385 -0.08289701 0.19833273 -0.27164397 0.1849895 -0.1755648 0.11548568
0.20330238 0.1211593 0.08497722 0.0022893809 0.34494483 0.22903568 -0.0269454 -0.024771197
-0.12294774 -0.13572733 -0.22058828 -0.20689957 0.003432911 0.037355654 0.07532639 0.09109987
-0.16183372 -0.039615218 -0.096516095 -0.005022649 -0.1614735 0.14437677 -0.03774351 0.25704122
0.018984154 0.14323653 -0.33895633 -0.10090253 -0.07014531 -0.38621822 0.05060931 0.21082558
-0.14091778 -0.23576374 0.03583642 0.17633267 -0.053703252 -0.335674 0.22735362 -0.44527575
0.094106704 -0.5231402 -0.07907597 -0.12476546 0.106105395 0.50220346 -0.047624595 -0.14751866
0.11128681 -0.031312328 -0.44221988 -0.08199589 -0.31852454 -0.30818564 0.43244666 0.23434304
0.071353205 0.27977467 0.092478916 0.22646007 -0.43743297 -0.22516021 -0.04951458 -0.088228635
0.33552483 -0.52944 0.016376564 0.11507815 -0.014708465 0.1181645 -0.088045195 0.11953142
-0.008848342 -0.20603365 0.32824013 0.0476126 0.23416337 -0.14354204 -0.2099675 -0.19945496
-0.00527095 -0.13799503 -0.0037216914 0.1911848 -0.37691566 -0.16509134 0.041210786 -0.0872389
-0.21638893 -0.10469417 0.29159823 -0.34225753 0.16604264 0.2547397 -0.38946787 -0.41881624
-0.061535217 -0.26955178 -0.2601786 -0.3300043 0.35641333 -0.00033268685 -0.5659475 0.053384818
-0.2557533 -0.29149574 -0.09211238 -0.07927096 0.41025016 -0.386549 -0.17890504 0.21513583
-0.0029441593 -0.09126671 -0.67211795 -0.30203205 -0.019575149 0.18076256 -0.12172704 0.31354672
0.048496205 -0.12649956 0.03360954 -0.10655206 0.11386424 -0.2370409 -0.03260431 -0.17833364
-0.2761425 0.14491773 -0.03119093 -0.04753201 -0.023255054 0.4828949 -0.42096367 -0.34320268
0.40511993 0.21558692 -0.0153375445 -0.19196437 0.5532396 0.15771796 -0.12909348 -0.04398601
0.08212425 -0.13724592 -0.0120465625 -0.13001996 0.051346365 -0.0410471 0.18529433 -0.39265293
-0.10341007 0.17995073 0.104569785 0.119259365 -0.065354764 -0.20521995 -0.437475 -0.22093253
-0.07023266 0.071866035 0.004809289 -0.15299982 0.28666693 -0.08310405 0.1057621 0.5475968
00000000: 4aa6 01be bb88 88bb 2a55 60bd a766 353e
00000010: 641c ee3c ad1c 7a3e ba5d 6dbe 74e5 60be
00000020: c644 86bd 451d f93d 60dd 9dbd 304b 95be
00000030: eb25 e33d 7c89 6c3d f494 723e b2be 96be
00000040: 3459 443c e37e 14bc 37c8 d8bd 31c5 94bc
00000050: 337b a2be 7bdd 20bd 0e5e a93e 42dd e93c
00000060: 422f de3e 5c02 723e bb70 83bd fb2d 8e3e
00000070: 5e82 b3bc 9fb1 ab3c 38c4 61bd 0eda 483c
00000080: 9609 9c3c 7efe 8e3d 00bb 523c ff84 433e
00000090: 01f8 083e 665d 9abe bdde b8bc 0c61 51bd
000000a0: 2ef4 d33e a305 d3be ad72 693e 0523 5dbd
000000b0: 810e 353e db22 a23d ffda 2b3d c405 a8bd
000000c0: 85dd ddbd 477b ac3c 5535 123e aa7e 1a3e
000000d0: 01fe 6dbe 1139 ff3d 90c9 943d 51f3 21bf
000000e0: 6bf6 5d3d 43dc 293e 1efc 96be c951 81be
000000f0: eab2 323e b8b2 bbbd 863b 3b3e ee9b 29be
00000100: b50e 3cbe e52e 2dbb 0621 abbc ae18 e83e
00000110: b8a3 9cbe 8d29 f9bd 0dba 40bd 680b acbe
00000120: 0465 5dbc 51c5 b23c 4043 7c3e eabb 5a3e
00000130: 5622 e33d 01cc a93e da2a cfbe 1601 88be
00000140: bec3 febd a024 143f e8c5 a9bd bc17 4b3e
00000150: eb14 8bbe e36d 3d3e 42c7 33be c283 ec3d
00000160: 802e 503e 5e22 f83d 8908 ae3d 7009 163b
00000170: 9c9c b03e 5488 6a3e 99bc dcbc f7ec cabc
00000180: 06cc fbbd 1bfc 0abe e5e1 61be 7bdd 53be
00000190: b0fa 603b 3e02 193d b944 9a3d 9292 ba3d
000001a0: bdb7 25be 9143 22bd 3baa c5bd 0995 a4bb
000001b0: 4f59 25be 81d7 133e f098 1abd e89a 833e
000001c0: a884 9b3c 99ac 123e af8b adbe fca5 cebd
000001d0: 58a8 8fbd 65be c5be b54b 4f3d a9e2 573e
000001e0: c04c 10be 0d6c 71be 36c9 123d 8d90 343e
000001f0: f1f7 5bbd 76dd abbe 63cf 683e 2ffb e3be
00000200: 04bb c03d 84ec 05bf 95f2 a1bd 0985 ffbd
00000210: c94d d93d 6890 003f 0212 43bd 220f 17be
00000220: 57ea e33d 5b41 00bd a56a e2be 76ed a7bd
00000230: a615 a3be 82ca 9dbe a669 dd3e 9ff7 6f3e
00000240: a121 923d a03e 8f3e 9665 bd3d 26e5 673e
00000250: 37f7 dfbe 6690 66be cdcf 4abd 37b1 b4bd
00000260: e9c9 ab3e 6189 07bf 2528 863c 18ae eb3d
00000270: c6fb 70bc 3b00 f23d 0a51 b4bd e4cc f43d
00000280: a3f8 10bc 7cfa 52be 170f a83e 6e05 433d
00000290: 86c8 6f3e affc 12be b801 57be ec3d 4cbe
000002a0: efb7 acbb 924e 0dbe 9fe7 73bb f3c5 433e
000002b0: 17fb c0be b40d 29be a4cc 283d 4faa b2bd
000002c0: 0f95 5dbe e669 d6bd 5d4c 953e 613c afbe
000002d0: 1507 2a3e 3e6d 823e 5568 c7be 156f d6be
000002e0: 5a0c 7cbd b102 8abe 2136 85be 53f6 a8be
000002f0: cf7b b63e 796c aeb9 efe1 10bf 0aaa 5a3d
00000300: 19f2 82be ee3e 95be 6aa5 bcbd d058 a2bd
00000310: 4f0c d23e c0e9 c5be e232 37be 914c 5c3e
00000320: ccf2 40bb 0aea babd ec0f 2cbf f2a3 9abe
00000330: 105c a0bc d219 393e 074c f9bd 3289 a03e
00000340: f5a3 463d 1a89 01be 28aa 093d f737 dabd
00000350: a831 e93d daba 72be 198c 05bd 189d 36be
00000360: 8d62 8dbe 5065 143e 1f84 ffbc edb0 42bd
00000370: 6281 bebc 003e f73e 8d88 d7be 43b8 afbe
00000380: e16b cf3e d1c2 5c3e 534a 7bbc 4f92 44be
00000390: 1ca1 0d3f d180 213e 1531 04be ad2a 34bd
000003a0: c230 a83d 328a 0cbe f25e 45bc f423 05be
000003b0: 9150 523d 0121 28bd ccbd 3d3e ce09 c9be
000003c0: a9c8 d3bd 0145 383e af28 d63d 413e f43d
000003d0: b8d8 85bd 2e25 52be b9fc dfbe 233c 62be
000003e0: 24d6 8fbd 802e 933d 3d97 9d3b fcab 1cbe
000003f0: 02c6 923e 7532 aabd cd99 d83d 4e2f 0c3f

bias f4 [32]
0.02090504 0.14332348 0.08555888 -0.13367979 0.16582854 -0.2234519 -0.07228509 0.026824228
-0.15812129 -0.11272166 -0.21327545 -0.2215175 0.0414368 -0.123257264 -0.15740481 -0.15835601
-0.043843023 0.05209401 0.039970566 0.079404116 0.18004027 -0.13592218 -0.2469436 0.116847
-0.14733842 -0.035356533 0.029228538 -0.03268293 0.06842224 -0.002151911 0.022544784 0.024867848
00000000: 0c41 ab3c 64c3 123e 7e39 af3d 5be3 08be
00000010: f5ce 293e 93d0 64be 350a 94bd 7cbe db3c
00000020: 8cea 21be 9dda e6bd e164 5abe 7cd5 62be
00000030: a2b9 293d 4e6e fcbd ba2e 21be 1428 22be
00000040: be94 33bd 8760 553d 2db8 233d a09e a23d
00000050: 7a5c 383e 2f2f 0bbe c8de 7cbe 7b4d ef3d
00000060: e2df 16be 03d2 10bd b070 ef3c 89de 05bd
00000070: f620 8c3d 1307 0dbb d7af b83c a8b7 cb3c

weight f4 [32, 32]
-0.024378328 -0.23446836 -0.11606757 -0.16558774 -0.022178382 0.001130827 0.11913626 -0.19643128
-0.125221 -0.39354238 -0.11968888 -0.29310334 -0.06603412 0.06408528 0.29833966 0.3863221
-0.041759036 0.26618123 -0.6573822 -0.4338378 -0.22119641 0.17356586 -0.25252327 0.27015966
-0.28497234 0.111405164 -0.28125137 -0.030227512 0.041941456 0.087651126 -0.17501734 -0.29848078
-0.20655873 -0.266457 0.2337714 0.17387211 -0.32235676 0.37332273 -0.15748867 0.08863575
-0.6672004 -0.22765468 0.24418937 -0.075689934 0.19331871 -0.43015334 0.20025802 0.14220022
0.19996211 -0.18146418 -0.5405872 0.13047086 -0.1299922 0.56476325 -0.1711842 -0.066872485
-0.12726289 -0.027373623 0.10569094 -0.13266487 -0.035435382 -0.11238474 -0.15273741 -0.10878272
0.2908969 -0.07532113 -0.210598 -0.078897536 0.37715206 -0.20082602 0.16744654 0.3290577
0.20955506 -0.28319913 -0.13502187 0.15360746 -0.031004826 -0.01159426 0.0027774412 0.10638918
-0.2127907 0.01602868 -0.09709335 -0.0054400805 -0.27799436 0.019132227 0.07678258 0.2996992
-0.014533289 -0.3622047 0.31667826 -0.23775475 -0.004014648 -0.3032268 -0.44774505 -0.039477862
0.22771977 -0.25784865 0.19605292 -0.1117114 0.37836325 0.03160465 -0.01784573 0.19482942
0.28638068 -0.058559254 -0.054160498 -0.1186579 0.24239177 0.3107406 0.21253586 0.04948816
-0.18622132 -0.18270338 0.102551356 -0.26236254 -0.16964154 0.23502596 -0.0896991 -0.10058725
0.345404 -0.0008540008 0.07943209 -0.43563056 0.26204443 -0.24294859 0.15453836 -0.23921522
-0.37124407 0.27336785 0.17312619 0.24459751 -0.38374656 -0.022095874 0.2845009 0.004497062
0.0017094448 -0.47051013 -0.37695697 -0.14326005 0.06360687 -0.04142019 0.11009695 0.25416306
0.091334194 0.13170275 -0.1396574 -0.030236064 -0.10574718 0.13101701 0.13912705 -0.15928619
-0.1374105 -0.061127976 -0.054581646 -0.024047805 -0.32899985 -0.15621755 -0.046561006 0.21745732
-0.29511267 -0.21917357 0.24597217 -0.22910255 -0.055206556 -0.037625078 0.051225927 0.039885975
-0.20052421 -0.3411175 -0.39420038 -0.49487272 -0.024823733 -0.061398543 -0.1568266 0.117317155
-0.056732878 -0.13794783 0.01677337 0.1928785 -0.10882556 0.053342965 0.09282113 -0.41680217
0.13891977 0.076648474 0.076980025 -0.16326661 -0.36881182 -0.6569574 -0.42295268 0.15887183
-0.20563194 0.035411872 -0.13249901 0.07107664 0.05209583 0.1363906 -0.047959782 0.34451813
-0.35264796 -0.3573463 0.19756505 -0.08481709 -0.20604438 0.07648932 0.2395305 -0.027577326
0.10534979 -0.29125458 0.48467243 0.19127135 -0.12016477 -0.14972185 -0.03407173 0.3402621
-0.09097024 -0.026707446 0.39273244 -0.46139783 0.00447218 0.12537912 0.17319472 -0.05318303
0.23343478 0.2754721 0.39694193 -0.21627614 0.0077904137 0.18472132 0.048446767 -0.1374171
0.16834378 0.09705293 -0.1270966 0.059353825 -0.28139693 0.064093746 -0.0125469165 -0.005156304
0.09351408 0.104461834 -0.35319448 -0.26482564 -0.05333535 -0.09402719 -0.24226075 0.35596865
-0.06964233 -0.26683605 0.037253648 -0.020955255 0.39649856 -0.35082906 -0.2571274 0.065009475
00000000: 0fb5 c7bc 7918 70be d6b4 edbd d58f 29be
00000010: 70af b5bc 4238 943a b6fd f33d 4825 49be
00000020: ef39 00be 637e c9be 721f f5bd a411 96be
00000030: e63c 87bd 253f 833d fabf 983e 03cc c53e
00000040: 860b 2bbd e848 883e 334a 28bf fd1f debe
00000050: 5081 62be 40bb 313e bb4a 81be 5e52 8a3e
00000060: e5e7 91be 6428 e43d 2e00 90be b09f f7bc
00000070: ceca 2b3d 6f82 b33d bf37 33be 79d2 98be
00000080: 2284 53be 0d6d 88be c561 6f3e 880b 323e
00000090: f20b a5be 2824 bf3e b644 21be a986 b53d
000000a0: a5cd 2abf 4f1e 69be c70c 7a3e 5303 9bbd
000000b0: 57f5 453e 0f3d dcbe 7010 4d3e ef9c 113e
000000c0: dec2 4c3e bfd1 39be ec63 0abf 279a 053e
000000d0: ad1c 05be 5394 103f e94a 2fbe 71f4 88bd
000000e0: 3451 02be a63e e0bc 7e74 d83d 4dd9 07be
000000f0: b124 11bd f829 e6bd 3267 1cbe 7ac9 debd
00000100: 70f0 943e f741 9abd 01a7 57be 0895 a1bd
00000110: 131a c13e 56a5 4dbe 1b77 2b3e 407a a83e
00000120: 9a95 563e 7aff 90be 2c43 0abe 464b 1d3e
00000130: d5fd fdbc daf5 3dbc bb05 363b 92e2 d93d
00000140: cee5 59be 944e 833c e1d8 c6bd b442 b2bb
00000150: 4755 8ebe 30bb 9c3c 2f40 9d3d 2c72 993e
00000160: 081d 6ebc e572 b9be a723 a23e fb75 73be
00000170: 4f8d 83bb 8b40 9bbe d73e e5be 8ab3 21bd
00000180: 5f2f 693e bd04 84be 19c2 483e f2c8 e4bd
00000190: d4b8 c13e e173 013d 3531 92bc 5d81 473e
000001a0: 7da0 923e d4db 6fbd 66d7 5dbd ea02 f3bd
000001b0: 8c35 783e 6419 9f3e 00a3 593e 19b4 4a3d
000001c0: cdb0 3ebe 9816 3bbe 7206 d23d 6254 86be
000001d0: 83b6 2dbe a5aa 703e 29b4 b7bd b000 cebd
000001e0: cbd8 b03e 06df 5fba 4bad a23d f80a dfbe
000001f0: b02a 863e 84c7 78be 4e3f 1e3e d6f4 74be
00000200: b413 bebe dff6 8b3e fe47 313e c577 7a3e
00000210: 6e7a c4be 6802 b5bc 1aaa 913e 175c 933b
00000220: 730f e03a b4e6 f0be 8100 c1be c3b2 12be
00000230: 5244 823d 38a8 29bd 827a e13d a921 823e
00000240: 6c0d bb3d 16dd 063e 5902 0fbe 9fb1 f7bc
00000250: fa91 d8bd 5329 063e 5277 0e3e eb1b 23be
00000260: 57b5 0cbe 5461 7abd 0191 5fbd e7ff c4bc
00000270: ab72 a8be 7ef7 1fbe c1b6 3ebd 22ad 5e3e
00000280: 0219 97be 096f 60be 21e0 7b3e dc99 6abe
00000290: 4520 62bd c11c 1abd 47d2 513d 7a5f 233d
000002a0: 3856 4dbe f4a6 aebe a2d4 c9be f55f fdbe
000002b0: 245b cbbc 0a7d 7bbd 2797 20be fa43 f03d
000002c0: bc60 68bd 3242 0dbe 4e68 893c f181 453e
000002d0: efdf debd 277e 5a3d 0119 be3d 1867 d5be
000002e0: fc40 0e3e e0f9 9c3d b4a7 9d3d 5d2f 27be
000002f0: e7d4 bcbe 5c2e 28bf 418d d8be 4caf 223e
00000300: 2e91 52be 0a0c 113d d2ad 07be a190 913d
00000310: 7062 553d faa9 0b3e 7a71 44bd ae64 b03e
00000320: 468e b4be 18f6 b6be 7e4e 4a3e 95b4 adbd
00000330: 4cfd 52be 6fa6 9c3d 7c47 753e d8e9 e1bc
00000340: a1c1 d73d 521f 95be fc26 f83e a3dc 433e
00000350: f218 f6bd af50 19be cc8e 0bbd d536 ae3e
00000360: 9b4e babd 93c9 dabc 3a14 c93e 563c ecbe
00000370: 5d8b 923b 6263 003e f559 313e 73d6 59bd
00000380: 8709 6f3e ae0a 8d3e f93b cb3e 7e77 5dbe
00000390: ba46 ff3b 9627 3d3e 1e70 463d 11b7 0cbe
000003a0: 5062 2c3e b0c3 c63d 9c25 02be ff1c 733d
000003b0: 4213 90be 9543 833d 9591 4dbc 37f6 a8bb
000003c0: 4f84 bf3d 16f0 d53d e8d5 b4be 3a97 87be
000003d0: 2b76 5abd 5491 c0bd 3413 78be 8641 b63e
000003e0: a3a0 8ebd bc9e 88be 4897 183d 5baa abbc
000003f0: dc01 cb3e de9f b3be 34a6 83be b023 853d

bias f4 [32]
0.14784575 -0.12796839 -0.076743074 0.16248111 -0.07960591 -0.11682169 -0.16299653 0.05664702
0.02810499 -0.07753441 -0.12715748 -0.083595686 0.16233982 0.0767872 -0.031013502 0.08836988
-0.07352048 -0.18323469 -0.047661204 -0.08596352 -0.07818845 0.102818154 -0.06321638 0.03760859
0.14980595 -0.053958483 0.1626597 0.013808591 -0.11376807 -0.1419024 -0.14899592 -0.072956935
00000000: e064 173e 250a 03be 792b 9dbd 7361 263e
00000010: 6c08 a3bd 3640 efbd 90e8 26be b506 683d
00000020: 703c e63c 5cca 9ebd 9235 02be 3734 abbd
00000030: 693c 263e 9c42 9d3d 0710 febc 45fb b43d
00000040: e891 96bd e0a1 3bbe 6538 43bd a40d b0bd
00000050: 4421 a0bd 5392 d23d 9777 81bd 770b 1a3d
00000060: bb66 193e 9203 5dbd 4490 263e 6e3d 623c
00000070: 3cff e8bd dd4e 11be 6392 18be 726a 95bd

weight f4 [1, 32]
0.40300483 -0.0050731157 0.036459763 0.117237516 0.065029345 -0.14539799 -0.22131644 -0.2993608
-0.03472991 0.016289975 -0.20384149 0.021202479 0.18490165 0.15420786 -0.010669467 0.32825473
-0.023735754 -0.08493575 -0.005349697 0.0066853454 0.14665514 0.2877564 -0.09277586 0.25256908
0.13907525 0.033480447 0.2531765 -0.20178491 0.24855791 -0.22095777 -0.2840166 -0.06003659
00000000: a656 ce3e 613c a6bb d556 153d 391a f03d
00000010: 1b2e 853d 36e3 14be c7a0 62be d245 99be
00000020: f340 0ebd 8e72 853c d3bb 50be d2b0 ad3c
00000030: dc56 3d3e aae8 1d3e fdce 2ebc 0111 a83e
00000040: 7c71 c2bc cbf2 adbd 834c afbb be10 db3b
00000050: c42c 163e cf54 933e 4501 bebd bc50 813e
00000060: be69 0e3e cb22 093d 5aa0 813e b4a0 4ebe
00000070: f785 7e3e c142 62be a06a 91be ede8 75bd
