Models/model-A-8.pt (torch, 34543 bytes, 9 tensors)

weight f4 [32, 86]
0.007582834 0.008523446 -0.047544498 0.11011837 0.10813583 -0.11738366 -0.19439183 0.100215465
-0.058626737 0.009317871 -0.13973063 -0.11516416 0.13448225 0.10631128 -0.123026945 -0.066408075
0.09209759 0.05217057 0.0119181685 -0.25374886 0.09254709 0.067615986 -0.02380925 0.0014820837
-0.2562916 0.14593105 0.07516455 -0.102004215 0.20425133 -0.09310466 0.019428583 0.13770878
0.104621805 -0.2233226 0.17702036 -0.0027569858 -0.093029454 0.13359527 0.106686585 0.051120404
-0.17611974 0.0050914385 0.056515794 0.044583093 -0.2893855 -0.22328016 0.06555291 0.008762773
-0.1984504 0.025710834 0.039398573 -0.053734533 -0.045971002 0.09487122 -0.023465399 0.26154733
0.17530882 0.19771695 -0.06538677 0.057455607 0.14461762 -0.12692943 -0.10891072 0.1896901
0.045362297 0.13480951 0.11325942 -0.20494953 0.15469924 0.1420559 0.19893603 0.17348534
0.15993221 -0.056650024 0.3560884 -0.020750837 0.023987908 -0.078370325 0.043124884 -0.06247869
0.03079026 0.05493064 0.27359074 -0.11752596 0.042407252 0.18894757 -0.1258478 0.013507805
-0.047149953 0.12201146 -0.22457087 0.10741473 0.058692243 -0.10045106 -0.19464676 -0.022187227
0.02039346 -0.351475 -0.05563987 -0.13453388 0.11214206 0.026010638 -0.11751557 -0.15477249
0.10286957 -0.10812227 0.18233097 -0.044507302 0.25862777 0.38206986 -0.29253164 -0.1580896
-0.10323977 -0.1285675 -0.09116604 0.07253152 -0.20054804 0.113487415 0.15796864 0.24253505
-0.069714226 -0.16385722 0.029653322 0.20227396 -0.07048784 -0.036119968 -0.04728837 0.17721741
-0.07867357 0.033102382 0.12418368 -0.0695388 0.22993703 0.1782961 -0.06423003 0.1178402
-0.33766454 0.2899193 0.12572277 0.08845096 -0.07500056 0.16122034 0.033364173 -0.3033486
-0.21242563 0.05775897 0.09228496 0.15618853 0.083200336 -0.07578826 0.14361435 -0.051572148
0.07780813 -0.22576217 0.062995575 0.2967013 0.28141567 0.12879314 0.02489574 -0.2677562
0.078041874 -0.023069791 -0.16221571 0.071082965 -0.29256058 -0.14380468 0.21518247 -0.09697071
-0.15090808 0.09225608 -0.2840264 0.11521581 -0.04601556 0.30662736 -0.15102214 -0.17075822
-0.072990276 -0.23352452 0.08934227 -0.009452987 0.27062067 0.07645119 -0.33625492 -0.2002161
0.07266638 0.06344577 -0.06303403 -0.19854046 0.14518985 -0.049823146 -0.007971256 0.41321382
0.019789618 0.1285918 0.06687877 -0.25859624 -0.10784928 0.07966854 -0.001996337 -0.07683973
0.23112959 -0.004097282 -0.1563478 0.13375768 0.14828943 0.23666994 -0.07957669 -0.02579343
-0.15886946 0.25179636 -0.09724795 0.031131212 -0.049935054 0.0711878 -0.029425114 0.01779302
0.3761283 0.21408083 -0.09433557 0.12968434 0.052104305 0.30082038 -0.032747764 -0.3263879
-0.31964567 0.14542294 0.06282027 -0.23346141 -0.25496802 0.28199393 -0.33496544 0.10421144
-0.015577469 -0.08217598 0.06352943 -0.17541525 0.14994912 -0.1070627 -0.09213526 -0.09867204
-0.11169646 -0.3409089 -0.04839419 -0.051137604 -0.13726391 0.07368887 -0.14966245 0.10238716
0.1439261 -0.09945673 0.14623168 -0.117893174 0.09513777 -0.011913509 -0.24684969 -0.003981355
00000000: 6c79 f83b eca5 0b3c 05be 42bd bd85 e13d
00000010: 5176 dd3d d866 f0bd a70e 47be c43d cd3d
00000020: 9722 70bd fca9 183c 8c15 0fbe 30db ebbd
00000030: b7b5 093e bab9 d93d 8df5 fbbd f500 88bd
00000040: a99d bc3d cfb0 553d 6c44 433c 5feb 81be
00000050: 5489 bd3d 407a 8a3d 9e0b c3bc 7a42 c23a
00000060: a738 83be f36e 153e dfef 993d 96e7 d0bd
00000070: 4327 513e a8ad bebd b128 9f3c 8803 0d3e
00000080: f543 d63d aeae 64be d344 353e 8cae 34bb
00000090: 3a86 bebd 33cd 083e 7f7e da3d a163 513d
000000a0: bc58 34be 15d6 a63b 1b7d 673d c39c 363d
000000b0: 562a 94be 8ea3 64be 9b40 863d bc91 0f3c
000000c0: 9536 4bbe 879f d23c 6660 213d be18 5cbd
000000d0: 174c 3cbd d84b c23d 823a c0bc 88e9 853e
000000e0: 2884 333e 5076 4a3e 80e9 85bd 9256 6b3d
000000f0: a416 143e caf9 01be 950c dfbd 1f3e 423e
00000100: d1cd 393d 810b 0a3e 8ef4 e73d 4ade 51be
00000110: 7a69 1e3e 1a77 113e e3b5 4b3e 24a6 313e
00000120: 45c5 233e db09 68bd 3851 b63e a9fd a9bc
00000130: 4a82 c43c 9f80 a0bd b8a3 303d a8e9 7fbd
00000140: db3b fc3c f3fe 603d 1614 8c3e 73b1 f0bd
00000150: 3ab3 2d3d 797b 413e 3fde 00be d74f 5d3c
00000160: 4f20 41bd 25e1 f93d e8f5 65be 41fc db3d
00000170: 4767 703d 49b9 cdbd 7b51 47be fdc1 b5bc
00000180: 2f10 a73c 88f4 b3be a2e6 63bd 40c3 09be
00000190: bdaa e53d 4314 d53c 01ac f0bd ae7c 1ebe
000001a0: 48ad d23d 356f ddbd f8b4 3a3e 4a4d 36bd
000001b0: dc6a 843e a99e c33e b5c6 95be 3de2 21be
000001c0: 5f6f d3bd 33a7 03be 43b5 babd 688b 943d
000001d0: 775c 4dbe 176c e83d 88c2 213e 1c5b 783e
000001e0: 55c6 8ebd 30ca 27be 86eb f23c e820 4f3e
000001f0: ee5b 90bd 88f2 13bd 73b1 41bd 7b78 353e
00000200: 9c1f a1bd 5d96 073d 0354 fe3d 5c6a 8ebd
00000210: 9d74 6b3e 4193 363e 098b 83bd 3456 f13d
00000220: 5ee2 acbe 4d70 943e 78bd 003e c725 b53d
00000230: e599 99bd f216 253e dfa8 083d 8250 9bbe
00000240: 1b86 59be ab94 6c3d e6ff bc3d e3ef 1f3e
00000250: f064 aa3d e036 9bbd a40f 133e 513d 53bd
00000260: de59 9f3d 332e 67be d303 813d 3ce9 973e
00000270: b715 903e 59e2 033e 27f2 cb3c 5717 89be
00000280: 6bd4 9f3d dcfc bcbc e01b 26be f293 913d
00000290: 80ca 95be 8941 13be cb58 5c3e 9498 c6bd
000002a0: a687 1abe c1f0 bc3d e96b 91be 44f6 eb3d
000002b0: d07a 3cbd 43fe 9c3e 8ca5 1abe 3edb 2ebe
000002c0: ed7b 95bd 0d21 6fbe 14f9 b63d b4e0 1abc
000002d0: cb8e 8a3e 7192 9c3d 9b29 acbe 7305 4dbe
000002e0: 1cd2 943d dbef 813d fc17 81bd 314e 4bbe
000002f0: a6ac 143e 5b13 4cbd df99 02bc c390 d33e
00000300: d61d a23c 92ad 033e bdf7 883d ba66 84be
00000310: 15e0 dcbd 4229 a33d fad4 02bb 265e 9dbd
00000320: 3cad 6c3e 7e42 86bb a319 20be c6f7 083e
00000330: 2fd9 173e 9b59 723e 1bf9 a2bd be4c d3bc
00000340: adae 22be 74eb 803e ef29 c7bd e206 ff3c
00000350: b388 4cbd e9ca 913d f00c f1bc abc2 913c
00000360: e393 c03e 0138 5b3e 0233 c1bd f9cb 043e
00000370: 536b 553d 2105 9a3e 8522 06bd 511c a7be
00000380: 99a8 a3be c0e9 143e eaa7 803d 8210 6fbe
00000390: 2b8b 82be 8261 903e 9780 abbe cf6c d53d
000003a0: a438 7fbc e14b a8bd b81b 823d 0ea0 33be
000003b0: 438c 193e b043 dbbd 69b1 bcbd 9114 cabd
000003c0: 1dc1 e4bd 9d8b aebe fc38 46bd aa75 51bd
000003d0: e98e 0cbe 31ea 963d 1d41 19be 5cb0 d13d
000003e0: 5d61 133e f8af cbbd c2bd 153e fa71 f1bd
000003f0: 97d7 c23d e130 43bc 2ac6 7cbe 0776 82bb

bias f4 [32]
-0.06394523 0.050043046 0.12027985 -0.009638267 0.09591475 0.07238628 -0.092232294 -0.14121631
-0.11857966 0.05348171 0.09088152 0.026433038 -0.11383317 -0.06446668 0.004974821 -0.0602841
0.094055966 -0.07951797 -0.033349473 -0.05717364 -0.046815444 -0.07011964 0.058235124 0.07271288
0.07542398 -0.040928975 -0.04306043 0.030294431 0.116509125 0.068759926 -0.040215008 -0.0066972333
00000000: b7f5 82bd f0f9 4c3d 4855 f63d d2e9 1dbc
00000010: f46e c43d 423f 943d 49e4 bcbd 029b 10be
00000020: e5d9 f2bd a30f 5b3d 1720 ba3d 198a d83c
00000030: 5d21 e9bd 1b07 84bd d303 a33b 76ec 76bd
00000040: 6aa0 c03d 51da a2bd 7599 08bd e82e 6abd
00000050: 8dc1 3fbd e39a 8fbd f487 6e3d 7eea 943d
00000060: e377 9a3d 24a5 27bd 2260 30bd 072c f83c
00000070: 569c ee3d 01d2 8c3d 7eb8 24bd 7774 dbbb

weight f4 [32, 32]
-0.026633231 0.12130334 -0.13012922 -0.11362305 -0.14089477 -0.23451968 -0.2377107 -0.22025536
0.3811265 -0.3700004 0.015016545 -0.04794131 -0.0111530265 -0.053723074 0.33504412 -0.4247563
-0.10816945 0.021214522 0.031442977 -0.063737676 -0.004230864 -0.1245932 -0.1943632 0.2373238
-0.07878079 -0.103518955 -0.03346572 0.15095052 0.005664959 -0.21815184 0.028836992 -0.3288418
-0.23564836 -0.10706657 0.0538455 -0.26849324 0.49800068 0.12753119 0.41672635 -0.06552705
-0.22234547 -0.060638905 0.05747235 0.22187443 -0.15522876 -0.20213616 0.32761493 0.059075937
-0.17968066 -0.30443588 0.19032504 0.4288489 -0.14521079 0.64915866 0.22858356 0.070372656
0.15151335 0.12669308 -0.17529927 0.0526888 -0.61265004 -0.64390606 -0.17202191 0.06401855
0.0076038428 -0.21824887 -0.113471694 -0.101549536 -0.38673806 -0.38405502 0.1970913 0.36408663
0.5449508 0.06699705 0.35540217 0.34246513 0.34270492 0.17660603 0.29082513 0.13163033
0.063753754 -0.21057267 -0.11201713 -0.105145015 -0.17628376 -0.18554747 0.12333718 -0.2098737
0.08623701 -0.07268279 -0.122918315 0.16242996 -0.01924211 0.06942432 0.08545262 0.07638559
0.20864202 0.17248891 0.16226149 -0.41951016 0.2811285 0.11784332 -0.4454224 0.3712268
0.5589757 0.14892997 0.090753414 -0.08983938 -0.38281655 -0.18083665 0.53942114 -0.39153448
-0.11358662 0.51327693 0.43287343 -0.15937391 0.23619592 -4.2823725e-05 -0.31949425 0.13077916
-0.49213243 -0.2997087 0.06333883 -0.0550103 0.37492046 0.20147768 -0.047026366 -0.04553768
0.26305065 -0.177373 0.030540723 0.46052015 -0.356378 0.05741274 -0.29350913 0.22072507
-0.08391955 0.20124695 0.37948632 0.018392814 -0.5183458 0.019381737 -0.18584391 -0.0073319757
0.032179806 0.007851811 -0.02042343 -0.09713344 0.21666643 -0.19249974 0.0052707517 0.19435321
-0.30300713 0.04031094 -0.14569291 0.070845954 0.037920795 -0.18773718 -0.37285832 0.019193394
-0.113292836 0.07711203 0.10498321 -0.060802408 0.11456141 0.3319846 0.23974173 0.115209475
-0.26170996 -0.2539174 0.20963341 -0.45405787 0.44949105 0.44774178 0.032855365 -0.26696602
0.20852417 -0.083849505 0.055505753 0.28315195 -0.07366752 -0.12024195 -0.076711826 -0.10443854
0.26876733 -0.1940056 -0.046142608 -0.27489263 -0.08003239 -0.06888761 -0.10148073 0.2558127
0.16547662 0.44456124 -0.08781537 0.28509316 -0.23849021 -0.12919167 0.055342253 -0.0083684595
-0.13908441 0.46269745 0.4311822 0.19947231 0.39346036 0.16344431 -0.15678826 -0.23036952
0.20499271 -0.3817128 0.15702437 0.09182599 -0.07701033 -0.038219716 0.16238348 0.55712163
-0.029036786 -0.5276686 -0.041993234 0.0017592106 0.28631914 -0.1600739 0.017070066 -0.21645713
-0.17943569 -0.23619479 0.050049543 -0.26398015 0.038728204 0.04275522 -0.09951654 -0.29076302
-0.22054838 -0.24404044 -0.40027782 -0.2197749 0.34444377 0.46007586 0.27114996 -0.04679385
0.21796155 0.18539019 -0.1184447 -0.008205718 0.24632284 0.2878893 0.1266028 0.09930016
-0.28689167 -0.30064452 0.03339556 0.1801193 -0.16212814 0.039677087 0.21330728 -0.061529916
00000000: ef2d dabc e36d f83d 9840 05be 34b3 e8bd
00000010: b846 10be ed25 70be 6f6a 73be 9f8a 61be
00000020: 0323 c33e b170 bdbe f407 763c 1b5e 44bd
00000030: 2fbb 36bc ba0c 5cbd e78a ab3e a879 d9be
00000040: f287 ddbd 14ca ad3c 5aca 003d e688 82bd
00000050: 0fa3 8abb b82a ffbd 2607 47be 0305 733e
00000060: d357 a1bd bf01 d4bd 5a13 09bd c692 1a3e
00000070: 1fa1 b93b 3263 5fbe 8e3b ec3c f45d a8be
00000080: ce4d 71be b845 dbbd 198d 5c3d f277 89be
00000090: f2f9 fe3e 8997 023e 285d d53e 0c33 86bd
000000a0: 88ae 63be 8060 78bd 2068 6b3d 0d33 633e
000000b0: 4af4 1ebe c8fc 4ebe 25bd a73e 9cf9 713d
000000c0: 35fe 37be 05df 9bbe 91e4 423e 1592 db3e
000000d0: 23b2 14be 432f 263f cf11 6a3e 8a1f 903d
000000e0: 5126 1b3e d5bb 013e a781 33be 36d0 573d
000000f0: a2d6 1cbf 07d7 24bf 8326 30be 281c 833d
00000100: a829 f93b a27c 5fbe d963 e8bd 34f9 cfbd
00000110: 8802 c6be dca2 c4be 4dd2 493e 9069 ba3e
00000120: e581 0b3f c035 893d 46f7 b53e 9757 af3e
00000130: 0577 af3e 36d8 343e 08e7 943e 1aca 063e
00000140: 5491 823d 5da0 57be 3d69 e5bd 4556 d7bd
00000150: bb83 34be 2800 3ebe 3498 fc3d 22e9 56be
00000160: 089d b03d b7da 94bd 99bc fbbd 0a54 263e
00000170: a1a1 9dbc 562e 8e3d c901 af3d 0c70 9c3d
00000180: 41a6 553e efa0 303e e027 263e 09ca d6be
00000190: 13f0 8f3e d757 f13d 680e e4be 7011 be3e
000001a0: 0819 0f3f 1981 183e eddc b93d b5fd b7bd
000001b0: 8800 c4be 3e2d 39be 8117 0a3f 3577 c8be
000001c0: 1aa0 e8bd 1e66 033f 96a1 dd3e ea32 23be
000001d0: 58dd 713e a09d 33b8 c094 a3be f9ea 053e
000001e0: c8f8 fbbe 6b73 99be cab7 813d 7b52 61bd
000001f0: 93f5 bf3e 2a50 4e3e b89e 40bd b885 3abd
00000200: 93ae 863e 45a1 35be 8a30 fa3c 4cc9 eb3e
00000210: 2d77 b6be 9f29 6b3d d446 96be c105 623e
00000220: 03de abbd ae13 4e3e 084c c23e 87ac 963c
00000230: 4fb2 04bf 73c6 9e3c de4d 3ebe 1241 f0bb
00000240: f9ce 033d e2a4 003c 094f a7bc e6ed c6bd
00000250: cedd 5d3e a71e 45be 45b6 ac3b 8704 473e
00000260: c023 9bbe 161d 253d 8630 15be af17 913d
00000270: d652 1b3d 2d3e 40be 49e7 bebe 773b 9d3c
00000280: 1306 e8bd e9ec 9d3d 7001 d73d f20b 79bd
00000290: 2c9f ea3d e3f9 a93e db7e 753e f2f2 eb3d
000002a0: d9fe 85be 7601 82be 24aa 563e 467a e8be
000002b0: b123 e63e 693e e53e 5993 063d c5af 88be
000002c0: 5c87 553e 4ab9 abbd 005a 633d 4bf9 903e
000002d0: ffde 96bd 6941 f6bd 171b 9dbd e0e3 d5bd
000002e0: df9b 893e 67a9 46be 0800 3dbd babe 8cbe
000002f0: 06e8 a3bd f314 8dbd 21d5 cfbd e2f9 823e
00000300: b472 293e 889d e33e 8bd8 b3bd bbf7 913e
00000310: c736 74be d24a 04be 8fae 623d dd1b 09bc
00000320: 256c 0ebe aee6 ec3e eac3 dc3e 7842 4c3e
00000330: a373 c93e f25d 273e 1a8d 20be fde5 6bbe
00000340: 9ce9 513e dc6f c3be ffca 203e 440f bc3d
00000350: 98b7 9dbd 478c 1cbd db47 263e 869f 0e3f
00000360: 8ede edbc 4a15 07bf 1901 2cbd 5095 e63a
00000370: 6c98 923e 6aea 23be 86d6 8b3c f0a6 5dbe
00000380: fdbd 37be 0cdd 71be c000 4d3d 6828 87be
00000390: 77a1 1e3d 1920 2f3d 54cf cbbd e4de 94be
000003a0: 6fd7 61be bde5 79be 37f1 ccbe ac0c 61be
000003b0: ef5a b03e 108f eb3e 2bd4 8a3e e8aa 3fbd
000003c0: 5031 5f3e edd6 3d3e 2393 f2bd 4771 06bc
000003d0: 0e3c 7c3e 3a66 933e 2aa4 013e e25d cb3d
000003e0: 77e3 92be 14ee 99be c8c9 083d 3271 383e
000003f0: eb04 26be 7184 223d 396d 5a3e cb06 7cbd

bias f4 [32]
0.008351036 0.019287731 -0.005861142 0.17803484 -0.06673129 0.077968344 -0.15399161 0.030026902
-0.15562886 0.06619511 -0.031636126 -0.013434074 -0.04299103 -0.016438376 0.12251592 0.07873443
-0.1468578 0.048751358 -0.1866827 -0.04570347 0.12883411 0.0088118045 -0.032928668 -0.15117921
-0.12530921 0.057795364 0.01827901 0.018011333 -0.0180691 0.16244969 0.094987914 -0.17826474
00000000: c9d2 083c 4e01 9e3c d30e c0bb c44e 363e
00000010: 6aaa 88bd dead 9f3d faaf 1dbe fafa f53c
00000020: 2c5d 1fbe 4d91 873d e294 01bd 971a 5cbc
00000030: 5d17 30bd c6a9 86bc a0e9 fa3d 843f a13d
00000040: e461 16be 81af 473d c029 3fbe 9033 3bbd
00000050: 17ed 033e 635f 103c 36e0 06bd b9ce 1abe
00000060: 0f51 00be d5ba 6c3d ddbd 953c 818c 933c
00000070: a605 94bc 3659 263e 0689 c23d 088b 36be

weight f4 [32, 32]
0.025516994 -0.28278044 -0.043753553 -0.33842894 0.006821188 -0.017302688 -0.115802884 -0.09354151
-0.38114607 0.2986818 0.027917556 0.07483043 -0.23128611 -0.36115795 0.05971717 -0.46303716
-0.47623557 -0.14847477 -0.071585014 -0.24237692 0.07432401 0.046814516 -0.111727744 -0.19546379
0.09789932 -0.19001286 -0.2635802 0.24716678 0.11565944 -0.17782429 -0.04754516 -0.0010647445
-0.14507493 0.026949763 -0.4070526 0.028229963 -0.21288401 -0.03370434 0.15762216 -0.045297556
0.25430256 0.20264767 -0.18416269 0.040883124 -0.13659373 0.06155971 0.059211563 0.07675277
-0.032081656 -0.18525957 0.009335848 0.17540468 -0.17146365 -0.08927902 -0.0200249 0.012532127
-0.23627809 -0.28573677 -0.4616481 -0.23289122 -0.17579438 0.29621536 -0.21603617 -0.32636246
-0.1782474 -0.16391492 -0.024599334 0.11518923 -0.27661273 0.16032839 -0.3363345 -0.41980496
0.07373919 0.21294859 -0.19427063 0.22369108 0.101095535 0.07817745 -0.0325228 0.2137298
-0.30479518 0.14727241 -0.19348353 -0.020238154 -0.007825491 -0.19877024 0.28082 0.121185146
-0.03772275 0.41059667 0.2898594 0.29937088 -0.034325976 0.20383756 -0.19191815 -0.15237844
0.11260934 -0.040897507 -0.18146048 -0.13673493 0.22926544 -0.09378851 -0.12487637 0.0015581355
0.10799219 0.17224596 -0.15307271 0.37584615 -0.074822456 -0.13351724 -0.31794748 0.111835666
0.07342056 -0.07437006 0.32969055 -0.29416075 -0.26325628 0.49006256 -0.017193852 0.2127322
-0.18798693 0.11912246 -0.19307196 -0.06956671 -0.43774125 0.49403068 -0.06769869 -0.23722056
-0.29178926 -0.030527826 0.1085603 -0.40020388 0.30545214 0.20239446 0.041273925 -0.1958297
-0.14473467 0.43145296 -0.2270447 -0.12345927 -0.365487 -0.0389396 -0.12338732 -0.46903393
-0.082494475 -0.091090664 -0.3330458 0.3071484 -0.066945225 0.22034694 0.0025549326 0.2009349
0.39006427 0.19787568 0.14131097 -0.4403713 0.2029955 0.09882675 0.23088692 0.29919854
-0.12554038 0.19064835 -0.15797089 0.24295774 0.16909485 0.201923 -0.45180976 -0.1086894
0.018250272 -0.31393248 -0.009497367 0.14607297 0.098152146 0.066359475 -0.16127764 0.13147613
-0.18768643 -0.1197353 0.14273074 -0.12855344 0.23613203 -0.045257002 0.3014325 0.375275
-0.015352179 -0.090408556 -0.27457628 0.14372712 -0.15091033 0.0683232 0.0068879616 -0.3445388
-0.20275527 -0.35821608 0.22178414 -0.11762051 0.013598202 -0.21844518 -0.030655121 0.20843764
0.01744023 -0.26808596 -0.16307086 -0.4499424 0.28887478 -0.18209893 -0.2401745 0.18903083
-0.21555397 0.18490121 0.17507394 0.09528397 0.09314824 0.20060113 0.35811615 0.39235172
-0.105667695 0.7196497 -0.030978939 -0.20966567 0.29009452 -0.27809486 0.16752583 -0.14017507
0.2756309 -0.022971433 0.25810888 0.26564395 -0.16760933 0.16520111 0.096263416 -0.09459842
-0.085963964 -0.11347457 -0.07563608 -0.01429109 -0.055978246 0.16489054 -0.18881854 0.22118069
-0.3818053 0.1778149 0.25601572 0.25323796 -0.36296895 -0.19386342 0.014547253 -0.044622518
0.31324315 0.03816569 0.16483626 -0.14750165 -0.005169497 0.007700281 0.28923833 0.0008557019
00000000: 0409 d13c 99c8 90be ed36 33bd 8f46 adbe
00000010: 4684 df3b 5ebe 8dbc 102a edbd b192 bfbd
00000020: 9425 c3be d2ec 983e 5cb3 e43c b240 993d
00000030: 44d6 6cbe b2e9 b8be fe99 743d 3513 edbe
00000040: 26d5 f3be c509 18be 2a9b 92bd a831 78be
00000050: 3037 983d 94c0 3f3d 84d1 e4bd a927 48be
00000060: 707f c83d bb92 42be fcf3 86be 4a19 7d3e
00000070: dbde ec3d 9217 36be b7be 42bd e68e 8bba
00000080: 868e 14be c0c5 dc3c 3369 d0be 8642 e73c
00000090: 44fe 59be 900d 0abd b467 213e ee89 39bd
000000a0: f233 823e df82 4f3e 2595 3cbe 1075 273d
000000b0: 3adf 0bbe 0926 7c3d d387 723d 8e30 9d3d
000000c0: 0e68 03bd afb4 3dbe 62f5 183c 499d 333e
000000d0: 2b94 2fbe ebd7 b6bd 420b a4bc 8d53 4d3c
000000e0: e2f2 71be 174c 92be 245d ecbe 097b 6ebe
000000f0: 7103 34be 8aa9 973e 9638 5dbe fb18 a7be
00000100: 7d86 36be 50d9 27be 8b84 c9bc 55e8 eb3d
00000110: 2fa0 8dbe 202d 243e 0934 acbe adf0 d6be
00000120: 9304 973d 320f 5a3e e1ee 46be 460f 653e
00000130: 2d0b cf3d 801b a03d a136 05bd fcdb 5a3e
00000140: 1d0e 9cbe 94ce 163e 8c20 46be 7cca a5bc
00000150: 7d36 00bc 6d8a 4bbe a4c7 8f3e eb2f f83d
00000160: 2c83 1abd ba39 d23e 7468 943e 2447 993e
00000170: 6599 0cbd cbba 503e 3186 44be 1809 1cbe
00000180: ba9f e63d 2584 27bd c7d0 39be 3e04 0cbe
00000190: 8fc4 6a3e 3114 c0bd 2fbf ffbd 5a3a cc3a
000001a0: 022b dd3d 3f61 303e 18bf 1cbe e86e c03e
000001b0: 843c 99bd beb8 08be 03ca a2be 190a e53d
000001c0: 855d 963d 544f 98bd 33cd a83e 3d9c 96be
000001d0: 87c9 86be 7be9 fa3e 1fda 8cbc 78d6 593e
000001e0: a57f 40be 7af6 f33d a8b4 45be fe78 8ebd
000001f0: 9f1f e0be 97f1 fc3e 9ca5 8abd f2e9 72be
00000200: 6765 95be 7e15 fabc dd54 de3d 86e7 ccbe
00000210: 3964 9c3e 7e40 4f3e d90e 293d 9587 48be
00000220: 5335 14be 67e7 dc3e 687e 68be 37d8 fcbd
00000230: 1d21 bbbe 217f 1fbd 7eb2 fcbd 3725 f0be
00000240: ddf2 a8bd be8d babd fb84 aabe 8e42 9d3e
00000250: 941a 89bd a1a2 613e a870 273b e1c1 4d3e
00000260: 81b6 c73e ec9f 4a3e d3b3 103e 5978 e1be
00000270: 0dde 4f3e ae65 ca3d 9f6d 6c3e 8d30 993e
00000280: a88d 00be 5239 433e 1fc3 21be eac9 783e
00000290: 3327 2d3e e7c4 4e3e 9c53 e7be 8c98 debd
000002a0: 9881 953c c2bb a0be d89a 1bbc 2794 153e
000002b0: fe03 c93d 7ae7 873d f725 25be aea1 063e
000002c0: df30 40be c837 f5bd 0228 123e 83a3 03be
000002d0: 98cc 713e 685f 39bd 5c55 9a3e 0b24 c03e
000002e0: b587 7bbc 1f28 b9bd 4395 8cbe 342d 133e
000002f0: 3d88 1abe 09ed 8b3d 69b4 e13b 6467 b0be
00000300: 149f 4fbe 1968 b7be 621b 633e 06e3 f0bd
00000310: feca 5e3c 18b0 5fbe 7320 fbbc ad70 553e
00000320: d0de 8e3c 9042 89be 0cfc 26be da5e e6be
00000330: 65e7 933e 2478 3abe 4ef0 75be 4c91 413e
00000340: 2eba 5cbe be56 3d3e 9546 333e 3e24 c33d
00000350: 81c4 be3d 626a 4d3e 005b b73e 53e2 c83e
00000360: 4e68 d8bd f63a 383f 8bc7 fdbc 99b2 56be
00000370: 4587 943e 7362 8ebe e48b 2b3e 0e8a 0fbe
00000380: 7e1f 8d3e 962e bcbc d926 843e 7c02 883e
00000390: c8a1 2bbe 7b2a 293e c125 c53d d1bc c1bd
000003a0: e00d b0bd 5b65 e8bd 17e7 9abd 2d25 6abc
000003b0: 7249 65bd 11d9 283e a659 41be 317d 623e
000003c0: fc7b c3be 1c15 363e 7e14 833e 68a8 813e
000003d0: 11d7 b9be 2284 46be 9a57 6e3c 1ac6 36bd
000003e0: 6861 a03e a053 1c3d d6ca 283e ac0a 17be
000003f0: e264 a9bb a452 fc3b 0c17 943e 2f51 603a

bias f4 [32]
-0.122032985 0.10825985 0.11048258 0.07987199 0.012469139 -0.13510358 0.0207717 -0.14015956
0.05792588 0.026574872 -0.03580163 0.17417085 -0.014176975 0.1666755 0.008846132 -0.20268497
0.061119284 0.058516618 -0.16522625 -0.11794365 0.11704714 -0.10951908 -0.11053772 -0.05753268
0.1102095 0.08837653 0.021738725 0.01778202 0.020710293 -0.12163774 0.057735343 0.009226286
00000000: 6eec f9bd 57b7 dd3d b144 e23d ed93 a33d
00000010: 5c4b 4c3c 9858 0abe 6a29 aa3c fd85 0fbe
00000020: b043 6d3d 8cb3 d93c bba4 12bd d859 323e
00000030: 8b46 68bc fbac 2a3e 5eef 103c a68c 4fbe
00000040: 3758 7a3d 1faf 6f3d 1231 29be 718c f1bd
00000050: 69b6 ef3d 8a4b e0bd 9a61 e2bd 63a7 6bbd
00000060: 85b5 e13d c1fe b43d 6915 b23c 99ab 913c
00000070: a2a8 a93c 351d f9bd e57b 6c3d d929 173c

weight f4 [32, 32]
-0.055292472 -0.2018872 -0.019240813 -0.007954381 0.15515159 -0.15173966 0.03891879 0.45531657
-0.14680679 0.051673956 -0.19538315 -0.34905043 0.0010785364 0.13965182 0.2717318 -0.0013339509
-0.3279252 0.36885747 -0.014590001 -0.41676563 -0.21386999 0.28131333 -0.24583685 0.2748523
-0.4991134 0.2541277 -0.13767584 -0.12257482 -0.2393676 0.3544128 -0.11259844 0.29911217
-0.20757781 0.21624678 0.13968065 -0.08865323 0.04179535 0.29215455 -0.17479755 -0.17026214
-0.34482664 -0.4611254 -0.2330023 0.0315226 -0.3724367 -0.23743743 -0.29572347 -0.28395543
0.2675904 -0.22384626 -0.5494392 -0.2951838 0.52189773 0.12901257 0.37373343 -0.24671467
0.3207216 -0.3132292 0.30927214 0.22951509 -0.0935088 0.19831969 -0.27038532 -0.3814443
0.17740956 -0.047964707 0.25128415 -0.09263956 0.10281177 0.19447523 0.12719677 0.13335901
-0.017396586 0.0068791057 -0.30754542 0.08495808 -0.17741878 0.14343494 -0.06616353 -0.38573566
-0.30351278 0.20033243 -0.14958195 0.19682789 0.030811943 -0.1708394 -0.23534375 -0.23845425
-0.043325663 -0.049610022 -0.3885087 -0.0016398855 -0.055894073 -0.020210179 -0.20458241 0.33227235
0.33033407 0.20807225 -0.25181597 0.10540894 -0.21455826 -0.14216496 -0.076524675 0.20050524
-0.106613964 0.23972811 -0.35194066 0.071302205 0.11383895 0.0511967 0.06123118 0.41649774
-0.18159428 0.34077474 -0.33296984 0.056428835 -0.12937123 0.38801086 -0.4332936 0.2013007
-0.37374544 0.032129098 0.043086577 0.21145661 -0.08107023 -0.46422496 0.17339827 -0.33952257
0.001938984 0.060141504 0.27329284 -0.21007013 -0.09805385 -0.14149927 -0.24096157 -0.20438008
0.31907222 -0.1474917 -0.040930267 0.23353258 0.21884887 -0.028411822 -0.19463885 0.20254827
0.082048595 0.26920623 -0.16302541 0.09090793 -0.07507482 -0.16397773 -0.011469523 -0.091110475
-0.09823241 -0.3967573 0.16421631 -0.3245931 0.29872605 0.17562634 0.27686408 -0.043921363
0.1915644 0.2202993 0.01181678 -0.3566 -0.39661217 0.26716954 -0.30456203 0.11890867
0.19014366 -0.023402896 0.06644568 -0.4503255 0.34893793 -0.19621895 0.22604486 0.3178032
0.19641246 -0.29527262 0.19010136 0.23682661 0.097681314 -0.12152511 0.12071514 0.6149629
0.035472024 0.08249595 -0.21700318 0.21513267 0.2204977 -0.12231937 0.15313943 0.27076554
0.092786655 -0.2793145 0.12420136 -0.41498792 -0.062443323 -0.036145806 -0.048183963 0.38701764
0.21910556 -0.43740824 -0.12908018 -0.06619045 0.1423124 -0.075639956 0.17377295 0.19489698
-0.08003944 0.25002965 -0.26973185 -0.2315692 0.2643508 0.32248378 0.21496724 0.23800334
-0.2854201 0.031384807 -0.2770293 -0.120105185 0.29683086 0.03624852 -0.086823024 -0.46499556
-0.1777559 -0.15588684 0.31283644 0.0061121243 0.043803956 -0.09708087 0.01666644 -0.11725157
0.0901862 -0.3968646 -0.3337752 -0.28739566 -0.054436993 -0.48385984 -0.44044375 0.012139949
0.18602842 0.38126406 0.118490525 0.0046065277 -0.1286317 -0.2122633 -0.16068102 0.05198625
-0.05993035 0.35641155 0.08620274 -0.19470613 -0.031262904 -0.016903369 0.038632784 -0.513311
00000000: 5c7a 62bd 85bb 4ebe e99e 9dbc 1853 02bc
00000010: 0fe0 1e3e a461 1bbe 4f69 1f3d 411f e93e
00000020: 8554 16be 12a8 533d 8512 48be bdb6 b2be
00000030: ad5d 8d3a e300 0f3e 6e20 8b3e f7d7 aeba
00000040: d0e5 a7be e3da bc3e e60a 6fbc 4e62 d5be
00000050: bc00 5bbe 4d08 903e a8bc 7bbe 71b9 8c3e
00000060: cb8b ffbe 071d 823e e5fa 0cbe 8208 fbbd
00000070: c81c 75be 9875 b53e 039a e6bd 3b25 993e
00000080: 478f 54be cc6f 5d3e 7208 0f3e d38f b5bd
00000090: 9a31 2b3d 4895 953e 21fe 32be 3359 2ebe
000000a0: 1e8d b0be a118 ecbe 2898 6ebe d81d 013d
000000b0: 06b0 bebe cc22 73be 1169 97be 9b62 91be
000000c0: 9c01 893e f437 65be 0ca8 0cbf 5522 97be
000000d0: 179b 053f df1b 043e fd59 bf3e c5a2 7cbe
000000e0: 9f35 a43e 945f a0be eb58 9e3e 0106 6b3e
000000f0: 8b81 bfbd 5114 4b3e f26f 8abe ab4c c3be
00000100: daaa 353e a476 44bd 51a8 803e cfb9 bdbd
00000110: fa8e d23d 8424 473e df3f 023e 448f 083e
00000120: 4983 8ebc 1f6a e13b 9876 9dbe 80fe ad3d
00000130: 45ad 35be 9ce0 123e bf80 87bd 257f c5be
00000140: 0766 9bbe f223 4d3e 032c 19be 408d 493e
00000150: 5469 fc3c 86f0 2ebe f4fd 70be 5a2d 74be
00000160: 4076 31bd e133 4bbd 9dea c6be 6df1 d6ba
00000170: 2ff1 64bd d18f a5bc 0d7e 51be 9a1f aa3e
00000180: 8c21 a93e e410 553e 06ee 80be a4e0 d73d
00000190: 29b5 5bbe b193 11be f8b8 9cbd 3f51 4d3e
000001a0: 6c58 dabd 497b 753e 9131 b4be e406 923d
000001b0: 6524 e93d a2b3 513d 8ccd 7a3d 313f d53e
000001c0: daf3 39be 077a ae3e 067b aabe ec21 673d
000001d0: e479 04be 5ca9 c63e a9d8 ddbe c521 4e3e
000001e0: 905b bfbe cd99 033d 8d7b 303d 1588 583e
000001f0: 2608 a6bd e5ae edbe 518f 313e e7d5 adbe
00000200: 8225 fe3a f056 763d 0aed 8b3e a01c 57be
00000210: 75d0 c8bd 2fe5 10be a1be 76be 0349 51be
00000220: 6f5d a33e 1008 17be 7fa6 27bd 2a23 6f3e
00000230: eb19 603e e9bf e8bc 684f 47be d068 4f3e
00000240: 1809 a83d 66d5 893e 22f0 26be f02d ba3d
00000250: d4c0 99bd c7e9 27be abea 3bbc 2198 babd
00000260: 132e c9bd c623 cbbe 5228 283e 1131 a6be
00000270: 9ff2 983e 64d7 333e 21c1 8d3e e3e6 33bd
00000280: 7529 443e 2496 613e 2b9b 413c 4694 b6be
00000290: c010 cbbe 72ca 883e 8eef 9bbe 6486 f33d
000002a0: 05b5 423e 6eb7 bfbc ac14 883d 1091 e6be
000002b0: fea7 b23e 9fed 48be 4e78 673e 1ab7 a23e
000002c0: 5920 493e f92d 97be eea9 423e ad82 723e
000002d0: 240d c83d 28e2 f8bd 8039 f73d 356e 1d3f
000002e0: 1d4b 113d a3f3 a83d 1536 5ebe bd4b 5c3e
000002f0: 26ca 613e 9482 fabd 95d0 1c3e c8a1 8a3e
00000300: ee06 be3d 4f02 8fbe 485d fe3d 4c79 d4be
00000310: 92c4 7fbd a00d 14bd 8c5c 45bd 2d27 c63e
00000320: 355d 603e f9f3 dfbe 982d 04be dc8e 87bd
00000330: 57ba 113e 1fe9 9abd 89f1 313e 1393 473e
00000340: b8eb a3bd e303 803e 4b1a 8abe 7a20 6dbe
00000350: fd58 873e 981c a53e 5f20 5c3e 26b7 733e
00000360: 9522 92be 5b8d 003d c9d6 8dbe b5f9 f5bd
00000370: 37fa 973e 5479 143d 45d0 b1bd e613 eebe
00000380: a505 36be cda0 1fbe 192c a03e 3748 c83b
00000390: c76b 333d 56d2 c6bd 0f88 883c 9721 f0bd
000003a0: 8bb3 b83d d631 cbbe 95e4 aabe 8625 93be
000003b0: 53f9 5ebd 7abc f7be d881 e1be a3e6 463c
000003c0: 3c7e 3e3e 0b35 c33e 29ab f23d 5bf2 963b
000003d0: 07b8 03be 8d5b 59be 9189 24be 89ef 543d
000003e0: 8779 75bd 937b b63e 108b b03d 0b61 47be
000003f0: 880d 00bd ef78 8abc 693d 1e3d 5a68 03bf

bias f4 [32]
0.012108363 -0.081952214 -0.06251667 -0.013623808 -0.12843084 0.15351735 -0.05875007 -0.0057172542
0.10190797 -0.14791127 -0.16600965 -0.21433021 0.09620775 -0.07419613 0.0053712027 -0.050979495
0.13696115 -0.1517947 -0.088303834 0.021921495 -0.15839641 0.039697785 -0.021652225 -0.1936574
0.17685376 -0.0328841 -0.04299354 0.09418251 -0.095696256 -0.122177936 -0.19799498 -0.03662262
00000000: 2862 463c 90d6 a7bd bd08 80bd 6436 5fbc
00000010: 6083 03be a733 1d3e eaa3 70bd ce57 bbbb
00000020: 20b5 d03d 0d76 17be 6ffe 29be 6179 5bbe
00000030: 9208 c53d 24f4 97bd ea00 b03b e0cf 50bd
00000040: 8b3f 0c3e 1270 1bbe a4d8 b4bd b594 b33c
00000050: ab32 22be 259a 223d 0260 b1bc 204e 46be
00000060: 2719 353e 7ab1 06bd ff19 30bd c3e2 c03d
00000070: 66fc c3bd 6d38 fabd 32bf 4abe 9a01 16bd

weight f4 [1, 32]
-0.055645756 0.14033885 -0.111492656 -0.16639332 -0.15529957 0.3312662 -0.0041589206 -0.00190917
0.18905565 0.46930745 -0.020905916 -0.114232555 0.5033494 -0.059585724 -0.27362797 -0.21154992
0.09861297 0.20183143 -0.31233323 0.55801964 0.11145608 0.08481659 -0.1379954 -0.08142488
0.18921368 -0.20827201 0.2144196 -0.20793758 -0.2370127 0.048778098 0.080974445 -0.4975799
00000000: ceec 63bd fdb4 0f3e 4356 e4bd 0363 2abe
00000010: da06 1fbe b99b a93e 8e47 88bb 1d3d faba
00000020: ce97 413e 1149 f03e e242 abbc c2f2 e9bd
00000030: 82db 003f 2910 74bd f718 8cbe 8ba0 58be
00000040: 99f5 c93d e6ac 4e3e 24ea 9fbe 60da 0e3f
00000050: 1643 e43d 52b4 ad3d ab4e 0dbe 16c2 a6bd
00000060: 3bc1 413e 4245 55be d090 5b3e 97ed 54be
00000070: 75b3 72be 8bcb 473d eed5 a53d cbc2 febe
