Models/model-A-5.pt (torch, 53607 bytes, 17 tensors)

weight f4 [32, 86]
000000 ff 5b 52 be 31 9d 88 bc 56 08 7e 3d 42 ae ec bd
       -0.20542906 -0.016676517 0.06201967 -0.115566745
000010 45 72 a1 3e 0d aa a9 3d 79 6c 72 3e 69 09 01 3e
       0.31532493 0.08284388 0.23674192 0.12601246
000020 a9 81 87 3d 64 a3 4b be ad a9 00 3e 41 93 08 3e
       0.066165276 -0.19886547 0.12564726 0.13337423
000030 f1 e7 30 be 68 d0 c0 3c 2f 28 14 3e ae 2c 44 be
       -0.17275979 0.023536876 0.14468454 -0.19157669
000040 da 8c 3e 3d 18 97 57 3d 1b c5 a1 bd 97 65 02 3d
       0.046521045 0.05263433 -0.07898923 0.031835165
000050 31 54 94 3d 82 62 68 3e 8f 43 07 3e fc 4a 2a 3e
       0.07242621 0.22693828 0.13209365 0.16630167
000060 c8 17 64 bd 5f 49 b2 3c fd 09 57 be ce 86 40 be
       -0.055686742 0.021763502 -0.20999904 -0.18801424
000070 0a 91 46 3d 94 60 2d 3c 0b 84 8a 3d a3 d8 01 be
       0.048478164 0.010582108 0.067634664 -0.12680297
000080 ea 53 0f 3e e0 4e 98 bb 18 50 6f 3e 85 ad 01 bd
       0.13996854 -0.0046480745 0.23370397 -0.03165962
000090 cb 04 a8 3d 62 24 a1 bd 05 15 da 3d e7 80 0e 3d
       0.08204039 -0.078682676 0.106485404 0.0347909
0000a0 e6 ef 0e bc 6f 11 c6 3e e9 4b fb bd c5 f1 76 bd
       -0.008724188 0.38685176 -0.12270338 -0.060289163
0000b0 02 d3 6d 3e d0 12 51 be aa ab 07 3e 76 90 3d 3d
       0.23225024 -0.20417333 0.13249078 0.046280347
0000c0 50 2a 0b 3d a5 d2 0c 3c da 7c c3 bd 37 53 99 3d
       0.0339759 0.008595143 -0.09545298 0.07486575
0000d0 a8 c9 55 be e7 a8 c4 3d d3 0d 36 3d d3 22 99 bc
       -0.20877707 0.09602528 0.044446778 -0.018693363
0000e0 cd 30 2d be 05 2a 2b 3c 09 77 03 bd 41 5a 53 3d
       -0.16913147 0.01044703 -0.032095943 0.051599745
0000f0 9f bd 13 3d 99 32 5d 3e a3 58 17 3e 8e 80 05 3e
       0.03606951 0.21601333 0.14779906 0.13037321
000100 ad a3 94 bd 7e 34 0e bc de bd 21 3a 61 07 1c be
       -0.07257781 -0.008679507 0.0006169955 -0.1523719
000110 da bf 69 bd eb b6 d0 3c 2b 66 15 3c 2e 5d fa bd
       -0.05706773 0.025477847 0.009118597 -0.12224804
000120 9d 1d 3e 3e 31 6c f4 bd 62 db 83 3e 0c e2 09 3e
       0.18565984 -0.119346984 0.25753313 0.13465136
000130 37 0a cc 3d 37 4c a8 3e 93 42 9a 3c e6 87 26 3d
       0.09962886 0.32870647 0.018830573 0.040656947
000140 05 0e 79 3e 60 3b 4d 3b fe 31 55 be b2 36 be 3e
       0.24321754 0.0031315908 -0.20819852 0.37151104
000150 98 0f 68 be 75 39 22 3e fa 09 74 3e 23 1d 46 be
       -0.22662199 0.1584223 0.23831931 -0.19347052
000160 03 1c 46 bd 7a ad c0 bd 7c 3a 16 3e 9f 3a 29 be
       -0.048366558 -0.09408088 0.14670748 -0.16526268
000170 1a 96 3c 3d 48 35 85 be f7 f2 a9 3e 82 4f 1f 3c
       0.046041586 -0.26017213 0.3319318 0.009723546
000180 73 9a 10 3b e1 cd e3 3e fd f5 37 3d 2e 1b 1a 3d
       0.0022064715 0.4449301 0.044912327 0.037623577
000190 a6 aa 4a 3d 73 00 ed 3d e1 2c cc 3d d0 c1 64 3d
       0.04947915 0.11572351 0.099694975 0.055848897
0001a0 0e ca 48 bd 34 ed 78 be e4 7a 6d 3e 5f 93 46 3e
       -0.04902082 -0.24309236 0.2319141 0.19392155
0001b0 89 09 10 be 3a 58 07 be a9 26 d7 3c a7 70 42 3c
       -0.14066137 -0.1321725 0.026263552 0.011867679
0001c0 99 4a 7f 3d 8d b3 6b be 1f c1 b0 3d 52 53 fc bd
       0.062327 -0.23017712 0.08630585 -0.123205796
0001d0 84 0d d5 bd e6 bb bf bd ba 12 19 3d b1 0e 90 3b
       -0.104029685 -0.09362011 0.037371375 0.0043962826
0001e0 79 c6 a8 3d a8 2b 25 3e 51 e3 d7 3d bd c7 22 be
       0.08240981 0.16129935 0.10541404 -0.15896507
0001f0 c0 ea 73 bd 73 da a0 3d 62 77 2f 3d c9 3a e2 bc
       -0.059550047 0.07854166 0.04283846 -0.027615922
000200 66 2d 04 3d 77 6c e4 3d 4c 33 28 be f8 0c 78 3e
       0.032269858 0.111535005 -0.16425818 0.24223697
000210 e8 b2 47 3e 07 62 e9 3c e6 14 4d be cd fa fc bc
       0.19501841 0.028489126 -0.20027503 -0.03088131
000220 63 3f a2 3e 5b 25 a4 3d bf 35 43 be 5e d5 12 be
       0.31688985 0.080149375 -0.19063471 -0.14339206
000230 46 96 01 be 3b 2d 18 3e 3e 24 d8 bd d8 64 49 3e
       -0.12654981 0.14861004 -0.10553788 0.19667375
000240 83 35 53 bc 14 16 a0 bc 8e 5d 30 be 88 d6 b0 3d
       -0.012891176 -0.019541778 -0.17223188 0.086346686
000250 33 01 70 3e fd 14 2a bd 41 09 5e bc 14 6f 92 bd
       0.23437957 -0.041523922 -0.013552011 -0.07150093
000260 72 0c de bd 33 a1 a7 3d e7 21 bc bd 4d 8c 07 3e
       -0.108422175 0.08185043 -0.09186154 0.13237114
000270 4a f7 d4 3d 14 a4 54 bc c1 87 fe bd 7b a1 ec 3d
       0.10398729 -0.012978572 -0.12428237 0.115542375
000280 b8 c1 72 3d c0 71 5e 3e 2c d7 77 be 82 2c 2e be
       0.059266776 0.2172308 -0.24203175 -0.17009166
000290 f4 07 0c bd 2e a6 15 3e 52 1d d6 bd 9c 76 d3 bb
       -0.034187272 0.14614174 -0.10454811 -0.0064533483
0002a0 97 b2 eb 3d d9 19 10 be 10 ed 6a 3e 5c fe 81 3d
       0.11508673 -0.1407236 0.22941995 0.06347343
0002b0 11 5f ba 3d c3 04 86 3e 5a f6 dd 3e 15 6e de 3d
       0.09100164 0.26175508 0.43352014 0.1086084
0002c0 f3 a9 3a bd 09 c1 5d 3e a3 5e 43 bc 80 55 bb be
       -0.045572232 0.21655668 -0.011924419 -0.3658867
0002d0 b8 0f 23 3e 6c 9c db bc 18 ad 9c bb 05 a8 70 3e
       0.15923965 -0.026807986 -0.0047813766 0.23501594
0002e0 97 18 26 be e1 b3 ec bc 4c 5b 34 bc 47 fa 05 3e
       -0.16220318 -0.028894367 -0.011008095 0.13083754
0002f0 c1 91 5c 3c 9e f5 32 be cf 98 61 3c 27 c5 18 3d
       0.013462485 -0.17476508 0.013769343 0.037297394
000300 d0 0e fc bd f7 a3 8e be e7 23 03 3e d8 36 0a 3e
       -0.12307513 -0.2785947 0.12806664 0.13497484
000310 f4 ab 18 bd e4 a8 38 3e d1 66 5f 3e c3 3c 2c be
       -0.037273362 0.18033177 0.21816565 -0.16820054
000320 a7 b4 26 be be 06 3d 3d 44 eb 82 bc 9c 64 8f 3e
       -0.16279851 0.046149008 -0.015981324 0.28006446
000330 50 97 0d be 96 a5 82 be 2e e6 19 be bb 4e 47 be
       -0.13827252 -0.25516957 -0.15029213 -0.19463627
000340 f6 3b c8 ba 73 04 a2 3d 32 c8 00 3e ee e7 b0 3d
       -0.0015276659 0.07911005 0.12576368 0.08637987
000350 ed 58 fa 3b ba d3 e7 3d 1b f0 0e 3e 03 72 1f 3e
       0.0076399953 0.113196805 0.1395878 0.15570836
000360 3b 5b 1e 3e 96 d5 41 3d 47 3b 2e 3e d6 43 97 3e
       0.15464489 0.047322832 0.170148 0.29543942
000370 cf 7d 69 3e 75 7a a9 bb 2c e1 40 3d 23 ba 7c 3e
       0.22801898 -0.0051720687 0.04708974 0.2468038
000380 ad 8d b1 3c 44 44 d4 3d 7d f3 88 3e 76 2c 0f 3e
       0.021674002 0.10364583 0.26748267 0.13981804
000390 c0 aa 0b be aa 47 44 3d 97 ec 3e be c3 de 93 be
       -0.13639355 0.047919907 -0.1864494 -0.2888089
0003a0 ec a4 3b 3e d8 4a e5 bd 6c d7 f5 bb 64 2c ae bd
       0.18324631 -0.11195916 -0.007502487 -0.085045606
0003b0 09 2a 75 be 27 c7 e1 3d 7b b8 e4 bd 3b 56 43 be
       -0.23941816 0.110243134 -0.11167999 -0.19075863
0003c0 79 e2 2a bd b9 cd 3e bd 48 74 8c 3e 86 a8 2b 3d
       -0.041719887 -0.04658291 0.27432466 0.041908763
0003d0 65 92 dd 3b 7d d4 a6 be a2 d9 92 3e 3c eb 90 bc
       0.0067618364 -0.3258399 0.28681666 -0.017690293
0003e0 13 ad a9 bd 4a 36 6e 3e e7 36 ae be d4 c4 1c be
       -0.082849644 0.23262897 -0.34026262 -0.15309459
0003f0 e2 f2 6b 3d be 1c 26 3c d8 fc 41 be 4f 81 67 be
       0.057604678 0.010138689 -0.18944108 -0.22607921

bias f4 [32]
000000 88 d4 5f 3d 85 3d c7 3b 4d 58 a9 3d e6 e6 58 3d
       0.054646045 0.0060803317 0.08268795 0.052954577
000010 b7 23 92 bd 9f 83 79 bd 41 18 b1 bd 05 05 a6 bd
       -0.07135718 -0.06091654 -0.08647204 -0.08106426
000020 ab b7 9c 3c e6 5f a3 bd c5 43 31 bb 74 db d9 bd
       0.019130548 -0.079772756 -0.002704845 -0.106375605
000030 9f 19 97 bd 01 62 dc 3c b2 91 28 bd 64 a6 a5 3d
       -0.07377934 0.0269022 -0.04115457 0.08088377
000040 5e 73 4c 3c 7d 48 ac 3d cb 65 b5 3d 48 08 b3 3d
       0.012478678 0.084122635 0.08857306 0.08741814
000050 93 7b ae bc 60 c9 cb 3d 67 99 b6 bd 84 99 2b bd
       -0.02129916 0.099505186 -0.08915978 -0.04189445
000060 54 1b 9c 3d fc 72 1a bd 5a b6 a1 3d dc cc 84 3b
       0.076224 -0.037707314 0.07896109 0.0040527415
000070 64 0c 26 bd 72 d7 97 bd 0a 9a 2b 3d bc fd fe bc
       -0.04053916 -0.0741414 0.04189495 -0.03112685

weight f4 [32, 32]
000000 60 2d 1d bf 82 9e 9e 3e 70 6c 2d 3c 8b e5 86 be
       -0.6139736 0.30980307 0.010584936 -0.26347002
000010 7f 3b e4 bc cd 20 4d be 11 38 5b bc b7 bf cb bc
       -0.027860401 -0.20032044 -0.0133800665 -0.02487169
000020 1d ce 0f 3e 1f b2 cf bd e3 f5 b0 be 18 a8 51 3d
       0.1404347 -0.10141396 -0.34562597 0.051185697
000030 9c 50 84 be 79 d1 f8 3e 59 32 31 be 97 2e ef 3e
       -0.2584275 0.48597315 -0.17304362 0.46715233
000040 9f 91 47 3e 56 e9 d7 3e 9e 17 ac be 83 43 f5 3e
       0.19489144 0.4217021 -0.33611768 0.4790307
000050 30 61 32 3d 36 a8 ea bd db 76 f4 bd ea a0 de 3c
       0.043549716 -0.11457865 -0.119367324 0.02717634
000060 c6 3b e5 3e c9 35 38 bd 2d f6 c1 be cb b1 f9 3d
       0.44772166 -0.04497317 -0.3788313 0.121921144
000070 ba f5 fc 3c c7 fd 87 3e f4 0b 8b be 20 bc 45 be
       0.03087889 0.26560804 -0.27157557 -0.19310045
000080 d6 0c bb be ea 3d 08 3e 8b 3f c0 bd 2d a3 89 3e
       -0.3653323 0.13304868 -0.0938712 0.26882306
000090 14 85 a6 3d af 24 a8 3d 65 52 03 bf 33 eb a5 be
       0.081308514 0.08210122 -0.512976 -0.32406005
0000a0 3b 83 97 be 7d e1 76 be c2 16 4f 3e 93 80 8b be
       -0.29592308 -0.24109454 0.20223525 -0.27246532
0000b0 4b 17 c4 3d b4 f2 d5 bd 95 1f e7 3e bc 97 b8 3d
       0.09574755 -0.104466826 0.45141283 0.09013316
0000c0 fa 07 a2 be a7 08 82 be 1b 96 ee be bc cf 33 be
       -0.3164671 -0.25397226 -0.46598896 -0.17559713
0000d0 56 38 49 bc 69 f0 63 be e1 10 5a be 6c 94 a6 be
       -0.012281498 -0.22259678 -0.21295501 -0.32535112
0000e0 c5 ad a7 ba 68 bf 1f be 7a 5a fb 3c e7 06 45 be
       -0.0012792876 -0.1560036 0.030682791 -0.19240914
0000f0 0d d0 38 3e f6 f0 c6 3d bc 6e 50 be 84 e3 95 be
       0.18048115 0.097139284 -0.20354742 -0.29275143
000100 c2 53 7e bd 2a 6f 83 3d d1 1f aa 3d 97 41 44 3e
       -0.062091596 0.06417687 0.0830685 0.19165646
000110 d2 26 59 be f2 ad ed 3e 5e b7 65 3e 38 7b b6 be
       -0.21206215 0.46421772 0.2243323 -0.35640883
000120 2c 7c 9e be 76 1a f2 be af 9c 3d be b6 d2 86 be
       -0.3095411 -0.47285813 -0.18516801 -0.26332635
000130 87 8a b8 3c 2e fd 43 3e 9e a9 43 be 41 4c 34 3e
       0.022526992 0.19139549 -0.19107673 0.17607214
000140 9b 7f c6 bd b0 2a a3 be 8b 8e bc bd 35 38 4d 3d
       -0.096923076 -0.31868505 -0.092068754 0.05010243
000150 cb c2 a5 3e 84 98 cc bd 75 23 86 3d 83 24 24 be
       0.32375178 -0.099900275 0.06549732 -0.16029553
000160 85 63 a5 be 1e d1 e3 3e 8e 47 e0 bc a8 ae cc 3d
       -0.3230249 0.4449548 -0.02737787 0.099942505
000170 d5 7e 14 3e 90 40 50 3e d2 a0 a9 be f7 d5 c8 be
       0.14501508 0.20337129 -0.3313051 -0.39225742
000180 d3 80 00 bf 22 b6 84 3e c3 76 3d bd 02 bd b5 bd
       -0.5019657 0.25920206 -0.046255838 -0.08873941
000190 34 ec 93 be 11 c1 91 3e 9b d6 0b 3e d5 05 54 be
       -0.28891146 0.2846761 0.13656084 -0.2070535
0001a0 d5 95 2c 3e bd 2c 2c 3c 81 8b 06 be 78 5f c5 bd
       0.16854031 0.010508713 -0.13139154 -0.0963735
0001b0 1e 0d 97 3d 88 a8 5c be 31 f8 a0 be 67 4e 89 be
       0.07375549 -0.21548665 -0.31439355 -0.2681763
0001c0 f2 52 b9 bd 24 fa be be 00 b2 5a be 52 34 82 3d
       -0.09049024 -0.37300217 -0.21356964 0.063576356
0001d0 78 40 54 bd c2 a4 11 be e8 13 75 bc 78 6d 94 3e
       -0.051819295 -0.14223006 -0.014958359 0.28989768
0001e0 bd f3 e7 be 0e 81 3c 3e 66 66 cd 3e 0c 4c d6 bd
       -0.45303145 0.18408605 0.40117186 -0.104637235
0001f0 69 1c 2c bd 87 fe 0a bf 25 28 84 bd fc b9 80 3e
       -0.04201928 -0.5429463 -0.064529695 0.25141895
000200 a9 1b 85 3e 16 37 db bb 0d 2b ae 3e f9 31 ad 3d
       0.25997666 -0.0066899164 0.3401722 0.08456797
000210 43 7c 8e 3d db ca ca 3e cc 26 9c 3d de 71 8c be
       0.06957295 0.3960789 0.076245874 -0.27430624
000220 cd 95 76 3e 8d b3 9c bd 2c 94 0a be ce 6b 69 3e
       0.24080582 -0.07651434 -0.13533086 0.2279503
000230 b6 44 1e be 59 6c 27 be ec c3 b3 3e 39 35 19 bd
       -0.15455899 -0.16349925 0.35110414 -0.037404273
000240 56 0b bc be 0d 79 62 3d d1 08 de bb ce dc 16 3d
       -0.367274 0.055291224 -0.0067759533 0.03683167
000250 e3 78 f5 3d 53 bc c4 bc 81 37 6e 3e 38 78 04 be
       0.11985948 -0.024015581 0.2326336 -0.12936485
000260 34 73 8d 3e 52 77 87 be 0c d9 a6 3e 50 04 fa 3e
       0.27626956 -0.26458222 0.3258747 0.48831415
000270 3d 1d c4 be a0 96 55 be a2 4e 0f 3e 22 dd 81 be
       -0.38303557 -0.2085824 0.1399484 -0.25364023
000280 88 e9 29 3d 8d 32 8c be 52 2e 2c be 09 4c 6c be
       0.04148248 -0.27382317 -0.16814545 -0.2307588
000290 f3 21 5e be 45 68 9a bd a2 d0 aa 3e 64 bf 3e 3e
       -0.21692638 -0.07539419 0.333623 0.18627697
0002a0 1f 02 5e bc 8b 1a 7b be f9 f4 81 3e db e3 c4 3e
       -0.01355031 -0.24521844 0.25382212 0.3845509
0002b0 69 6e 9f be 8c 25 56 3e 14 78 a3 be bd c3 df bd
       -0.31138924 0.2091276 -0.3192755 -0.10926006
0002c0 0a 75 3d 3e c4 14 98 3c e8 94 7c be 39 8c 56 bc
       0.18501678 0.01856459 -0.24666178 -0.013094955
0002d0 06 32 a8 3e 69 00 11 be b1 53 2d be dd dd 08 3f
       0.32850665 -0.14160313 -0.16926457 0.53463537
0002e0 58 0d d5 be 26 85 39 be 6c b4 c5 bd aa 50 79 bd
       -0.41611743 -0.18117198 -0.09653553 -0.060867943
0002f0 83 4a cd 3e d9 47 49 3d 0d 41 c2 be 19 5a 9d 3e
       0.4009591 0.049140785 -0.37940255 0.30732802
000300 59 3d 51 3c fd 4b 09 3e 0a 6b 97 be ec 04 24 bd
       0.012770974 0.13407893 -0.29573852 -0.040043756
000310 d6 52 6f 3e d7 6b e8 b8 df cb e7 be 60 fb 9d 3c
       0.23371443 -0.00011082709 -0.4527273 0.019284904
000320 89 fd 42 3e 2a 9b 83 be 75 54 17 bd 80 30 26 3f
       0.19042028 -0.25704318 -0.03694578 0.64917755
000330 c2 bb e7 bd 31 69 8e 3d be 1b ae 3c 05 d5 4b 3e
       -0.11315109 0.069536574 0.021253463 0.19905479
000340 4b 37 c8 be 70 79 b3 be f8 7f 4d bd c1 bb cc 3e
       -0.39104685 -0.35053587 -0.05017087 0.39986995
000350 cf 86 a3 be 86 1f 19 bf 4e 58 a7 be a6 93 cc 3e
       -0.31938788 -0.59813726 -0.3268456 0.39956397
000360 56 1e 3b 3e e3 89 85 be 10 aa 1a be e4 8c c5 bd
       0.18273291 -0.26081762 -0.15103936 -0.096460134
000370 3d 48 c5 3d b8 a7 cd be d1 f6 54 be d1 77 e3 bd
       0.09632919 -0.40167022 -0.20797278 -0.111068375
000380 4e 0c fa bd 11 4f 01 be 58 46 54 3d 59 ff 90 bd
       -0.12209378 -0.12627818 0.051824898 -0.07079954
000390 45 9b d4 bd d4 f5 8a be 07 92 d9 3e 08 ba ed 3c
       -0.10381178 -0.27140677 0.42494223 0.02901937
0003a0 cc 04 5f 3e bf 1a 9e 3e da 8d e9 3d 37 6b 07 be
       0.21779174 0.3087978 0.11404009 -0.13224493
0003b0 fc c1 a0 3e 70 a9 45 be 20 e7 bb bd df 95 81 be
       0.31397998 -0.19302917 -0.09174943 -0.25309655
0003c0 be d9 08 3f 29 4d a9 bd ed a6 51 3e f0 91 e8 bd
       0.5345725 -0.0826667 0.20473833 -0.1135596
0003d0 fc e2 b5 be a9 ea 5a bd 40 3a 10 3e 56 cf 23 3d
       -0.35524738 -0.053446446 0.1408472 0.039992653
0003e0 c6 11 02 3f 2b e5 c1 be 3b d3 fd 3e 80 7e 86 be
       0.5080837 -0.37870154 0.4957522 -0.26268387
0003f0 fe f1 bc be 0f 33 04 3d 67 02 0e 3f 60 31 4b 3e
       -0.36903375 0.032275256 0.55472416 0.19843054

bias f4 [32]
000000 fc 49 18 be 17 ad ce 3d 29 ce a0 bd bb df c6 3d
       -0.14871973 0.10091608 -0.07851822 0.09710642
000010 94 bf 0d 3e 5d 74 86 3c 3f 1c cf bd 27 e0 3d 3e
       0.13842613 0.016412908 -0.101128094 0.18542539
000020 7d c2 2e 3e 76 d7 66 bd 22 e9 34 be 9b 02 f1 3d
       0.17066379 -0.056357823 -0.17667058 0.11768075
000030 db df 70 bd 37 6a fd 3d 64 52 d5 bc 11 48 b2 ba
       -0.058807235 0.123737745 -0.026040263 -0.00136018
000040 24 df 8f 3d 49 f9 57 bd eb d0 a3 bd 15 b8 0e 3d
       0.070249826 -0.05272797 -0.07998832 0.034843523
000050 7d e2 f2 bd 35 c7 0c 3e 20 88 1c 3e ec 74 36 be
       -0.118596055 0.13747866 0.15286303 -0.1781804
000060 d7 30 d2 3d 45 8b 2b 3e 06 c8 47 bc ee e7 44 3d
       0.10263222 0.16752346 -0.012193685 0.048072748
000070 c8 70 05 3e 8c 4f e4 bd 86 fc 53 bc 93 01 0e 3e
       0.13031304 -0.11147985 -0.012938624 0.13867788

weight f4 [32, 32]
000000 ac a9 c1 be df 31 50 3e df eb 09 3e 70 ef 01 3e
       -0.37824762 0.20331524 0.13468884 0.12688994
000010 c7 50 e7 3d 71 a9 3a bf b0 d8 df be 22 da 20 be
       0.11294704 -0.729148 -0.43720007 -0.15708211
000020 16 95 90 3e e0 5a 6e 3e e6 d3 40 3d 59 8e d1 bb
       0.28238744 0.23276854 0.047077082 -0.006395143
000030 cd 91 12 3f 58 6e 4b be 3f f4 68 bd b8 6c 04 3d
       0.57253724 -0.19866312 -0.056873556 0.032330245
000040 7d f5 4f 3e 33 d4 92 3c c8 5c 12 be 22 57 07 3d
       0.2030849 0.01792345 -0.14293206 0.03304208
000050 62 0e 0e 3f 94 6f 46 be 49 5c 46 3d 92 66 f3 be
       0.55490696 -0.19378501 0.048427854 -0.47539192
000060 3a f1 25 be c3 66 10 3e c6 f7 21 3e e7 c0 08 3e
       -0.16205302 0.141017 0.15817174 0.13354836
000070 b6 b1 41 3c 87 25 87 3e d0 13 0f be a4 0f 16 3d
       0.011822155 0.2639582 -0.13972402 0.03663601
000080 40 53 57 be f3 17 78 be 68 78 6a be 32 de 43 be
       -0.21027851 -0.24227886 -0.22897494 -0.1912773
000090 42 82 7e 3e 3d 3a 65 3d e2 0a 00 3f d3 0b 70 be
       0.24854377 0.055963743 0.50016606 -0.2344201
0000a0 c1 a5 b1 3e 6d 1b 2f 3e 14 17 23 3d 8d 0c 97 be
       0.34696773 0.17100306 0.03981693 -0.29501763
0000b0 df 95 b7 be 7d 7b e8 be 44 70 52 3e 5e 01 76 3e
       -0.3585653 -0.45406714 0.20550638 0.24023959
0000c0 7a 5a 1f be 22 d8 10 3e ed 21 0a bf 3e f9 07 bf
       -0.15561858 0.14144948 -0.53958017 -0.5311469
0000d0 a3 ea 35 3d e1 3f c7 3c d6 f0 8e 3e ed ac 50 3e
       0.04441322 0.024322452 0.27918118 0.20378466
0000e0 5e f5 90 bc 4e 37 1d bd 7d ee 9c 3e ce 1e 95 be
       -0.017695125 -0.03838282 0.30650702 -0.29125065
0000f0 c6 bb 9a 3e e6 64 28 3d af 1f be 3d 1a c7 60 3e
       0.30221385 0.04111185 0.09283387 0.21950951
000100 e6 51 06 3e 78 9d 53 bc 69 3a fd bb 68 f1 b2 3e
       0.1311718 -0.012915961 -0.0077279103 0.34949803
000110 61 83 79 3e 71 6f 75 3d ec d3 2f 3e a5 e2 25 3e
       0.24366523 0.059920732 0.17170686 0.1619974
000120 fd db 6b be 05 87 24 3c 18 e3 27 be 86 bb 16 3f
       -0.23033138 0.010041957 -0.16395223 0.5887989
000130 9e 30 7e bd 8f ff 18 3e 07 d9 fe 3c 3e cd 14 bf
       -0.062058084 0.14941238 0.031109346 -0.58125675
000140 11 9a 40 3e 49 57 f3 3e a8 0a 93 bd 2d ac dd bd
       0.18808772 0.4752753 -0.07179767 -0.108238555
000150 f2 c6 3c be 74 0e 35 3f 02 19 ae bc 20 ea c5 3e
       -0.18435267 0.7072518 -0.021252159 0.38655186
000160 f8 58 48 3e db 6a 46 be 6a 65 19 be e8 e0 4e be
       0.19565189 -0.193767 -0.14980093 -0.20202982
000170 07 c0 6a 3e 1f 22 86 be 97 82 f4 bd c1 c0 87 3e
       0.22924815 -0.26197907 -0.119389705 0.26514247
000180 72 4d 8d 3e 1f 87 13 3d 34 6e 34 be 85 c1 bf bd
       0.2759815 0.036017533 -0.17620164 -0.09363083
000190 13 e3 16 be bc 7a 13 be 96 63 a2 be b3 a6 e1 be
       -0.1473506 -0.14402288 -0.31716603 -0.44072494
0001a0 f5 ef 00 3f b2 8f 68 be d0 d6 06 bd 2d 46 69 be
       0.50366145 -0.22711065 -0.032919705 -0.22780676
0001b0 df 2d 60 be aa df be 3e 29 ef 77 3e 14 df 0e be
       -0.21892498 0.37280017 0.24212326 -0.13952285
0001c0 c3 84 47 3e 37 28 fe bd da b9 c4 3d fc f6 83 bd
       0.19484238 -0.12410014 0.09605761 -0.06443593
0001d0 ef 50 f1 bd dd 12 38 3e 40 bc ab 3e 28 70 3c be
       -0.11783015 0.17975946 0.3354206 -0.18402159
0001e0 f8 0b 04 be 07 8e fd bc da 60 eb be 55 04 05 be
       -0.1289519 -0.030951513 -0.4597233 -0.12989934
0001f0 b6 51 80 bd 2a 05 be 3e 47 2a 91 3d 13 97 ba bd
       -0.06265585 0.37113315 0.07088142 -0.09110846
000200 22 d3 c1 3e 02 5c d6 bd 91 f7 80 bd 54 c3 3e bd
       0.37856394 -0.10466768 -0.062972195 -0.046573
000210 f8 79 54 3d e4 61 85 3e 96 b0 f8 3e 98 a6 f7 bd
       0.05187413 0.26051247 0.48572224 -0.12092322
000220 bd 42 ad be 03 44 0e bd f4 0e 2f bd 6e 23 fc bd
       -0.3383998 -0.03473283 -0.04273887 -0.12311445
000230 29 ab 7b 3e af d4 bf bd c9 e5 aa be d6 a4 df be
       0.24577011 -0.09366738 -0.33378437 -0.43680447
000240 79 54 65 be f2 46 9b 3e 12 d1 65 3c 56 fa 1e bf
       -0.22395505 0.30327564 0.014026897 -0.6210073
000250 9d 57 fd 3d 1c 01 d6 bd 7c 1e 77 3d c4 0e b6 bd
       0.123702265 -0.1044943 0.060331807 -0.08889535
000260 33 da 80 3d a2 01 2a be c8 c1 c3 3e a6 0f 1d bb
       0.06291618 -0.16602185 0.3823378 -0.0023965626
000270 c5 3a 0c 3e 0d cd 5c 3e 53 04 14 3e 80 ef 31 be
       0.13694294 0.21562596 0.14454775 -0.17376518
000280 2a a9 43 3e 52 ed 9f bd 8c 14 c4 3a 4e f6 af 3b
       0.191075 -0.07808937 0.0014959737 0.005369938
000290 a2 16 a3 bd 66 75 18 3e d8 50 24 bc 93 3c 89 3e
       -0.07963301 0.14888534 -0.01002904 0.26804027
0002a0 e7 3e 30 3f 8c d7 80 3d 29 08 c8 bd 15 90 96 3d
       0.6884598 0.06291112 -0.097671814 0.073517
0002b0 30 9a 74 3e 4a 37 27 3e 4e 1e a9 3d 07 93 5a bd
       0.23886943 0.16329685 0.08257733 -0.053362872
0002c0 1b 42 a7 3d 8b 7d 53 bd e4 07 bd 3c 96 29 0a bd
       0.081669055 -0.0516334 0.023075052 -0.033731066
0002d0 50 81 86 be b9 3a 33 be a7 0f 11 3e 14 46 0c 3d
       -0.26270533 -0.1750287 0.14166127 0.03424652
0002e0 47 da 29 3d ad 02 26 bf af 67 f8 bd bb 8c 31 3e
       0.04146793 -0.6484783 -0.12129151 0.1733884
0002f0 64 dd 96 be 56 bf 12 3f 4b e7 a2 bd 29 a0 bb be
       -0.29465783 0.57323205 -0.07954272 -0.3664563
000300 0e a0 ed 3d 4b d2 b6 be 79 43 45 3e 5c 6f 15 3f
       0.11602794 -0.35707316 0.1926402 0.58373046
000310 94 e0 1a be 6c 32 6b 3d 96 fa 5e 3c 38 81 45 3e
       -0.15124732 0.057421133 0.013609549 0.19287574
000320 f4 89 12 3e 5f ef ff be d5 a6 e4 3e 8d 04 23 bd
       0.14310437 -0.49987313 0.44658533 -0.03979926
000330 63 58 90 3d 1d d1 ba be c4 e9 76 be 41 57 07 bf
       0.070481084 -0.36487666 -0.24112612 -0.52867514
000340 7d 37 93 be df d7 46 be bb 40 16 be b3 af db 3e
       -0.28753272 -0.19418286 -0.1467313 0.42907485
000350 1e 3f 0c be 6b a4 6d be d4 0d 28 3e 15 df 31 be
       -0.13695952 -0.23207252 0.16411525 -0.17370255
000360 bc 0c 13 3d 04 38 39 3e f0 42 b2 3c 36 03 99 be
       0.035900816 0.18087775 0.021760434 -0.29885262
000370 4c 3e a6 3c 3b 06 b3 be 03 32 95 3d 27 8d 0f bd
       0.020293377 -0.3496569 0.072849296 -0.035046723
000380 a0 08 b0 3e a5 41 8e 3e 99 f8 d9 bd a7 bf 3f 3e
       0.3438158 0.27784458 -0.10643119 0.18725453
000390 a3 b2 5e be 14 79 08 3e a0 b9 07 3e f7 59 f5 3b
       -0.21747832 0.13327438 0.13254404 0.0074875313
0003a0 9e 80 65 be c0 2a b0 3d 64 89 83 3d e9 f7 8a bd
       -0.22412345 0.08601904 0.064226896 -0.06785566
0003b0 1c c9 b7 be ef 65 92 3e 99 0f a5 3d 07 36 9d 3e
       -0.35895622 0.28593394 0.08059616 0.30705282
0003c0 60 36 8a be 9d 10 bf 3d 45 42 d5 bd 24 6d 94 3d
       -0.2699461 0.093293406 -0.104130305 0.072473794
0003d0 63 83 09 bf b1 3e f1 be 31 86 5a be b3 69 e1 bd
       -0.53716105 -0.47118142 -0.21340252 -0.11006489
0003e0 bb 75 ca be 20 8d 9b be 0e 88 a7 3e 12 40 72 bc
       -0.39542946 -0.30381107 0.3272099 -0.014785783
0003f0 8b 93 8b 3d df 93 4f 3d 0a 83 a5 bd 82 49 4d 3e
       0.06815251 0.05067813 -0.08081634 0.20047572

bias f4 [32]
000000 b8 d3 d6 bc fe 68 28 be 17 e3 08 3d 09 52 2c 3d
       -0.026224002 -0.16446301 0.033419695 0.042070422
000010 ec 91 01 3e 6c fb ec 3c 23 fe 07 3e 1c d4 26 bd
       0.12653321 0.028928481 0.13280539 -0.040729627
000020 c6 f6 f4 3c c8 a1 09 bd 5a 42 67 be 73 0f 9f bd
       0.029902827 -0.033601552 -0.22583905 -0.077666186
000030 9e fd c0 3d 33 23 fa bd cd 9f 41 be 37 6c 27 3e
       0.09423374 -0.12213745 -0.18908615 0.16349874
000040 c8 61 3c 3e cc a2 31 bb 2f 73 0e 3e e7 85 df 3b
       0.18396676 -0.002710509 0.13911127 0.0068213823
000050 22 c2 ab bc 61 2c 6b be 37 d1 fd 3d d0 6b b5 3d
       -0.020966593 -0.22966148 0.1239342 0.08858454
000060 1d b7 15 be a0 d4 98 3d d9 1a 22 be 0a 2c a1 3d
       -0.14620633 0.0746243 -0.15830554 0.07869728
000070 6a c0 16 be 57 2b 1b be 0a 56 08 be 36 c9 21 3e
       -0.14721838 -0.15153252 -0.13314071 0.15799412

weight f4 [32, 32]
000000 3e 83 fb 3d 02 59 be be ab d7 c0 3c 1f c9 6b be
       0.12280892 -0.37177283 0.023540339 -0.2302594
000010 0e f9 24 3e f4 bd 9c 3d 86 36 85 3d f2 ec d6 3d
       0.16110632 0.07653418 0.0650454 0.104944125
000020 00 25 24 3e f3 b8 80 3d 9c bb 3b 3e 38 74 9b be
       0.1602974 0.06285276 0.18333286 -0.30362105
000030 41 c4 04 bf 09 33 0a 3d 56 4c b8 3a 3c 21 77 3e
       -0.5186196 0.033740077 0.0014060836 0.24133772
000040 26 61 d2 3e d7 e9 15 be 24 b0 aa bb 08 2e 2f be
       0.41089743 -0.14639984 -0.005208986 -0.17107403
000050 9a b7 62 3e d6 ab 00 bf a6 78 6f be 54 e1 32 3d
       0.22140351 -0.502622 -0.23385867 0.04367192
000060 48 74 2a 3c 86 25 a5 be 7b 01 ff 3d de fd cc 3e
       0.0104037 -0.3225519 0.12451454 0.40037435
000070 42 0c a0 3c f3 f2 4d 3e 17 96 a6 be 50 e3 49 be
       0.019537095 0.20112209 -0.32536384 -0.19715619
000080 ac e3 7f bd b6 46 31 be 3e 00 cc be c3 f8 80 be
       -0.062472984 -0.1731213 -0.39843935 -0.2518979
000090 b8 a6 a4 be 1c 42 fc bb ba b7 f1 3c 90 44 21 be
       -0.32158446 -0.0076983105 0.029506553 -0.15748811
0000a0 6a 3f 3a be 80 f8 76 3e 16 df 1d be af 99 b5 bd
       -0.18188253 0.24118233 -0.15417132 -0.088672034
0000b0 53 02 e1 bd ed bf 99 bd 4d bd 16 be 2c e6 db 3d
       -0.109867714 -0.0750731 -0.1472065 0.10737261
0000c0 50 80 8d be e5 84 c2 bd 73 cb f4 bd 22 70 7c bd
       -0.27636957 -0.09498004 -0.11952867 -0.061630376
0000d0 d4 fc ab be 00 38 fe 3d 20 85 f2 3d c9 f9 5d 3d
       -0.3359133 0.12413025 0.11841798 0.05419329
0000e0 19 c9 c2 bd 77 0f 4d bc c5 d3 aa 3e 10 ef ca 3e
       -0.095110126 -0.012515894 0.33364692 0.39635515
0000f0 72 50 7e 3e d9 86 ed bd 74 c0 18 be 74 53 98 be
       0.24835375 -0.11597986 -0.14917165 -0.2975117
000100 03 17 44 be 81 4e 55 3d 98 fd 00 bf 90 99 aa 3d
       -0.19149403 0.05207682 -0.50386953 0.08330071
000110 b8 92 d1 be b0 5c fa 3d 30 b5 db bd 37 97 57 bc
       -0.4093225 0.1222471 -0.10727918 -0.013158611
000120 39 5f 2e 3d a7 6d 0a be 38 33 d9 3e f4 39 7b bd
       0.04257128 -0.13518392 0.4242189 -0.061334565
000130 38 26 04 be 36 3f a7 be f6 f4 a8 3e 39 d9 9a bd
       -0.12905204 -0.32665414 0.3299939 -0.07560963
000140 bb 2a db 3e 0c 78 55 be 9a 30 7a 3d 3b 58 94 bc
       0.42806038 -0.20846575 0.061081506 -0.018108478
000150 c3 5d ac bc 92 d6 91 3e bf bb 2d be 62 97 15 be
       -0.021040803 0.28484017 -0.1696615 -0.14608529
000160 58 7a 94 be 2f d1 f5 3c 26 c7 06 be 09 7d fe bd
       -0.2899959 0.030006973 -0.13161907 -0.12426192
000170 6d 4a ba be 0b 2b 09 3d bf 14 6e 3e a2 ee 3b bd
       -0.36384907 0.033488315 0.23250102 -0.045881875
000180 84 7f fe bc 86 a8 76 bc 26 2f c4 bd 19 d6 66 3e
       -0.031066664 -0.015054828 -0.09579305 0.2254261
000190 a8 99 7d 3e 11 70 39 3e 6f fc 4a 3e de 86 56 3e
       0.24765646 0.18109156 0.19822858 0.20949885
0001a0 aa 88 b8 be 2e 2a 17 be c0 10 54 3e 66 bf f5 bd
       -0.36041766 -0.14762184 0.20709515 -0.11999397
0001b0 05 28 55 be c1 ee 17 3e e6 72 8a be c0 d3 88 bd
       -0.20816047 0.14837171 -0.27040786 -0.06681013
0001c0 7f cb 2e be c3 8a a7 be 8e cb 17 be c9 27 86 be
       -0.17069815 -0.32723054 -0.14823744 -0.2620223
0001d0 f9 50 50 3e 77 b6 fb bd 54 92 fa 3d 96 d1 20 3e
       0.20343389 -0.12290662 0.12234941 0.1570495
0001e0 21 d5 c3 be 10 b6 d0 be f9 57 82 3e 39 e9 cb 3d
       -0.38248542 -0.40763903 0.25457743 0.09956593
0001f0 a8 22 b9 3e 17 94 5e be d1 34 cd 3e aa 48 e1 bd
       0.36159253 -0.2173618 0.40079358 -0.11000188
000200 87 8d 68 be 10 ea 89 3d f7 3f a7 3d 75 97 9e 3e
       -0.22710238 0.06734097 0.08166497 0.30974928
000210 c9 01 32 be d6 c6 31 be 4a e0 73 be 14 92 99 be
       -0.17383493 -0.17361006 -0.23816028 -0.2999426
000220 fb 43 96 bc f5 a5 18 be 05 4b 48 be b0 b0 4e be
       -0.018342962 -0.14907058 -0.19559868 -0.20184588
000230 33 b1 d8 3e 72 cf 04 be 49 4c 18 bf b9 fb a4 be
       0.42322692 -0.12969759 -0.594914 -0.322233
000240 a5 f4 1c 3e 2f ed 09 3f 06 25 6c 3e 9a 0c 75 3d
       0.153277 0.5387754 0.23060998 0.05982647
000250 38 01 9b 3d a1 e4 b4 be 5e 97 1c bf a0 3b f1 bd
       0.07568592 -0.3533068 -0.6116847 -0.11778951
000260 b9 3e f8 3e f3 f4 ef 3d 5f 76 ef be 56 19 20 bf
       0.48485354 0.11716642 -0.46769997 -0.6253866
000270 e2 be c4 be 0d 05 db be f0 e9 83 bd f7 0c 71 3c
       -0.38426882 -0.4277729 -0.064411044 0.014712564
000280 3b a7 b3 3e 31 63 f2 bd 24 cb f8 3d 0e 6a 53 3e
       0.35088524 -0.118353255 0.12148121 0.20645925
000290 ee 3e 28 3e 1c 4c 5a 3e 40 d7 a8 3e 3e 0d cf 3e
       0.16430256 0.21318096 0.32976723 0.4043979
0002a0 21 fa 4f 3d 62 1a 34 be b0 f9 0a 3e 31 f5 34 bd
       0.05077565 -0.17588189 0.1357181 -0.044179145
0002b0 aa 31 a3 3e 48 79 ea 3d a3 73 96 3e da 4f ad 3e
       0.31873828 0.11448914 0.293851 0.33849984
0002c0 c3 a7 24 be df 6d 3a be c8 06 9c 3d 9a 91 ea 3d
       -0.16079621 -0.18205975 0.07618481 0.114535525
0002d0 d7 b2 88 be ee 29 d7 be 25 06 ce bd 9c 1f b7 3e
       -0.26698944 -0.42024177 -0.10059766 0.35766304
0002e0 fa 2b c1 3d fe 67 89 3e 06 fa e3 bc df 4a a8 3e
       0.09432216 0.26837152 -0.027829181 0.32869622
0002f0 01 61 84 3e ae f7 9a 3e be 0d 3a bf 22 b3 d7 3d
       0.25855258 0.3026709 -0.7267722 0.10532214
000300 34 e4 9d 3e b7 3f 97 be 7f 2c 11 3e 25 0c 15 3d
       0.30838168 -0.29540798 0.1417713 0.036388535
000310 4a a6 c0 3e a5 29 a7 be f5 4f 4e be ca 95 85 be
       0.37626868 -0.3264896 -0.20147689 -0.26090842
000320 af ab 09 3d cf 22 9d be e0 c1 92 3e ea c3 89 3e
       0.033610996 -0.3069062 0.2866354 0.26907283
000330 52 74 36 be ca 45 70 bd 73 11 82 be 61 98 a3 be
       -0.1781781 -0.058660306 -0.25403938 -0.31952193
000340 8a 33 ed bd fc a9 7e bd 8a b3 57 bd b9 fe ef 3e
       -0.11582096 -0.06217383 -0.052661456 0.46874025
000350 98 5a 01 be a0 e2 3a be 4a 70 f7 be ae 94 81 bd
       -0.12632215 -0.18250513 -0.48327857 -0.063271865
000360 dd ae 40 3d 4d 1c d2 bd 68 75 a1 3e 2b 8a e0 bc
       0.047041763 -0.10259304 0.31534886 -0.027409634
000370 37 bd 1c 3e 53 c2 0a be 4c 89 a4 3d a8 eb b2 3d
       0.15306555 -0.13550691 0.08034 0.08736354
000380 70 a3 a0 bb a4 19 be be 83 f6 aa be dd 37 f6 bd
       -0.004902296 -0.37128937 -0.333912 -0.12022374
000390 9d 7c b4 3e c4 1f 53 3e 92 da 75 3e f0 34 e4 be
       0.35251322 0.20617586 0.24009159 -0.44571638
0003a0 69 76 37 3d c6 0c 44 be 83 4b 78 be 4c 7e e5 bb
       0.04479066 -0.19145498 -0.24247555 -0.007003581
0003b0 a8 2c c8 bd 61 2f ea bd 58 0d ce be 34 a8 02 bd
       -0.097741425 -0.11434818 -0.40244555 -0.031898692
0003c0 2e 2c d4 3e 71 4e 2d be e7 31 e9 3e 7b a8 94 bd
       0.41439956 -0.16924454 0.45545885 -0.072586976
0003d0 fe 5a 26 3e 68 2a ae 3d 5c b0 f0 3e 69 17 80 3e
       0.16245648 0.08504182 0.47009552 0.2501786
0003e0 12 3a 0b bc d2 94 57 be 75 a2 83 3d e0 47 2e 3e
       -0.008497732 -0.21052864 0.064274706 0.17019606
0003f0 46 73 06 be a7 64 13 3d f5 4e 06 be fd a7 35 3e
       -0.13129911 0.03598466 -0.13116057 0.17739864

bias f4 [32]
000000 31 fc a7 bc 95 3e 82 3d c1 1a 17 be a9 0b d0 bd
       -0.020505996 0.06359593 -0.147563 -0.10158474
000010 59 a9 66 bd db 2d 31 3c 16 ff 6d 3d 99 cb b9 bc
       -0.056313846 0.010814155 0.058104597 -0.02268009
000020 4e 61 4a bd 92 23 f7 3d 16 3f f7 3d 77 fa db 3c
       -0.049409203 0.120673314 0.120725796 0.02685283
000030 b2 f1 dd bd 8f 0a ae bd e3 64 57 3d 4e c4 ac 3d
       -0.10837115 -0.08498108 0.052586447 0.0843588
000040 d0 01 42 bb 9f 4d 50 3d db be c8 bd 0a 94 77 bd
       -0.002960313 0.050855275 -0.09802028 -0.060443915
000050 fa f7 88 3d 55 31 41 bc c3 52 9c 3d 83 54 d0 3d
       0.06687923 -0.011791547 0.07632973 0.10172369
000060 ad 33 ec 3d 9e b6 57 be a8 c4 35 be fe a1 10 3e
       0.11533294 -0.21065757 -0.177508 0.14124295
000070 cd 78 ff 3d 1b 48 a7 bd d4 89 a6 3d b9 e0 bd bd
       0.12474213 -0.0816805 0.081317574 -0.09271378

weight f4 [32, 32]
000000 70 31 23 be 4a 69 f1 3d 5f 71 60 3e f9 39 cb 3e
       -0.15936828 0.117876604 0.21918248 0.39692667
000010 8a ab 2f 3c 82 0e fc be 78 ea 71 3e 22 43 f1 be
       0.01072205 -0.4922982 0.23624599 -0.4712153
000020 b9 de e0 3d 99 c6 f9 3e 1a a8 bb be 66 ce b6 bc
       0.10979981 0.4878433 -0.3665169 -0.022315215
000030 d8 73 da be 52 5f c4 3e 32 ab d5 3e c0 e7 60 3d
       -0.42666507 0.38353974 0.41732174 0.054908514
000040 e4 a4 9b bd 02 b2 f4 bc a7 8a 26 be 5a c7 a5 bd
       -0.0759981 -0.029870037 -0.16263829 -0.08094664
000050 ad 9f 3d 3e 8d 2d 38 be 39 5b a2 ba c3 30 a9 be
       0.18517943 -0.17986126 -0.0012386806 -0.33045015
000060 64 92 c0 bd ff 53 04 bf 05 f9 98 be 22 e5 fb 3c
       -0.09402922 -0.5169067 -0.29877487 0.030748907
000070 7f f4 15 bd 71 69 2b bd 5b 8c 2a 3e f0 c4 7a 3e
       -0.036610123 -0.041848604 0.16655104 0.24489188
000080 d9 7b aa 3d c3 e0 78 3d 34 ce 97 bd 7b 3f 01 bf
       0.08324403 0.060761224 -0.07412377 -0.5048749
000090 3d a6 8c be 21 25 4d bd 6d 66 78 3e 01 69 8e be
       -0.2747058 -0.050084237 0.24257822 -0.27814487
0000a0 ba 5b 62 bd 8b 60 24 3e 9d 03 52 3d bf da 64 bc
       -0.05526326 0.16052453 0.051272977 -0.013968169
0000b0 6b 47 52 3e cb dd cd 3d 53 09 ba 3e b5 13 6f be
       0.20535056 0.10052069 0.3633524 -0.23347361
0000c0 8b e3 b9 3e 1e a7 c3 3d 81 0f 33 be 89 25 db 3d
       0.36306414 0.095533594 -0.17486383 0.10700519
0000d0 eb d3 6f bc 71 df 9c 3e 46 f9 28 3d 40 04 db 3d
       -0.0146379275 0.30639222 0.04125335 0.1069417
0000e0 e6 aa 5b be 9b 1b b7 be 6a 1f ce bd d1 91 9c 3e
       -0.21451911 -0.3576325 -0.100645855 0.3058
0000f0 f7 76 1e bd 81 57 be bd 3b c8 aa be ca 11 cb be
       -0.038687672 -0.09294034 -0.3335589 -0.3966201
000100 47 77 3b 3e ff 42 5d bd 89 b7 85 be db db 1c be
       0.1830722 -0.05401897 -0.2611659 -0.15318243
000110 c4 2f 26 be f4 fd 98 3d 4f c9 9c 3e 92 18 a1 3d
       -0.16229159 0.07470313 0.30622336 0.078660145
000120 cf 19 88 bd eb ac b4 bd c1 3b cd be f3 67 88 3d
       -0.066455476 -0.08822044 -0.4008465 0.06660452
000130 4d d9 28 3e 85 14 aa be fd 94 1d be a9 db 62 3e
       0.16489144 -0.3321878 -0.15388866 0.22154106
000140 11 3f 8d 3e 82 a3 47 3f 57 a5 62 be fc 50 ba 3e
       0.27587178 0.7798387 -0.22133385 0.3638991
000150 f2 8b a1 3d cb 17 8b 3e 01 2f f5 3e 28 43 8d 3d
       0.078880206 0.2716659 0.47887424 0.06897575
000160 2f 0b c7 3e 63 2b 35 bd de dd 61 3d e0 cc d5 bd
       0.3887572 -0.04423083 0.05514323 -0.104394674
000170 25 bf fd 3d f5 6c d4 be 3c f2 92 be b2 0f 81 be
       0.123899736 -0.41489378 -0.28700435 -0.25207287
000180 ae 1f d5 be 94 78 bf 3d c0 53 30 3d 5b 11 e1 bd
       -0.41625732 0.0934917 0.04304862 -0.109896384
000190 24 c5 60 be 97 25 b5 be 5e 20 5c be 7b 55 15 3e
       -0.21950203 -0.3538024 -0.21496722 0.1458339
0001a0 d6 90 20 3e aa e0 8b bd 8a 61 18 bf 0b 1b 2a 3e
       0.1568025 -0.06829961 -0.5952383 0.16611879
0001b0 97 32 2e be fd fc 98 be f9 f4 48 3b 64 53 bc 3e
       -0.17011486 -0.29880515 0.0030663593 0.36782372
0001c0 db 5b ab 3d c6 93 81 be 95 e7 49 be 7d d3 40 bd
       0.083671294 -0.25308055 -0.19717248 -0.04707669
0001d0 21 a5 12 bf 3b 11 3d be 40 bc 3b 3e f2 82 a4 be
       -0.57283217 -0.18463604 0.1833353 -0.32131153
0001e0 b0 41 13 3e 4d f1 55 be fc d6 0e 3e f0 dd 37 3e
       0.14380527 -0.2089283 0.13949198 0.17955756
0001f0 17 2f 13 be 5c 09 9c 3c 71 74 32 bf 12 3f 02 be
       -0.14373432 0.019047432 -0.69708925 -0.12719372
000200 9a 09 c7 3d 03 ac b4 3d 4e aa c5 3d 54 e8 25 bd
       0.09718628 0.08821871 0.09651624 -0.04050477
000210 33 e5 07 3d 54 b1 0c be 20 19 e4 3c b6 ea e0 be
       0.033177566 -0.1373952 0.027844012 -0.4392907
000220 4e cc c1 3e 2b fd 38 be 76 39 42 bd 13 0f 00 be
       0.37851185 -0.18065326 -0.04741808 -0.1250575
000230 69 d6 e1 3d 26 47 80 be 20 11 41 be d8 8a 9a 3d
       0.110272236 -0.25054282 -0.18854189 0.075460136
000240 d0 3f fb 3d b4 95 4f be b3 6e b6 bc 9e c1 03 3f
       0.12268031 -0.20271951 -0.022269582 0.5146731
000250 63 6b f3 3e 82 37 17 bf 74 31 be 3c 89 25 3e 3e
       0.47542867 -0.59069073 0.02321694 0.18569006
000260 7f 26 4c be fb 73 6c be 55 01 33 3e 1f a4 7d be
       -0.1993656 -0.23091118 0.17480977 -0.24769638
000270 b3 a4 a0 3d ec f0 c5 3c e8 a9 15 be 89 7c c0 3d
       0.07843914 0.024162732 -0.14615595 0.09398753
000280 01 c8 b9 be 17 13 d2 3d 38 49 4c bd 63 e5 b8 bd
       -0.36285403 0.10257547 -0.049874514 -0.09028127
000290 80 9d ea 3c eb eb 29 3d 11 a7 ae bd 75 db 3a 3e
       0.028639555 0.041484755 -0.08527959 0.18247779
0002a0 10 1d 0a be 8a fa 9b be 18 e8 33 3f 12 dc d6 3e
       -0.13487649 -0.30464584 0.7027602 0.41964775
0002b0 18 ef 62 3d e2 09 3e 3e b6 9f 08 bf 27 e7 a1 bd
       0.0554038 0.18558457 -0.533687 -0.07905417
0002c0 29 3a 20 bd 09 5e 17 be 16 83 9d 3d 95 26 15 3e
       -0.039117966 -0.14781965 0.07691018 0.14565499
0002d0 4d 06 49 3e 61 5b 8a 3e ba 0c be 3e 88 35 6e 3e
       0.1963131 0.27022842 0.37119085 0.23262608
0002e0 b4 63 77 3e d9 cd 25 be 7b ef 1c be bc 33 39 be
       0.24159127 -0.16191806 -0.1532573 -0.18086141
0002f0 e5 9c 40 3d bb d7 94 be 56 b3 0c bf 8d a2 7d 3e
       0.047024626 -0.2907084 -0.54961145 0.2476904
000300 0f b5 81 bb 45 a2 b3 be 86 6b 57 3e 15 6a b8 3e
       -0.0039583514 -0.3508474 0.2103711 0.36018434
000310 55 d9 6f bd c1 b2 4e be d9 2c bd 3e ee ae 01 be
       -0.058556873 -0.20185377 0.3694828 -0.12664387
000320 e7 b7 aa be 5c 8c 01 3e bb cd 37 3d b9 14 e5 be
       -0.3334343 0.12651199 0.044873934 -0.44742373
000330 9d 5a 33 3d 95 97 8b be d6 08 20 3e a8 12 e3 3d
       0.043787587 -0.27264085 0.1562837 0.11087543
000340 85 cf 7e be ca 68 a1 be 17 3c ac be 1e 06 31 3d
       -0.2488385 -0.3152526 -0.33639595 0.043218724
000350 90 74 bb be 65 02 de be 24 68 a3 bd 70 0c c0 39
       -0.36612368 -0.43361202 -0.079788476 0.0003663036
000360 f0 b6 34 3d 72 0e 84 be c6 21 3c bc e6 a6 1f bf
       0.044119775 -0.2579227 -0.011482662 -0.6236404
000370 5d d8 e4 3d 14 d4 e7 3c c4 ff 5d 3e 56 ff 3e be
       0.111740805 0.028299369 0.21679598 -0.1865209
000380 94 15 82 3d 1e 81 0b 3e ea 79 76 be 89 08 06 3e
       0.06351772 0.13623473 -0.24069944 0.13089193
000390 1d c2 d0 be 7d 2b 10 bc 4a ed 7e be ed 23 ec be
       -0.40773097 -0.008799431 -0.24895206 -0.4612116
0003a0 51 68 1b bf 42 f8 0d 3f 5f 48 c6 3e 24 b5 b9 3e
       -0.6070605 0.55456936 0.3872709 0.36271012
0003b0 1f 7e 06 be 4b 9e d8 bd 6b db 31 be d1 6e 9a 3e
       -0.13134049 -0.10577067 -0.17368858 0.3016267
0003c0 e3 45 06 bc bb 70 34 3c 89 ea 9d 3d c5 ee 77 3e
       -0.008195373 0.011013205 0.0771075 0.24212177
0003d0 da c7 db 3e 7e 71 bf be 01 fd ea be d7 7f c7 be
       0.42925912 -0.37391275 -0.45896152 -0.38964722
0003e0 7f b8 a0 be 29 68 ce bc 9a 79 9f 3e f1 3e 97 3e
       -0.3139076 -0.025196152 0.31147462 0.29540208
0003f0 be 67 38 be 04 58 70 3e ec 03 28 bd 4a cf 4c 3d
       -0.18008325 0.23471075 -0.041019365 0.050002374

bias f4 [32]
000000 07 ae d4 3d 85 ab 4d bd 26 b1 99 3d 12 8d 44 bd
       0.103847556 -0.050212402 0.075044915 -0.047986098
000010 86 87 b7 3d 92 15 4e 3d b4 70 62 be 8a d7 97 3d
       0.08961396 0.05031354 -0.22113305 0.07414158
000020 bf fd 6b 3d a6 f5 fa 3b 3d ca a1 3d a6 58 43 3b
       0.057615038 0.007658678 0.07899902 0.0029807477
000030 c2 cf e5 3d fd c4 0d be 15 ca 3c 3d 4a e5 1b 3d
       0.11221267 -0.13844676 0.046091158 0.038060464
000040 e0 aa 0c be e9 f5 c5 bd e1 82 93 bd 1d c4 68 bd
       -0.13737059 -0.09666044 -0.072026975 -0.056827653
000050 0f b4 cc 3d a8 ad a1 3d 0f 67 c4 3d 18 95 12 3d
       0.09995281 0.078944504 0.09589969 0.035786718
000060 79 62 07 be 8e 41 12 3e 6d cf 15 3d 39 9f 8f bd
       -0.13221158 0.1428282 0.03657477 -0.07012791
000070 5e 51 30 be 4a 37 66 3d 25 7d f7 bd 03 f2 5d bd
       -0.17218539 0.05620507 -0.12084416 -0.05418588

weight f4 [32, 32]
000000 08 a2 02 bf 09 1c 6b be 1a 12 6c 3e 68 bb 82 3e
       -0.5102849 -0.22959913 0.2305378 0.25533605
000010 ee 18 88 3e 61 4d a3 be 8e d1 b4 bd ac 70 aa bc
       0.2658152 -0.31894973 -0.08829032 -0.02080568
000020 d2 8a 70 be a9 28 ec 3e 82 ff 81 3e 1d ef bb be
       -0.23490456 0.4612477 0.2539025 -0.36705866
000030 7c 8f 26 be 8a 84 af 3e a4 e8 5d be 56 41 ba be
       -0.16265672 0.34280807 -0.21670777 -0.36377972
000040 a2 23 e1 bd a2 5d 22 3e b9 e3 dc 3d cc c7 83 bd
       -0.109931245 0.1585603 0.10785622 -0.064345926
000050 fb 52 11 bb f4 4c ae bb 36 51 83 3d 69 b9 db 3c
       -0.0022174704 -0.005319232 0.06411974 0.026821809
000060 d5 3c 95 bd eb 9d 5a 3e 7d cd b4 bd 88 42 19 3e
       -0.072869934 0.21349303 -0.08828256 0.14966786
000070 4d 0b 78 be 87 12 f5 bc bb 18 54 3e f1 d9 31 be
       -0.24223061 -0.029916061 0.20712559 -0.17368294
000080 8e bf 7c bd 3d 9a 40 3b a0 82 52 be 5d 93 e1 3b
       -0.06170612 0.0029388808 -0.20557642 0.006884022
000090 86 93 0f 3e a2 bf 13 bb 0e 56 32 3e 35 aa 95 be
       0.1402112 -0.0022544642 0.1741564 -0.2923142
0000a0 30 2a bf be a6 3c c4 3c 39 90 b5 bd 73 16 81 bb
       -0.37336874 0.0239547 -0.08865399 -0.0039394437
0000b0 08 a7 46 3d 99 76 b1 3d c5 6d b3 be 68 ec f2 be
       0.048499137 0.08665199 -0.35044685 -0.4744599
0000c0 fd db 06 3e 68 39 f1 bd e6 d7 51 bd 09 80 11 be
       0.13169856 -0.117785275 -0.051231287 -0.14208998
0000d0 81 d3 85 be ac 84 dc 3d 46 7f a7 3e b4 68 25 3d
       -0.26137927 0.10767493 0.3271429 0.040383056
0000e0 54 b0 af 3e b8 bf d6 be 8c a5 32 bd bc af f2 be
       0.34314215 -0.41943145 -0.04361491 -0.473997
0000f0 6c 6e 87 3e 9d 58 a5 be 07 9b 52 be 1d 0d 26 3f
       0.26451433 -0.3229417 -0.2056695 0.6486376
000100 a2 bb 30 be ce bc a0 be 25 54 1c 3d 3d ed 81 be
       -0.17259076 -0.31394047 0.038166184 -0.2537631
000110 41 99 c7 3d b9 2e 63 3e 9e ec b8 bb 6d 77 7d 3d
       0.09746028 0.22185792 -0.0056434413 0.06188147
000120 e7 b3 bf be e7 2c 83 3d 2e 93 5b bd 48 33 48 3d
       -0.37441942 0.06405049 -0.05360716 0.04887703
000130 15 e8 b0 be 24 99 91 be 73 85 a3 3d fe 4e 63 3e
       -0.34552065 -0.2843715 0.07984438 0.22198102
000140 8f 6c 55 3b 60 a6 9f 3e af 75 6b 3d 34 f2 a8 3d
       0.0032565927 0.31181622 0.05748528 0.082493216
000150 69 76 80 3c 02 fc c3 be f0 ab 76 3d fa 0c 03 be
       0.015681462 -0.38278204 0.060222566 -0.12797919
000160 8a 6f 75 bd 45 12 90 be 57 7b d1 bd 2c 73 46 be
       -0.059920825 -0.2813894 -0.10228603 -0.19379872
000170 1c ad 6f bd 37 92 01 be f8 25 67 bb b3 a6 10 3e
       -0.0585147 -0.12653433 -0.0035270434 0.1412609
000180 6c 3e bf bd 96 48 1c 3f 6e b0 b7 3e 07 8d 93 bc
       -0.09338078 0.6104826 0.35876793 -0.018011583
000190 f0 91 ab be 66 98 ae be e2 60 bb bd 74 a0 88 bd
       -0.3350978 -0.34100646 -0.09149338 -0.06671229
0001a0 17 5a 4b 3b 21 bd 24 3e 0b a4 e8 be 6a 73 a0 3b
       0.003102904 0.16087772 -0.45437655 0.004896571
0001b0 b0 c0 2b 3e 8d ab 94 bd 73 fd 78 bd e7 c0 2a bf
       0.16772723 -0.07259283 -0.060788583 -0.66700596
0001c0 f0 4f a5 be 93 27 09 3e d5 cd 5e be ed 96 9c 3d
       -0.3228755 0.13394003 -0.21758206 0.07645974
0001d0 bf 96 06 be 3f ef a3 3d 8b b0 51 be b9 d5 ed bd
       -0.13143443 0.08004617 -0.20477502 -0.1161303
0001e0 79 b5 ac bd 60 00 5d be a7 fb a5 be c8 33 81 be
       -0.08433051 -0.21582174 -0.32418558 -0.25234818
0001f0 c5 44 87 3e 03 6f 2c 3e 07 1b 9f bd a4 4e 89 be
       0.26419654 0.16839223 -0.07768827 -0.2681781
000200 d3 86 aa 3e 14 8a d0 bd 95 60 f1 be 0b 57 c1 3c
       0.33305988 -0.10182586 -0.47144 0.023601076
000210 13 80 b5 bd e9 fe 97 bc dc 1f 26 3e 14 dc 21 3d
       -0.08862319 -0.018554168 0.16223091 0.039516523
000220 7b e6 f5 3d ac 95 0e 3c 8d 13 10 3e 79 ac d8 3d
       0.12006851 0.008702677 0.14069958 0.105797715
000230 74 95 5a 3e 9f dc 2f 3e 4f 0f 4a 3e a3 04 15 3e
       0.21346074 0.17174004 0.19732402 0.1455255
000240 de 8b 95 be aa 08 75 be 9d bb 0c bf e8 2e 9d 3e
       -0.29208273 -0.23929086 -0.54973775 0.3069985
000250 59 30 3e 3d c1 af 2c be dc 3e ad 3e e0 7e 2a 3e
       0.046432827 -0.1686392 0.3383702 0.16649961
000260 43 a4 1e bd 10 d5 15 3f d0 c7 6a 3d b0 37 f1 3d
       -0.03873087 0.5852823 0.057319462 0.117782
000270 11 2e 0b 3e a8 5d c8 be 6e 74 f3 3d 63 c6 b8 be
       0.13591792 -0.39133954 0.118874416 -0.36088857
000280 7b 37 be be 46 75 46 be 34 0b d1 be 16 8d c7 3c
       -0.37151703 -0.19380674 -0.4082886 0.024359267
000290 7b cc 03 be 2f db 5e 3b c7 e9 12 3d 07 53 18 be
       -0.12870972 0.0034005155 0.03586748 -0.14875422
0002a0 e0 27 25 bd 0d 76 47 be 9d 8e 7b 3d 53 2c ad be
       -0.04032123 -0.19478627 0.061415303 -0.3382288
0002b0 a4 a1 9a 3e 33 cc 67 be e6 52 0e 3e ea c3 42 bc
       0.30201447 -0.2263649 0.1389881 -0.01188753
0002c0 16 e2 93 be 4d 5b a8 bc fe 7f b7 3e 81 c5 c7 b8
       -0.28883427 -0.020551348 0.35839838 -9.5258474e-05
0002d0 12 05 2c 3e da 58 05 3e 3c 76 11 3a 88 34 88 3e
       0.16798809 0.13022175 0.00055489293 0.26602578
0002e0 8f ba 26 be 40 ba a6 be 21 d5 e7 bc 7e 28 bc be
       -0.16282104 -0.32563972 -0.02829987 -0.36749643
0002f0 a6 b2 58 3e 43 4d 97 bc 57 2f 84 be 2f b9 af 3d
       0.21161899 -0.018469458 -0.25817367 0.08580243
000300 56 30 c1 bd 2f 25 99 be f6 a5 99 be fc 7d e7 bd
       -0.094330475 -0.2991118 -0.3000943 -0.113033265
000310 14 f3 bb bd 96 c2 a2 be ae 33 95 3e 42 5e da bd
       -0.09177223 -0.31789082 0.2914099 -0.106625095
000320 ab c2 ae 3d 0f 01 1b 3e bb 28 79 3b 1a 83 78 3e
       0.08533224 0.15137123 0.0038018662 0.24268761
000330 71 01 4d be ef 8a 0a 3f b6 f0 86 be 59 b5 85 bd
       -0.20020081 0.54118246 -0.26355523 -0.0652873
000340 09 d1 86 be cd a7 f2 3d 9a 3a 57 be 29 9e 41 be
       -0.26331356 0.11848412 -0.21018448 -0.1890799
000350 e3 cf b2 be be f3 d1 bd f7 e9 7e be b4 2c 1f 3e
       -0.3492423 -0.10251568 -0.24893938 0.15544397
000360 67 93 02 bf a7 94 2d be f2 86 b2 be 75 95 00 3e
       -0.5100617 -0.16951238 -0.3486858 0.12557013
000370 6f 61 a2 3e fe e6 67 3e 9d eb 11 3f b5 8c d4 3e
       0.3171496 0.2264671 0.5700014 0.415136
000380 3c 14 43 3e d0 89 51 be 96 08 5e be 2a 7e a4 3e
       0.19050688 -0.20462728 -0.21682963 0.32127506
000390 34 d7 d6 3d 96 36 7f 3c 59 23 b2 3d c4 1d 16 be
       0.104902655 0.015576979 0.08698148 -0.14659792
0003a0 57 eb 1f bc 49 f7 2f bd ed 9a c5 be d8 e2 02 3e
       -0.009760699 -0.04296044 -0.38594761 0.12781847
0003b0 c5 a7 4f bd f5 7e 05 be 93 19 4f 3e 4f e1 a1 be
       -0.050697107 -0.13036712 0.202246 -0.3161721
0003c0 c2 31 54 be b3 5e a9 3d 46 1f 9c be 70 27 08 be
       -0.20722106 0.082700156 -0.3049261 -0.13296294
0003d0 bb f3 9f be 7a 74 c8 bd 72 7d 47 be 87 9d 9f bc
       -0.3124064 -0.09787841 -0.19481447 -0.019484295
0003e0 19 7d 52 be 93 5f ad 3d 63 c8 15 3e 74 fa a8 bd
       -0.20555533 0.08465495 0.14627223 -0.08250895
0003f0 5c 9c e5 bd 96 15 8f be 3c bb 31 3e 60 78 5a 3d
       -0.11211464 -0.27946156 0.1735658 0.053337455

bias f4 [32]
000000 61 64 9d bc 83 1c 18 be 01 d6 3e bd 3b e0 72 bd
       -0.019212903 -0.14854626 -0.04659081 -0.059295874
000010 a1 1d 1a 3c e7 fb d9 bd 3f b0 09 bd 6a 23 98 3d
       0.009406478 -0.1064375 -0.033615347 0.0742863
000020 09 06 06 be 20 d6 b8 bc 14 b1 a9 bd 7a ed 56 3d
       -0.1308824 -0.02256304 -0.08285728 0.05247257
000030 20 b1 bc bd e4 c2 d7 3d ba 1f 0b 3e 1b ad fa bd
       -0.092134714 0.10535219 0.13586321 -0.122400485
000040 3f 95 1b 3e 2e 35 ab 3d ce 69 d2 3b 5b 0a aa 3c
       0.15193652 0.083597526 0.0064213043 0.020756891
000050 6d 47 d4 3b 13 a2 5a bd 0e 45 1b bd 4a cf 8c 3d
       0.006478241 -0.053377222 -0.037907653 0.06875475
000060 50 35 58 bb 94 af 14 bd 78 b7 d1 3c 0b 5c 3e bd
       -0.003299076 -0.036300257 0.02560018 -0.046474498
000070 59 e7 14 be 9c 01 d0 3c e2 5a 8f 3d 17 5b d4 3d
       -0.14541377 0.025391392 0.069997564 0.103689365
